demo_fnn_model-100.pt (torch, 165413 bytes, 27 tensors)

linears.0.weight f4 [64, 2]
0	0xbbdb9bec	-0.006701937
1	0xbe4e957b	-0.2017421
2	0xbe925971	-0.28583863
3	0x3ea084de	0.3135137
4	0xbce58507	-0.028017534
5	0xbda254a1	-0.07926298
6	0xbe8d407f	-0.2758827
7	0xba324390	-0.0006800229
8	0xbe94b9b2	-0.29047924
9	0x3df53bcd	0.11974297
10	0xbd820135	-0.063478865
11	0xbddb79b4	-0.107165724
12	0xbe234480	-0.159441
13	0xbd55a5e1	-0.052160148
14	0x3e6cb535	0.23116
15	0x3dc0b0b5	0.09408704
16	0xbe9ed17c	-0.310192
17	0x3e007c8b	0.1254751
18	0xbd55283e	-0.05204033
19	0x3decaf5b	0.11556884
20	0x3cd1bdf5	0.025603274
21	0xbb459f4f	-0.003015477
22	0xbd004f77	-0.031325784
23	0x3df1c61f	0.11805367
24	0xbe5687b2	-0.20950201
25	0xbe2086ab	-0.15676372
26	0xbe702ab2	-0.23453787
27	0xbdceb545	-0.10093168
28	0x3dddf75a	0.10838194
29	0xbd845266	-0.06461029
30	0xbeab0b0d	-0.3340687
31	0xbe39dcbd	-0.18150611
32	0xbe17ede9	-0.1483685
33	0xbd9fdd9d	-0.07805941
34	0xbec15de4	-0.37766945
35	0xbe3be540	-0.1834917
36	0xbd0992f7	-0.033587422
37	0xbeb3820f	-0.35060164
38	0x3cd47db2	0.025938842
39	0x3d83d270	0.06436622
40	0x3df0fbd7	0.11766785
41	0x3df4c848	0.11952263
42	0xbd0190b6	-0.031632148
43	0xbdd7255c	-0.105051726
44	0x3dfb11a9	0.12259228
45	0xbea6a722	-0.32549387
46	0xbdcfb0f5	-0.10141174
47	0xbde0b79f	-0.10972523
48	0xbec53f32	-0.38524777
49	0x3e03b689	0.128626
50	0x3e95e9f8	0.29280066
51	0x3d37fea9	0.044920597
52	0x3e380429	0.17970337
53	0xbe046e0e	-0.12932608
54	0x3e21942c	0.1577918
55	0x3e242a4f	0.16031764
56	0xbda20f2a	-0.079130486
57	0xbd92cebd	-0.071683384
58	0xbd80b38f	-0.06284248
59	0x3e64e927	0.22354566
60	0x3db0a156	0.086245224
61	0x3e3b5de0	0.18297529
62	0xbe4ee451	-0.20204283
63	0xbdb1b598	-0.086772144
64	0x3e461d07	0.1934701
65	0x3d3e31e4	0.0464343
66	0x3d856000	0.06512451
67	0x3d70ce5b	0.058790546
68	0xbcfa01da	-0.030518461
69	0x3dc99499	0.09842796
70	0x3e805028	0.25061154
71	0xbdcfeea8	-0.10152942
72	0x3d921604	0.071331054
73	0x3c693829	0.014234581
74	0xbddbc327	-0.10730582
75	0x3dfaeeb7	0.122525625
76	0xbd4182b4	-0.04724379
77	0xbd6ca4ab	-0.057774227
78	0xbeb2464a	-0.3481925
79	0x3dd1fcdb	0.102533065
80	0xbdcee87d	-0.10102937
81	0xbe284b0c	-0.16434878
82	0x3cd1ef7d	0.025626892
83	0xbddb9900	-0.10722542
84	0xbd87b994	-0.06627193
85	0xbb6d2edb	-0.0036191258
86	0xbc3fca16	-0.011705896
87	0xbd8a3194	-0.067477375
88	0x3eac4bc3	0.33651552
89	0x3db9bc6d	0.090691425
90	0xbe01ba2f	-0.1266868
91	0x3e9ee83c	0.31036556
92	0xbdcc0102	-0.0996113
93	0x3e4bacb7	0.19890104
94	0x3e288e42	0.16460517
95	0xbdb5f98b	-0.08885487
96	0xbe243c2a	-0.16038576
97	0x3d3b6ced	0.045758177
98	0xbe422bfb	-0.1896209
99	0x3df6d114	0.12051597
100	0xbe2b5eb4	-0.16735345
101	0x3e211ab9	0.1573285
102	0xbe8963df	-0.26834008
103	0xbc429793	-0.011876958
104	0x3e7843ad	0.24244566
105	0x3dd2de5c	0.10296318
106	0x3dbb1fd5	0.09136931
107	0x3dcc949a	0.09989281
108	0x3e3f8d46	0.18706235
109	0x3e34c386	0.17652711
110	0xbc020a09	-0.007936963
111	0xbe714c9d	-0.23564382
112	0xbcbc647a	-0.02299713
113	0x3c866b71	0.016408654
114	0x3e1d61c7	0.1536933
115	0xbe652664	-0.22377926
116	0xbe532ecb	-0.20623319
117	0x3e0a6268	0.13514102
118	0x3eb5d27b	0.35512146
119	0x3ddcf43d	0.10788772
120	0xbe1fa65e	-0.15590808
121	0xbc97a00c	-0.018508933
122	0x3e3975e4	0.18111378
123	0xbe85a164	-0.26099694
124	0xbdbcbab4	-0.09215298
125	0x3d371d7b	0.04470585
126	0x3e2eb2c8	0.17060387
127	0xbdb4698d	-0.08809195

linears.0.bias f4 [64]
0	0xbcfa10f0	-0.030525655
1	0x3ca2ebdf	0.019887863
2	0xbd3367ff	-0.04380035
3	0xbb4f0ca3	-0.0031593225
4	0x3ca04a0b	0.019566556
5	0x3d6a7c19	0.057247255
6	0xbd391658	-0.045187324
7	0x3c96f3e5	0.018426845
8	0xbd048781	-0.03235579
9	0x3b59b07c	0.0033216765
10	0x3b848c5f	0.004045054
11	0x3ae85b45	0.0017727396
12	0xbb607ace	-0.0034252885
13	0xbbeb2cee	-0.007176987
14	0x3a0a3e27	0.00052735436
15	0x3d21c091	0.039490286
16	0x3c722b52	0.014780836
17	0xb88f25ce	-6.825813e-05
18	0xbd1b6358	-0.03793654
19	0x3ce5a346	0.028031956
20	0xbc14d135	-0.009083082
21	0x3b9b9d60	0.004748985
22	0x3bc731bb	0.0060789264
23	0x3c945567	0.01810713
24	0xbd94e9f7	-0.07271188
25	0x3bed6505	0.0072447085
26	0x3cb63aaf	0.02224478
27	0x3d211a1d	0.039331544
28	0xbcb5b418	-0.022180602
29	0x3c19ef75	0.00939547
30	0x3d692cbe	0.056927435
31	0xbc30d380	-0.010792613
32	0x3b64b4d9	0.0034897833
33	0xbc01ad24	-0.007914815
34	0x3b4ca74c	0.0031227646
35	0x3d451762	0.048118003
36	0xbcc6483d	-0.024204368
37	0xbd5caa85	-0.053873558
38	0xbc034521	-0.008012087
39	0xbd3be519	-0.04587278
40	0x3d0e763b	0.034780722
41	0x3c3339e8	0.010939099
42	0x3c4ded87	0.012568838
43	0xbd79548d	-0.06087165
44	0xbce44e20	-0.027869284
45	0x3be69aa2	0.0070374766
46	0x3d01f817	0.031730738
47	0xbd13926e	-0.036028318
48	0x3be063bc	0.0068478268
49	0xbc90de67	-0.017684175
50	0x3bf48bcc	0.007462954
51	0x3b908740	0.0044106543
52	0x3c2857ec	0.010274868
53	0xbc069c43	-0.008215967
54	0x3d4e582c	0.050377056
55	0xbd197f76	-0.03747507
56	0x3cce59eb	0.02518936
57	0x3c707cfd	0.014678237
58	0xbbc22608	-0.005924944
59	0xbc0605d3	-0.0081801
60	0xbcc318b6	-0.023815494
61	0xbcc89ab1	-0.024487825
62	0x3d01a2e0	0.03164947
63	0xbcade7ec	-0.021228753

linears.1.weight f4 [64, 64]
0	0xbe4dabc7	-0.20085059
1	0xbe34122c	-0.17585057
2	0x3e2e741a	0.17036477
3	0x3d6d9dbc	0.058011755
4	0xbcb02754	-0.021503128
5	0x3e2adafe	0.16685101
6	0xbd8d12d8	-0.0688836
7	0x3d50d6f3	0.05098624
8	0xbde580b2	-0.11206187
9	0xbe429ded	-0.19005556
10	0xbbf92d00	-0.0076042414
11	0x3db38e4a	0.08767374
12	0xbe439af1	-0.19102074
13	0xbded3f10	-0.11584294
14	0x3ddc72b5	0.10764066
15	0xbd1ab4fe	-0.037770264
16	0x3d0967f6	0.03354641
17	0x3e6ce684	0.2313481
18	0x3d487d3e	0.048947565
19	0x3dc5df52	0.096617356
20	0x3da91e96	0.08257787
21	0x3daa13f9	0.08304591
22	0xbe5b5769	-0.21420063
23	0x3de0ec32	0.10982551
24	0x3dc6095e	0.096697554
25	0xbc91f20f	-0.017815618
26	0xbe93395f	-0.28754708
27	0x3d6195d0	0.055074513
28	0x3d32ee5d	0.043684352
29	0xbd96711d	-0.073457934
30	0x3e606126	0.21912059
31	0x3d5369bc	0.051614508
32	0xbe2f6de0	-0.17131758
33	0xbd4c05a2	-0.04981006
34	0xbd86df54	-0.06585565
35	0xbda6b195	-0.0813934
36	0x3d27c7d6	0.040962063
37	0x3e023524	0.12715584
38	0xbd2fcaf8	-0.042918175
39	0x3e834c29	0.25644043
40	0xbd7564dd	-0.059910644
41	0x3c95ed51	0.018301638
42	0xbd85b7c3	-0.065291904
43	0x3e846f34	0.2586609
44	0xbe22ad52	-0.15886429
45	0x3d770155	0.060304005
46	0x3e8160de	0.25269216
47	0x3ddc2e4e	0.107510194
48	0x3c90a1ec	0.017655335
49	0x3e3c5f22	0.18395665
50	0x3df98bff	0.12184905
51	0x3e061686	0.1309453
52	0x3d85fc0c	0.06542215
53	0xbd2951aa	-0.041337647
54	0xbd03a4f5	-0.032139737
55	0x3d880206	0.06641011
56	0x3d904534	0.070444494
57	0xbd0c0a7d	-0.03418969
58	0x3e0c645f	0.13710164
59	0xbe19fe78	-0.15038478
60	0x3d2973f2	0.04137034
61	0x3e26b7e9	0.16281094
62	0xbd23987f	-0.039940353
63	0xbdd138dd	-0.10215924
64	0xbd4f5dbc	-0.0506265
65	0x3e2da8c5	0.16958912
66	0x3c18469f	0.009294181
67	0xbddac0e3	-0.106813215
68	0x3e885868	0.2662995
69	0x3e703843	0.23458962
70	0x3dd3c103	0.103395484
71	0xbdf6fe6b	-0.12060245
72	0xbd6ba56c	-0.057530805
73	0xbe58174c	-0.21102637
74	0x3d03cad8	0.03217587
75	0xbced75c9	-0.028986828
76	0x3eb003f8	0.34378028
77	0x3e0cd705	0.13753898
78	0xbc9a22d4	-0.018815435
79	0x3d81d379	0.06339163
80	0x3da442d4	0.08020559
81	0x3b67dd06	0.0035379543
82	0xbd9384a0	-0.072030306
83	0x3d9f97ec	0.07792649
84	0x3dc4d741	0.09611369
85	0xbe5e12ab	-0.21686809
86	0x3dff68c7	0.124711566
87	0xbd3f1ec8	-0.046660215
88	0x3e1345b0	0.14382052
89	0x3dd0622a	0.10174973
90	0xbe46701b	-0.19378702
91	0x3d4ae707	0.04953673
92	0x3def78a3	0.116929315
93	0x3ce97936	0.02850018
94	0xbe21e48a	-0.15809837
95	0x3e0f7246	0.14008436
96	0x3d8abe06	0.06774525
97	0x3d697e0e	0.05700498
98	0x3d0ef099	0.03489742
99	0xbe30fab1	-0.17283131
100	0x3d01267c	0.031530842
101	0x3e55c525	0.20875986
102	0x3d81407f	0.0631113
103	0x3e84b4d8	0.25919223
104	0xbd821f47	-0.06353622
105	0x3e222e0d	0.1583788
106	0x3e0e9c98	0.13926923
107	0x3e407ca9	0.18797554
108	0x3b55b02a	0.0032606223
109	0xbc6c0c71	-0.014407263
110	0x3dbd5193	0.09244075
111	0x3d694800	0.05695343
112	0x3d1426da	0.036169864
113	0x3e1fc568	0.15602648
114	0x3c66c713	0.014085549
115	0x3e5cbb95	0.21555932
116	0x3cf926bb	0.030413976
117	0xbd3a4a61	-0.04548109
118	0x3d3d355c	0.046193466
119	0x3e3d8727	0.18508588
120	0x3ddb09ab	0.106952034
121	0x3cf26098	0.029587075
122	0xbd928651	-0.07154525
123	0xbdaea747	-0.08527999
124	0x3dee5471	0.116372
125	0xbe11e813	-0.14248686
126	0x3d834694	0.06409946
127	0xbdbd1cef	-0.09234034
128	0xbe69186f	-0.22763227
129	0x3cdfe1fa	0.027329434
130	0xbd8cdf4f	-0.0687853
131	0x3e17c96c	0.1482293
132	0x3dc7ae0a	0.09749992
133	0xbd34d39b	-0.044147115
134	0xbc85bbce	-0.016324904
135	0x3d0310f7	0.0319986
136	0xbe4cb66e	-0.19991466
137	0xbcf4d14d	-0.029884959
138	0x3d0d109c	0.034439668
139	0x3b5b19eb	0.0033432196
140	0x3cc931e1	0.024559917
141	0xbd4cf151	-0.050034825
142	0xbd817b39	-0.06322331
143	0xbdc1007f	-0.09423923
144	0xbcff5da7	-0.031172587
145	0x3e24cc5c	0.16093582
146	0xbdfddcef	-0.12395655
147	0xbd98086e	-0.07423483
148	0xbe233bd2	-0.15940788
149	0xbdb4c301	-0.088262565
150	0x3da5abbc	0.08089396
151	0xbd0c9151	-0.034318272
152	0xbd86d5b2	-0.06583728
153	0x3cf4b4a5	0.029871294
154	0x3e04e2cc	0.12977141
155	0xbdbde6c6	-0.09272532
156	0xbdcc8f92	-0.09988321
157	0x3dbe18d5	0.0928208
158	0x3e4c1478	0.19929683
159	0x3db0790f	0.0861684
160	0x3bc2316f	0.005926303
161	0x3e11116b	0.141668
162	0x3db4f37a	0.08835502
163	0x3e040a59	0.12894572
164	0xbaf0b884	-0.0018365537
165	0xbdc82d00	-0.09774208
166	0x3c8a60b6	0.016891818
167	0xbbce8f64	-0.0063037146
168	0x3d8f58a6	0.0699933
169	0x3d27f03a	0.041000582
170	0x3d62f4ab	0.055409115
171	0x3e0db22b	0.13837497
172	0x3dcc04ad	0.09961829
173	0x3df34d9d	0.11880038
174	0x3cd6b1b3	0.02620778
175	0xbdb4279f	-0.087966196
176	0x3e23755d	0.1596274
177	0xbb218116	-0.0024643592
178	0xbe06daf5	-0.13169463
179	0xbe72a570	-0.23695922
180	0x3df91da0	0.12163854
181	0x3bc58f3d	0.006029038
182	0x3d45ea1f	0.04831898
183	0x3d23794d	0.039910603
184	0x3d93e78b	0.07221898
185	0x3d898d08	0.06716353
186	0xbd24cbe5	-0.04023351
187	0xbe3772ab	-0.17914836
188	0x3d54dbfd	0.05196761
189	0x3de2660c	0.1105462
190	0x3d83737c	0.06418511
191	0xbdb50f93	-0.08840861
192	0x3ea67f8f	0.32519194
193	0x3b94617e	0.0045282235
194	0x3d71464f	0.058904942
195	0x3d3b98c8	0.0458
196	0xbdcec323	-0.10095813
197	0xbd3943a3	-0.04523052
198	0xbe4afd2a	-0.19823137
199	0xbd286358	-0.041110367
200	0xbc18ea4b	-0.009333204
201	0x3cd255e8	0.025675729
202	0x3c97cd9e	0.018530663
203	0x3dcb016f	0.09912383
204	0x3ae91a40	0.0017784312
205	0xbec259f0	-0.37959242
206	0xbe14d78b	-0.14535348
207	0x3cae12a5	0.021249125
208	0xbdf0aaf4	-0.11751357
209	0xbc5f4e80	-0.013629556
210	0x3d0cb98f	0.03435665
211	0xbe08c264	-0.13355404
212	0x3d1d30bb	0.03837655
213	0xbdbed17d	-0.093173005
214	0x3d8e581e	0.06950401
215	0x3d85ad55	0.06527201
216	0xbcbbb24d	-0.022912169
217	0xbde64624	-0.11243847
218	0xbd81e160	-0.06341815
219	0x3c9455e7	0.018107368
220	0xbc562b7d	-0.013071892
221	0x3e17016b	0.14746635
222	0xbd0c2d75	-0.03422304
223	0xbe6968ac	-0.22793835
224	0xbc58d7a4	-0.0132350065
225	0xbc2e403e	-0.010635434
226	0x3e4ef765	0.20211561
227	0xbe348536	-0.17628941
228	0xbda7c36f	-0.08191573
229	0xbe28bee5	-0.1647907
230	0xbce0efd2	-0.027458105
231	0x3c92cda1	0.017920317
232	0x3dcb0ea5	0.099149026
233	0x3e13e259	0.14441814
234	0x3bfbd5a8	0.007685382
235	0x3d66d250	0.056352913
236	0xbe0fa455	-0.14027531
237	0x3c604691	0.013688699
238	0x3e32522a	0.17414156
239	0xbbb5f1ee	-0.005552522
240	0xbe664292	-0.22486332
241	0xbdd6b6e7	-0.104841046
242	0xbd9339d3	-0.071887635
243	0x3e2786fc	0.16360086
244	0x3d8cc656	0.06873767
245	0xbda819f5	-0.08208076
246	0x3be9c6b8	0.007134285
247	0x3d3ebc9d	0.046566594
248	0x3dc876be	0.09788273
249	0x3e2d678b	0.1693403
250	0xbdc45c19	-0.09587879
251	0xbe91b472	-0.2845798
252	0xbe8cc61c	-0.27494895
253	0xbe025fdf	-0.12731884
254	0xbd98236a	-0.0742863
255	0xbd0dadbe	-0.03458952

linears.1.bias f4 [64]
0	0xbd0371d0	-0.032090962
1	0x3bbd4f44	0.0057772715
2	0x3c49003d	0.012268123
3	0x3b462fd7	0.0030240917
4	0xbca9ba94	-0.02071885
5	0xbcc35d50	-0.023848206
6	0xbbdb8c2d	-0.00670006
7	0xbc0d366a	-0.00861893
8	0xbcc730e3	-0.024315303
9	0xbb4fd076	-0.0031709946
10	0xbc95a053	-0.018264925
11	0x3c624c8e	0.013812197
12	0xb9637fa3	-0.00021695955
13	0xbaba8244	-0.0014229496
14	0x3c7dc537	0.015488914
15	0xbb650558	-0.0034945812
16	0x3c25c546	0.010117834
17	0xbb6e8731	-0.0036396498
18	0x3cceced2	0.025245104
19	0x3cf5af26	0.029990744
20	0xbd093b1c	-0.033503637
21	0xbc1dab6d	-0.009623391
22	0x3aa086ac	0.0012247167
23	0x3b0a2b47	0.0021082924
24	0x3cf95635	0.030436615
25	0xbc2fd5cb	-0.010732125
26	0xbbf6c723	-0.007531063
27	0x3d077fdc	0.03308092
28	0x3c57b333	0.013165283
29	0x3b9924b7	0.004673566
30	0xbd4a3f5f	-0.04937684
31	0xbc9a9548	-0.018870011
32	0xbc624435	-0.013810207
33	0x3d2ec926	0.0426723
34	0xbca18b24	-0.019719668
35	0xb9e1262a	-0.0004294378
36	0xbc881551	-0.016611727
37	0x3ba4be4c	0.005027568
38	0xbbcb7ca1	-0.0062099253
39	0x3d8645fa	0.06556316
40	0xbd2d902a	-0.042373814
41	0xbd9ea372	-0.077460185
42	0x3b8d8030	0.0043182597
43	0x3d1c2b1c	0.03812705
44	0x3a6e181f	0.0009082574
45	0xbc7fab34	-0.015604783
46	0xbb494489	-0.0030711016
47	0x3c945486	0.01810671
48	0x398c7ff4	0.00026798213
49	0x3cb2136d	0.021737779
50	0x3d503e03	0.05084039
51	0x3bfa86e3	0.0076454743
52	0x3bb168bc	0.0054140966
53	0x3b081e5d	0.002077005
54	0xbc4ac99e	-0.012377171
55	0xbd3736b6	-0.04472991
56	0xbc404c12	-0.011736887
57	0x3c9d132f	0.019174187
58	0x3d061074	0.032730535
59	0xbc7cae94	-0.015422482
60	0x3cf4509b	0.029823592
61	0xbcd53525	-0.026026318
62	0x3b11b50b	0.0022233154
63	0x3d139c93	0.036037993

linears.2.weight f4 [64, 64]
0	0x3e8509a0	0.25983906
1	0xbe09a07c	-0.13440126
2	0x3bfa3e3a	0.0076368125
3	0x3dfa8ea8	0.12234241
4	0x3bd58c36	0.0065169586
5	0x3e6ddae7	0.23228036
6	0x3d100862	0.035164244
7	0xbd214dbe	-0.03938078
8	0xbe21d90a	-0.1580545
9	0x3cd61228	0.026131704
10	0xbc7a381e	-0.015272168
11	0xbc1e3c6f	-0.009657963
12	0x3c171255	0.009220679
13	0x3c88886c	0.016666614
14	0x3d42dea1	0.047575597
15	0x3924731d	0.00015683142
16	0xbe299716	-0.16561541
17	0x3cdb5d74	0.02677796
18	0xbdf6233b	-0.120184384
19	0xbd375195	-0.044755537
20	0xbd9244b6	-0.07142012
21	0xbe856b03	-0.26058206
22	0x3de016bf	0.109418385
23	0x3e4b4ecf	0.19854282
24	0x3d5be5d0	0.053685963
25	0xbe0b1e52	-0.13585785
26	0xbe018edb	-0.12652151
27	0x3d7eb8ff	0.062188145
28	0xbc9588a3	-0.01825363
29	0xbc887255	-0.01665608
30	0x3c018d43	0.007907215
31	0x3d2ca660	0.042150855
32	0xbe5e9162	-0.21735147
33	0x3d11f4bf	0.0356338
34	0x3ed72bfd	0.42025748
35	0x3ca4c823	0.020114964
36	0xbcac6a69	-0.021046834
37	0xbd6f0b8c	-0.05836062
38	0xbe7d2d6c	-0.24724358
39	0xbe6e11a3	-0.23248915
40	0x3d79720d	0.060899783
41	0xbdb68020	-0.08911157
42	0xbc6f3ce2	-0.014601918
43	0xbdbf3727	-0.09336691
44	0x3d8f164d	0.069866754
45	0x3d925919	0.071459
46	0xbe6444bf	-0.2229185
47	0x3d1a07e2	0.037605174
48	0x3e90586c	0.2819246
49	0xbe1a83e3	-0.15089373
50	0xbe2fbdd3	-0.17162256
51	0xbc8f955f	-0.01752728
52	0x3e24f018	0.16107213
53	0x3db02bba	0.0860209
54	0xbe01dcd1	-0.12681891
55	0xbcbb76d8	-0.022883818
56	0xbd495e45	-0.049162168
57	0x3dc7f837	0.0976414
58	0x3d583151	0.052781407
59	0xbe220636	-0.15822682
60	0xbe099771	-0.13436677
61	0x3d8c7c0e	0.06859599
62	0xbe6d97e6	-0.23202476
63	0xbda045f2	-0.07825841
64	0x3e5decc6	0.21672353
65	0x3d91f241	0.071262844
66	0xbe3335fb	-0.1750106
67	0xbd2ec377	-0.04266688
68	0x3d6495d0	0.055806935
69	0x3e787438	0.24263084
70	0xbdebc879	-0.115128465
71	0xbcd65896	-0.026165288
72	0xbdd10576	-0.1020612
73	0x3db153cc	0.08658561
74	0xbc8cf7bf	-0.017207978
75	0x3e4070c4	0.18793017
76	0x3d90dbab	0.07073148
77	0xbcf7337c	-0.030175917
78	0x3df12f9a	0.117766574
79	0x3d566359	0.05234084
80	0x3e25aafe	0.1617851
81	0xbd8abb91	-0.06774057
82	0xbd50085d	-0.050789226
83	0xbe172536	-0.14760289
84	0xb97734af	-0.00023575382
85	0xbda5a6d2	-0.08088459
86	0x3e813154	0.25232947
87	0x3c8284b0	0.015932411
88	0xbc585d50	-0.013205841
89	0xbde68ec5	-0.112577
90	0x3d8a9fd6	0.067687675
91	0xbd3bde89	-0.045866523
92	0x3d0cee0b	0.034406703
93	0x3ce2717b	0.027642002
94	0x3dc3d2c2	0.09561683
95	0xbd56dbbc	-0.05245565
96	0xbded46b1	-0.11585749
97	0x3cdef46b	0.027216157
98	0x3c90578a	0.017619867
99	0x3d2ccfc4	0.04219033
100	0x3e61c1be	0.22046563
101	0xbd65642a	-0.056003727
102	0x3d89403f	0.06701707
103	0x3bb138d4	0.005408386
104	0xbcbedecc	-0.023299597
105	0x3e207409	0.15669264
106	0xbe41da4a	-0.18930927
107	0x3d557241	0.052110914
108	0xbe0f5f6c	-0.14001244
109	0xbcd4e2e0	-0.025987089
110	0x3e5619e0	0.20908308
111	0xbe02e0e6	-0.12781104
112	0x3db4767d	0.08811662
113	0xbd098e2e	-0.03358286
114	0x3d8dab24	0.06917408
115	0xbe0b7af2	-0.13621119
116	0x3e3cec86	0.18449602
117	0xbd24a058	-0.04019198
118	0x3c24fd4a	0.010070154
119	0x3c08d375	0.008351197
120	0x3e4956ad	0.1966197
121	0x3dc4b108	0.096040785
122	0xbe85f894	-0.26166213
123	0xbdd9cc8b	-0.106347166
124	0xbbdace18	-0.0066774003
125	0x3cea8e5f	0.028632341
126	0xbe1e3b06	-0.15452203
127	0xbd94db8b	-0.07268437
128	0xbe693493	-0.22773962
129	0xbdfa472c	-0.12220606
130	0x3dd4e716	0.10395639
131	0xbea808ad	-0.3281912
132	0xbe441eaa	-0.19152322
133	0x3d93215a	0.07184096
134	0x3e17dff9	0.14831533
135	0x3e2d707a	0.16937438
136	0xbb11c244	-0.0022241035
137	0x3d673996	0.056451403
138	0x3d3846d7	0.044989433
139	0x3d964518	0.07337397
140	0xbd31a153	-0.04336674
141	0xbdae01c1	-0.08496428
142	0xbde1198f	-0.10991203
143	0x3e976568	0.29569554
144	0xbd758d6c	-0.059949324
145	0xbe4a13e1	-0.19734146
146	0xbc85768e	-0.016291883
147	0xbdc8f691	-0.09812654
148	0x3d92a61e	0.071605906
149	0xbd6aa261	-0.057283763
150	0x3d080015	0.033203203
151	0xbde297c4	-0.11064103
152	0x3ce4704a	0.027885575
153	0xbe3ced88	-0.18449986
154	0xbbb91964	-0.0056487788
155	0x3d533965	0.051568408
156	0xbd8548f1	-0.06508053
157	0x3d24284d	0.040077496
158	0x3cdf2980	0.027241468
159	0x3e296360	0.16541815
160	0xbcec7597	-0.028864665
161	0xbd50e117	-0.050995912
162	0x3d30302e	0.043014698
163	0xbc1b8dde	-0.009494273
164	0x3c61ecaa	0.013789335
165	0xbe4bda01	-0.1990738
166	0xbdfd7355	-0.123755135
167	0x3e2a2c27	0.16618405
168	0x3e3d6930	0.18497157
169	0x3dc2e273	0.09515848
170	0xbe3ed9e3	-0.18637805
171	0xbcab950a	-0.02094509
172	0x3dfad29a	0.122472
173	0x3df2bef4	0.11852828
174	0xbd439259	-0.04774699
175	0xbe388472	-0.18019274
176	0x3d848096	0.06469838
177	0x3caecded	0.021338427
178	0xbcd28b43	-0.02570117
179	0x3c4d160a	0.012517462
180	0xbe0e0bd7	-0.13871704
181	0x3e25764a	0.16158405
182	0xbe4ea164	-0.20178753
183	0x3de8b2ff	0.11362266
184	0x3d2fc2b2	0.042910285
185	0xbd9b26bc	-0.07575747
186	0xbd706029	-0.058685455
187	0x3e310828	0.17288268
188	0xbccb49c8	-0.024815455
189	0x3d29c7f4	0.041450456
190	0x3d821f12	0.063535824
191	0xbddbf6b4	-0.10740414
192	0xbd2b8362	-0.041873343
193	0xbdd1da7b	-0.1024675
194	0x3b814929	0.003945489
195	0x3d00cf00	0.03144741
196	0x3e70943a	0.23494044
197	0x3ea30872	0.3184238
198	0xbbc347b5	-0.005959476
199	0xbce121a8	-0.027481869
200	0xbde7b549	-0.11313874
201	0xbcba12ae	-0.022713985
202	0x3ddcdff0	0.107849
203	0x3e43961b	0.1910023
204	0xbe1f9851	-0.15585448
205	0xbc8d392c	-0.017239176
206	0x3d35f6bb	0.044424754
207	0xbd68d469	-0.056843195
208	0xbe329e36	-0.17443165
209	0xbd2c1088	-0.042007953
210	0x3da95473	0.082680605
211	0xbdb751d3	-0.089511536
212	0xbe08ba8b	-0.1335241
213	0x3e3a6ab8	0.18204772
214	0xbd623948	-0.05523041
215	0x3e88edb3	0.2674385
216	0xbc3f0f88	-0.011661418
217	0xbd76806b	-0.060181063
218	0xbd917d6f	-0.07104003
219	0xbe198ed9	-0.14995898
220	0xbd800ec0	-0.06252813
221	0xbd61e10a	-0.055146255
222	0x3e1a155f	0.15047215
223	0x3e6e9ee1	0.23302795
224	0xbdd8e64e	-0.10590802
225	0x3e3c9a2a	0.18418184
226	0x3da20f20	0.07913041
227	0xbe1f42cb	-0.15552823
228	0x3e035084	0.12823683
229	0xbdc300d5	-0.09521643
230	0xbe03aa7a	-0.12858
231	0x3d2294ca	0.039692678
232	0x3e333921	0.17502262
233	0x3dccc729	0.09998924
234	0xbd701c9d	-0.058621038
235	0xbe0b7c14	-0.13621551
236	0xbe1bd335	-0.15217288
237	0x3dc16d08	0.09444624
238	0xbe2d2ae6	-0.16910896
239	0x3dda0ec2	0.10647346
240	0xbe4f9ba3	-0.20274214
241	0x3e2d1d15	0.16905625
242	0xbc5ff625	-0.013669525
243	0x3d277eca	0.0408924
244	0x3dd02da4	0.10164955
245	0xbe0541e8	-0.13013422
246	0xbe29f1d4	-0.16596156
247	0x3d324fef	0.043533262
248	0xbe0e9a2c	-0.13926
249	0x3e6fa7c4	0.23403841
250	0xbd9c2524	-0.076242715
251	0x3dab3d9f	0.08361363
252	0xbd9c4dbf	-0.076320164
253	0x3d8169b9	0.06318993
254	0x3dfb0039	0.12255902
255	0xbe24136f	-0.16023038

linears.2.bias f4 [64]
0	0xbcc0d91e	-0.02354103
1	0xbc969dfc	-0.01838588
2	0xbc34d478	-0.011036985
3	0xbc8e8a5f	-0.017399965
4	0xbc39efcc	-0.011348676
5	0xbb9067c3	-0.0044069006
6	0x3bc4f672	0.006010824
7	0x3d2707b9	0.04077885
8	0xb9b4ddcf	-0.00034497536
9	0x3af91a04	0.0019004946
10	0x3c5b75ab	0.013394753
11	0xbba68915	-0.0050822594
12	0xbd53b963	-0.05169047
13	0xbc5afd6a	-0.013366083
14	0x3b185b92	0.002324794
15	0x3ce8967a	0.028392065
16	0x3c69f76d	0.014280182
17	0xbc3cd158	-0.011524521
18	0xbc79a788	-0.0152376965
19	0xba4ba265	-0.0007768034
20	0x3cb8e3ed	0.022569621
21	0x3b43bd72	0.0029867557
22	0x3d40d223	0.047075402
23	0x3be82036	0.007083918
24	0xbd8f74c0	-0.0700469
25	0xbbd8c991	-0.0066158255
26	0xbc0ceb06	-0.008600956
27	0x3c4f21d5	0.0126423435
28	0x3ca05bdd	0.019575054
29	0xbc9b8b89	-0.018987434
30	0x3c272e69	0.010203936
31	0x3c918f60	0.017768562
32	0xbcdba201	-0.026810648
33	0xba88c3c0	-0.0010434315
34	0xbcda33e7	-0.026636077
35	0xbc95a8cd	-0.018268967
36	0x3ba33147	0.0049802396
37	0x3b2f3d93	0.0026739582
38	0xbac3e92d	-0.0014946811
39	0xbc31fdb0	-0.0108637065
40	0xbad8b41d	-0.001653317
41	0x3be9b344	0.007131966
42	0x3c28ec71	0.010310278
43	0x3c8ce1d4	0.017197527
44	0x3ce7f949	0.02831711
45	0xbcde1328	-0.027108744
46	0xbcdb3743	-0.02675975
47	0xbadf412e	-0.0017032975
48	0x3c982f4e	0.018577244
49	0x3c6164c3	0.013756934
50	0xbd07ddb6	-0.033170424
51	0x3c225fda	0.009910548
52	0x3c2143c5	0.009842818
53	0x3be1f85e	0.0068960628
54	0xbbb7ea48	-0.0056126453
55	0x3c18b14b	0.009319614
56	0xbc051f30	-0.008125111
57	0xbba9abf3	-0.0051779686
58	0xbd33477d	-0.04376935
59	0x3c95de36	0.018294435
60	0xbabe5687	-0.0014521637
61	0x3d536465	0.051609416
62	0x3c471bd7	0.012152634
63	0x3b85a51e	0.0040785214

linears.3.weight f4 [64, 64]
0	0xbdd7aae5	-0.105306424
1	0xbd53358a	-0.05156473
2	0x3c6618c8	0.014043994
3	0x3dd6c414	0.10486618
4	0x3ca04786	0.019565355
5	0x3e33ba32	0.17551497
6	0x3e270aeb	0.16312759
7	0xbe1eab18	-0.15494955
8	0xbdd87977	-0.105700426
9	0x3e2280f8	0.1586951
10	0xbdceb525	-0.10093144
11	0x3dd6dbd4	0.10491148
12	0xbe6638ec	-0.22482651
13	0xbcef12c2	-0.02918375
14	0xbcc48b13	-0.023992097
15	0x3cb29acd	0.02180233
16	0xbe9b21ec	-0.30299318
17	0xbe461d13	-0.19347028
18	0x3d1a80a6	0.037720345
19	0xbe1612d0	-0.14655614
20	0xbe2c7da5	-0.16844805
21	0x3dc967b9	0.09834237
22	0xbdaaad4e	-0.083338365
23	0xbcabc7e6	-0.020969342
24	0xbb6b4f71	-0.0035905505
25	0xbe7a1553	-0.24422197
26	0xbd11c341	-0.0355866
27	0x3dedacef	0.1160525
28	0x3d4fd6f6	0.050742112
29	0x3d2d46e7	0.042303946
30	0xbd2fe4fa	-0.04294298
31	0x3ded4753	0.1158587
32	0xbe3c43e4	-0.18385273
33	0xbe3ae771	-0.1825235
34	0x3e233955	0.15939839
35	0x3cc88681	0.024478199
36	0x3e2a0c2e	0.16606209
37	0xbd87a99e	-0.06624149
38	0xbe808c7d	-0.25107184
39	0xbe2149a4	-0.15750748
40	0x3d8ae4b1	0.06781901
41	0xbe679fbd	-0.22619529
42	0x3d348cfa	0.04407976
43	0xbc5545b7	-0.01301711
44	0xbc9529ab	-0.018208345
45	0x3e5a5691	0.21322085
46	0xbd45b596	-0.048268877
47	0x3e55217d	0.20813556
48	0xbea1c321	-0.31594184
49	0xbdc79ac4	-0.09746316
50	0xbe474585	-0.19460113
51	0x3caf5619	0.02140336
52	0x3d65bacf	0.056086358
53	0x3cb98d93	0.022650516
54	0xbd4eedb5	-0.050519664
55	0xbda4360d	-0.08018122
56	0x3e0b55f6	0.1360701
57	0x3d25e96b	0.040505808
58	0xbdd04a53	-0.10170426
59	0xbd9272f7	-0.07150834
60	0x3cd02ebd	0.025412912
61	0xbd6617f7	-0.0561752
62	0x3eb055da	0.344405
63	0xbca4262a	-0.02003773
64	0xbd371021	-0.044693116
65	0xbd2b7036	-0.04185506
66	0x3dc7e945	0.097612895
67	0xbdf01e7b	-0.11724564
68	0xbe41c615	-0.18923219
69	0x3d70ca37	0.058786597
70	0xbe12a9ec	-0.14322633
71	0xbc3fae61	-0.01169929
72	0x3dbff048	0.09372002
73	0x3cc2cc71	0.023779126
74	0xbcce430c	-0.025178455
75	0xbdc961e9	-0.09833128
76	0x3d16a069	0.036774073
77	0x3d4326ef	0.04764455
78	0x3e19c169	0.15015186
79	0xbd599ead	-0.05312984
80	0xbe35d98a	-0.17758766
81	0xbcaebf03	-0.021331316
82	0x3dd188c1	0.10231162
83	0x3e1051fe	0.14093778
84	0x3d80892b	0.06276163
85	0x3cc7a4e5	0.02437062
86	0xbc550492	-0.013001578
87	0xbc809721	-0.015697064
88	0xbdff9894	-0.12480274
89	0x3d9ae4b6	0.075631544
90	0xbc48753d	-0.012234983
91	0xbe5a2c31	-0.2130592
92	0x3c8edb23	0.017438477
93	0xbe4efd5e	-0.2021384
94	0xbdb706e7	-0.089368634
95	0xbdcf3b6c	-0.10118756
96	0xbdebf9f6	-0.11522286
97	0xbdddac25	-0.108238496
98	0x3d396002	0.045257576
99	0x3caa052c	0.02075442
100	0xbd92f079	-0.07174773
101	0x3d95b4b0	0.07309854
102	0xbc8a647d	-0.01689362
103	0xbe3660af	-0.1781032
104	0xbea4719e	-0.32117933
105	0xbded4ca9	-0.115868874
106	0xbdd70a72	-0.10500039
107	0xbd91c195	-0.07117001
108	0xbe690883	-0.22757153
109	0x3d1de402	0.038547523
110	0xbddbfd9b	-0.10741731
111	0x3d06c088	0.032898456
112	0x3ca4b18e	0.020104196
113	0x3e926e7a	0.28599912
114	0x3e8dcf10	0.2769704
115	0x3e15cc7b	0.14628784
116	0xbd714122	-0.058900006
117	0x3db83c16	0.089958355
118	0x3dde4b3f	0.10854196
119	0xbe246ffd	-0.16058345
120	0x3dd57cd9	0.104242034
121	0x3dfde795	0.123976864
122	0x3e860850	0.26178217
123	0xbe3c93b5	-0.18415721
124	0x3d186ac1	0.037211183
125	0xbd156b9b	-0.036479574
126	0x3dc95b04	0.09831813
127	0xbc8e5669	-0.017375188
128	0xbe024d2b	-0.1272475
129	0x3c774572	0.015092241
130	0xbe7b5e29	-0.24547638
131	0xbe3053e7	-0.17219506
132	0x3e07b994	0.13254386
133	0xbd890814	-0.06690994
134	0xbe80112e	-0.25013107
135	0xbcb8244a	-0.022478241
136	0x3cab748a	0.020929594
137	0xbcd2fc17	-0.025754971
138	0x3d35bdf6	0.044370614
139	0x3e5914c3	0.21199326
140	0x3da19d8b	0.07891377
141	0x3d851e21	0.06499887
142	0x3c03d8df	0.008047312
143	0xbe613b5f	-0.21995305
144	0x3d4135e1	0.047170524
145	0xbe069804	-0.13143927
146	0x3e70655d	0.23476167
147	0xbe23d35d	-0.15998597
148	0x3e940796	0.28912038
149	0xbd653be2	-0.05596531
150	0xbd4e0e7b	-0.05030678
151	0x3d14912b	0.036271255
152	0xbcef8ff2	-0.029243443
153	0x3cd07b61	0.025449457
154	0xbd898da4	-0.06716469
155	0xbe0cd141	-0.13751699
156	0x3df5ee9d	0.120084025
157	0xbc343c5d	-0.01100072
158	0x3d27acd7	0.040936317
159	0x3d8b83da	0.06812258
160	0xbd936ea6	-0.07198839
161	0x3e62832a	0.22120348
162	0x3e674769	0.22585835
163	0x3db4c834	0.08827248
164	0xbe0f3a23	-0.13987021
165	0x3d3900df	0.045166846
166	0xbcab1b06	-0.02088691
167	0xbdd5df93	-0.10443034
168	0x3de5ab67	0.11214333
169	0x3e6c5ee2	0.2308307
170	0x3d93de43	0.072201274
171	0x3b18bfbd	0.0023307644
172	0x3dcb645e	0.09931253
173	0xbc003ad7	-0.0078265285
174	0x3d87ed00	0.06637001
175	0x3dded1d5	0.10879866
176	0x3e088141	0.13330556
177	0x3e562524	0.20912606
178	0x3c0193a2	0.007908734
179	0xbdc975d7	-0.09836929
180	0xbc29a616	-0.010354539
181	0x3d98eb01	0.074666984
182	0x3e77465c	0.24147934
183	0x3dd8cc34	0.10585824
184	0x3d2af0ab	0.041733425
185	0x3e8123e6	0.252227
186	0xbdd2e2b5	-0.10297147
187	0xbd8282bf	-0.06372594
188	0xbde558cb	-0.111985765
189	0x3e2ee171	0.17078187
190	0xbdccd7a5	-0.100020684
191	0x3d5e1b5d	0.054225314
192	0x3da89e6d	0.08233342
193	0xbdbf35fc	-0.093364686
194	0xbe624820	-0.22097826
195	0x3dca60cc	0.09881744
196	0x3cbedb6b	0.023297986
197	0xbe7b2e9c	-0.24529499
198	0x3d8091f6	0.0627784
199	0xbced06b9	-0.02893387
200	0xbe0ffe06	-0.14061746
201	0xbdf7f848	-0.12107903
202	0x3d907341	0.07053233
203	0xbe12e599	-0.14345397
204	0xbe04eebd	-0.12981696
205	0x3e3a8b06	0.18217096
206	0xbc241a28	-0.010016002
207	0x3dffd914	0.12492576
208	0x3d9dc373	0.077032946
209	0xbe127aa3	-0.14304595
210	0x3cc5847d	0.024111027
211	0x3e0bbc3d	0.13646026
212	0x3d708180	0.05871725
213	0x3df760ec	0.12079033
214	0xbce07934	-0.027401544
215	0x3e330fa0	0.17486429
216	0xbd61fc46	-0.055172227
217	0xbd3ddbe2	-0.046352275
218	0xbd49ffd7	-0.049316254
219	0xbcf54ff2	-0.029945347
220	0xbd0c2bdf	-0.034221526
221	0x3d340fb7	0.0439603
222	0xbe1ed676	-0.15511498
223	0xbe193268	-0.14960635
224	0xbe1e4cf0	-0.15459037
225	0x3d808f2b	0.06277307
226	0x3d8c6d6f	0.0685681
227	0x3aec08ed	0.0018008031
228	0x3d638b63	0.05555285
229	0xbd4d68ed	-0.050148893
230	0x3e8c065c	0.27348602
231	0x3dffb58a	0.12485798
232	0xbe19a551	-0.1500447
233	0xbe52c009	-0.20581068
234	0x3e0f6f5b	0.14007322
235	0x3dff9bde	0.12480901
236	0xbdcc1823	-0.09965541
237	0xbdc223ed	-0.094795085
238	0xbc693eca	-0.0142361615
239	0xbe846267	-0.25856325
240	0x3da915cf	0.08256113
241	0x3d7e0701	0.0620184
242	0x3cf439c5	0.029812703
243	0x3e81a47d	0.25320807
244	0x3e77491b	0.24148981
245	0x3d93520f	0.07193386
246	0x3d6eda63	0.05831374
247	0x3d1e1ca2	0.038601525
248	0xbd1edee1	-0.038786773
249	0xbdf065fd	-0.11738203
250	0xbd957300	-0.07297325
251	0xbd1e260f	-0.038610514
252	0xbdf94384	-0.12171081
253	0x3e03fa20	0.12888384
254	0x3c26c3c4	0.01017851
255	0xbe5b11f5	-0.21393569

linears.3.bias f4 [64]
0	0x3c84ee23	0.016226834
1	0xbc65f33f	-0.014035045
2	0xbb0645e6	-0.002048844
3	0x3c2f0fb3	0.010684895
4	0x3b64997f	0.003488153
5	0x3bf4901f	0.0074634696
6	0xbb2aacfd	-0.002604305
7	0x3ab89532	0.001408255
8	0xbb52015a	-0.0032044263
9	0xbb61e5c3	-0.0034469224
10	0xba1e192f	-0.00060309743
11	0x3ae65002	0.0017571452
12	0xbbabe4f0	-0.0052457973
13	0xbbb62fe1	-0.005559907
14	0xbba6fb7d	-0.0050958977
15	0x3b6f9c85	0.0036561799
16	0x3bcd2276	0.0062602116
17	0xbc38dea9	-0.011283555
18	0x3a486872	0.0007644958
19	0xbce9bc98	-0.028532311
20	0xbbcc7271	-0.0062392284
21	0xba5fa8cb	-0.0008531927
22	0xbb7ae76d	-0.0038284913
23	0xbc3d602e	-0.011558576
24	0xba3391a8	-0.00068500126
25	0xbbda5fe3	-0.0066642626
26	0x3b2d187c	0.00264123
27	0xbc3dc2eb	-0.011582117
28	0x3c47e229	0.012199917
29	0x3993b91a	0.00028175936
30	0xbbc235c9	-0.005926822
31	0x3d0cd258	0.034380287
32	0xbb90ee22	-0.004422919
33	0xbcc2ca23	-0.023778027
34	0x3c60556b	0.01369224
35	0xbc5ef070	-0.013607129
36	0xbac07fb0	-0.0014686491
37	0xbc10cd76	-0.008838048
38	0x3c87a274	0.016556956
39	0xbbe06fcd	-0.006849265
40	0x3b80e753	0.003933826
41	0xba222ca5	-0.0006186462
42	0x3bbc26b2	0.0057419175
43	0xbb4c176c	-0.003114189
44	0x3be05ab8	0.006846752
45	0xbaa13acf	-0.0012300852
46	0x3bfc60af	0.0077019553
47	0xbb1cb52e	-0.0023911702
48	0xbb537a14	-0.003226881
49	0xbc41bf59	-0.011825406
50	0xbb8e3da8	-0.004340846
51	0xbc0c2a6b	-0.008555035
52	0xbb49f203	-0.0030814416
53	0x3b0cdcbd	0.0021493875
54	0x3b34754f	0.0027535742
55	0x3bdfc8b6	0.0068293465
56	0x3be20d0e	0.006898529
57	0xbbaa6c05	-0.005200865
58	0xbc594cd3	-0.013262945
59	0x3b264781	0.002537221
60	0x3b5f750a	0.003409686
61	0x3b73f38b	0.003722402
62	0xbaa08638	-0.0012247032
63	0xbc98233b	-0.018571487

linears.4.weight f4 [1, 64]
0	0xbd3e8923	-0.046517503
1	0x3dd34bd5	0.10317198
2	0x3e8985e9	0.26859978
3	0xbea3d33c	-0.31997097
4	0xbd8b39d2	-0.06798138
5	0xbde58cac	-0.11208472
6	0x3d2e525e	0.04255902
7	0x3e967dbe	0.2939281
8	0x3e2a82c8	0.16651452
9	0x3e1f7075	0.15570243
10	0xbbd27aeb	-0.0064233444
11	0x3bd38681	0.006455243
12	0x3db75b7f	0.08952998
13	0xbcd16db2	-0.025565002
14	0x3dd02d28	0.10164863
15	0x3e83db92	0.25753456
16	0xbd798082	-0.06091357
17	0x3e8b06c2	0.27153593
18	0x3e0fdc45	0.1404887
19	0x3e04c6be	0.12966439
20	0xbd745a99	-0.059656713
21	0xbdddc56c	-0.10828671
22	0xbea8d465	-0.32974544
23	0x3d9ff014	0.07809463
24	0x3c78a3f1	0.015175805
25	0x3e30e2eb	0.17274062
26	0x3ef16359	0.4714611
27	0xbd4b264d	-0.049597073
28	0x3dd287b3	0.10279789
29	0xbd7c5449	-0.061603818
30	0x3e3c575e	0.18392703
31	0x3df0a560	0.11750293
32	0x3e1e99ce	0.1548836
33	0xbe189d4d	-0.14903755
34	0xbd37e6b2	-0.044897743
35	0x3decbb78	0.11559194
36	0xbe878364	-0.2646743
37	0x3df11869	0.11772234
38	0xbdfcf472	-0.12351312
39	0x3cd166d9	0.025561737
40	0x3d23a343	0.03995062
41	0xbe614e9c	-0.22002643
42	0xbe3a5952	-0.18198135
43	0x3c9769a6	0.018482994
44	0xbe2fe7c3	-0.17178254
45	0x3e4f4849	0.20242418
46	0xbe82619f	-0.25465104
47	0xbd78ded9	-0.0607594
48	0x3e91d47b	0.28482422
49	0xbd755983	-0.05989982
50	0x3d0db2b5	0.034594256
51	0x3d0fe755	0.035132725
52	0x3e0c90e1	0.13727142
53	0xbd374ea5	-0.044752736
54	0xbeac7707	-0.3368456
55	0x3e6dfdcd	0.23241349
56	0xbdc68ab3	-0.096944235
57	0x3db10e72	0.08645333
58	0x3e923553	0.28556308
59	0xbe0a2d16	-0.13493761
60	0x3db997ef	0.09062182
61	0x3c9ea4e6	0.01936574
62	0xbde401a9	-0.11133129
63	0xbc9d0c8a	-0.019171018

exp_avg f4 [64, 2]
0	0x3aaaa3cc	0.0013018786
1	0xb97f124d	-0.00024325513
2	0xbaab04a1	-0.0013047644
3	0x38cdc1ea	9.811281e-05
4	0x393e1d93	0.00018130829
5	0x3aef21f2	0.001824437
6	0x3a363427	0.00069505203
7	0xba28aa2a	-0.0006434048
8	0xbaea10ac	-0.0017857752
9	0x39904b77	0.00027522046
10	0x3ae4bcbb	0.0017451266
11	0xb9aa85c3	-0.00032524587
12	0x3b0bd57b	0.002133696
13	0xb9c52d32	-0.0003760844
14	0xb99e7747	-0.00030224977
15	0x3a95b76f	0.0011422465
16	0x3a376bd1	0.0006996962
17	0xba01948a	-0.00049430935
18	0x39e84aae	0.0004430613
19	0xbb11be1a	-0.0022238554
20	0xb9f54d5b	-0.00046787676
21	0x3a5fa7cb	0.0008531778
22	0xba4b953c	-0.0007766073
23	0x3a4c16bc	0.000778537
24	0xba89f60e	-0.00105256
25	0xb97801b0	-0.00023651752
26	0x38b280f8	8.511724e-05
27	0xbb4e6449	-0.003149288
28	0x3a17e665	0.00057945243
29	0x3a202b85	0.00061100005
30	0xb9c029bc	-0.00036652188
31	0x388658c1	6.4061496e-05
32	0x3ac1248a	0.0014735621
33	0xba4015f6	-0.0007327491
34	0xb97a9969	-0.00023899008
35	0xbb090ce6	-0.002091223
36	0xba7aa112	-0.00095607445
37	0x3a9beaa6	0.0011895492
38	0xba96ed4f	-0.0011514815
39	0x3aca52ae	0.0015436017
40	0x3aa3cfbc	0.0012497823
41	0x3a52093b	0.00080122397
42	0x39c46993	0.00037462692
43	0xbad6ba2b	-0.0016382387
44	0x39f9202a	0.00047516945
45	0x3b1f36d6	0.002429416
46	0x3aa71b35	0.0012749197
47	0x3b129ec1	0.0022372457
48	0xbaf6be4a	-0.0018825021
49	0xb9659ba7	-0.00021897127
50	0xba042ee2	-0.00050423865
51	0x3a01ba91	0.000494876
52	0xb9843d4c	-0.00025222672
53	0x39f78cfd	0.00047216556
54	0xba092231	-0.000523123
55	0xb9a6f47c	-0.00031844142
56	0x39a59e6e	0.00031589292
57	0xb8acdfc8	-8.2432816e-05
58	0xba080f0f	-0.0005190232
59	0x39918582	0.00027756026
60	0x39ff03a0	0.0004864009
61	0x3a42ad80	0.0007426366
62	0x39b8a59c	0.00035218603
63	0xbb00dc09	-0.0019662401
64	0xba233a36	-0.00062266306
65	0x3adca875	0.0016834872
66	0xb89a9bfd	-7.372347e-05
67	0x3a640a93	0.00086990854
68	0xbad36cc9	-0.0016130443
69	0xb90237aa	-0.00012418503
70	0x3a6dec14	0.0009076011
71	0x3ab08b01	0.0013469161
72	0xba3d6baa	-0.0007225821
73	0x39951718	0.000284367
74	0xba999116	-0.0011716213
75	0xbabbb376	-0.0014320451
76	0x3aa1d537	0.0012346868
77	0x3a76e6de	0.0009418557
78	0xba3ee7da	-0.00072824734
79	0x39e879a7	0.00044341126
80	0xba826633	-0.0009948671
81	0x37c346b8	2.3278742e-05
82	0xb847dc1d	-4.7650294e-05
83	0x3a8fdc67	0.0010975719
84	0x3a90bb39	0.0011042125
85	0x3aa9ab54	0.0012944737
86	0xbada75a4	-0.001666714
87	0x3a5e72a5	0.00084857113
88	0x3a1f6ff6	0.0006082052
89	0xbb3aef09	-0.0028523824
90	0xba6d5e68	-0.00090549
91	0xb908cf0e	-0.00013047105
92	0x3a0e9457	0.00054389745
93	0xb885d708	-6.381987e-05
94	0xba490f65	-0.00076698355
95	0xba8d8bf8	-0.001079916
96	0x3ae75cb4	0.0017651529
97	0xbb344355	-0.0027505953
98	0x3951dac5	0.00020013291
99	0x399a1504	0.00029388827
100	0xb9ad0d0f	-0.0003300686
101	0xbaa92e34	-0.0012907446
102	0x39ecd930	0.00045175245
103	0xba672c86	-0.0008818585
104	0x39baf455	0.00035658726
105	0xb8b8b219	-8.806977e-05
106	0xba16b041	-0.000574831
107	0xba2f2993	-0.0006681915
108	0x39037f0b	0.00012540461
109	0x3a89c91d	0.0010512207
110	0xbac40499	-0.0014954983
111	0x39543d59	0.0002024075
112	0x3aaedb73	0.0013340547
113	0xb8aaba3c	-8.1409205e-05
114	0xba61a301	-0.00086073583
115	0xbaac60fc	-0.0013151462
116	0x3a1fafa1	0.00060915394
117	0x3aa15595	0.0012308831
118	0x3a385eff	0.00070331985
119	0xba486598	-0.0007644533
120	0xbaa0c689	-0.0012266199
121	0xb99eefd9	-0.0003031481
122	0x3b02af07	0.001994075
123	0x3a06ba69	0.00051394716
124	0x3a4ca0c7	0.000780594
125	0xba68f98b	-0.00088872825
126	0xba7afa1b	-0.0009574012
127	0xba80ed2a	-0.0009836305

exp_avg_sq f4 [64, 2]
0	0x3787185a	1.6104594e-05
1	0x36a6c648	4.9702685e-06
2	0x37b6529e	2.1734562e-05
3	0x37373cee	1.0921836e-05
4	0x36618064	3.3602346e-06
5	0x35bf016a	1.423102e-06
6	0x38131281	3.5064764e-05
7	0x36e8305f	6.91977e-06
8	0x38a9153a	8.062502e-05
9	0x3763b572	1.35725e-05
10	0x37a7d270	2.0005944e-05
11	0x3597f9f1	1.1323119e-06
12	0x36fe9357	7.5869425e-06
13	0x369c28b7	4.653902e-06
14	0x38a28e49	7.751265e-05
15	0x38220486	3.8628023e-05
16	0x36a1a219	4.8170446e-06
17	0x351258bb	5.451836e-07
18	0x37e62408	2.7434915e-05
19	0x378174a5	1.5432315e-05
20	0x37d7fc99	2.5747622e-05
21	0x375e5591	1.3252154e-05
22	0x38aabb03	8.141065e-05
23	0x381a0629	3.67222e-05
24	0x392b775e	0.00016352299
25	0x38b05fa6	8.41015e-05
26	0x38ac70e9	8.22263e-05
27	0x3823cd1c	3.905325e-05
28	0x391be736	0.00014868085
29	0x38a9e345	8.10088e-05
30	0x37df10de	2.6591526e-05
31	0x362a7e0a	2.5405338e-06
32	0x3823f772	3.909268e-05
33	0x379898f3	1.8191035e-05
34	0x3911688a	0.00013867221
35	0x388524e9	6.348809e-05
36	0x3712f4f3	8.75931e-06
37	0x3662211c	3.3695896e-06
38	0x385dd66b	5.28902e-05
39	0x37c16e89	2.3058865e-05
40	0x384a12a2	4.8177906e-05
41	0x37c6cded	2.3699331e-05
42	0x3804019d	3.1472755e-05
43	0x375e4e33	1.3250438e-05
44	0x3872545c	5.7775862e-05
45	0x37ffe830	3.050649e-05
46	0x376811c3	1.3832413e-05
47	0x37102d07	8.593553e-06
48	0x37ac3968	2.053073e-05
49	0x360f1e7b	2.1326402e-06
50	0x38b4ed99	8.627325e-05
51	0x37e3e662	2.7167789e-05
52	0x37226db2	9.681493e-06
53	0x36613ae1	3.3561885e-06
54	0x375bfe0b	1.3112566e-05
55	0x36bcce5f	5.6268614e-06
56	0x3792de27	1.7508004e-05
57	0x371e296d	9.427179e-06
58	0x38237618	3.897221e-05
59	0x37a8dbc4	2.0129497e-05
60	0x373113de	1.0554648e-05
61	0x356d6d24	8.84482e-07
62	0x386daaf7	5.6664427e-05
63	0x37e9ae05	2.7856799e-05
64	0x38b6b0aa	8.7113425e-05
65	0x38399b2a	4.4251945e-05
66	0x37ad6564	2.067042e-05
67	0x370867ad	8.130371e-06
68	0x3837b713	4.38011e-05
69	0x37ba7573	2.222762e-05
70	0x373be9bb	1.1200488e-05
71	0x35ade7a4	1.2956921e-06
72	0x366eb52e	3.5570224e-06
73	0x358fc45a	1.0711476e-06
74	0x367bd2fc	3.7524724e-06
75	0x35b13ce1	1.3205246e-06
76	0x37be5ee7	2.2693957e-05
77	0x370722f1	8.0547625e-06
78	0x380a186b	3.2924505e-05
79	0x3792263f	1.7422366e-05
80	0x37f75202	2.9482882e-05
81	0x37846947	1.578465e-05
82	0x37fd31b9	3.0183104e-05
83	0x371255d0	8.722258e-06
84	0x38af54a3	8.360415e-05
85	0x382ac30c	4.071281e-05
86	0x3699bb75	4.581578e-06
87	0x363e4e62	2.835783e-06
88	0x388bbd57	6.663304e-05
89	0x3802fdfb	3.1230953e-05
90	0x37cea8dc	2.4635745e-05
91	0x3740e070	1.1496348e-05
92	0x37651a0a	1.3655526e-05
93	0x36bf4254	5.699965e-06
94	0x378b9d58	1.664336e-05
95	0x36ff453b	7.6076517e-06
96	0x385fadf3	5.3329346e-05
97	0x37dc8d48	2.6291833e-05
98	0x38ba7def	8.892628e-05
99	0x3830ad2b	4.2122945e-05
100	0x38101065	3.4347544e-05
101	0x37944ff4	1.7680206e-05
102	0x38107180	3.443798e-05
103	0x374b8c5e	1.2132425e-05
104	0x373aea88	1.114107e-05
105	0x36138f15	2.1987992e-06
106	0x38d4c448	0.00010145508
107	0x3852dcf6	5.0273688e-05
108	0x36b957cd	5.523651e-06
109	0x3627299e	2.4909164e-06
110	0x37863411	1.599829e-05
111	0x35478ed6	7.434113e-07
112	0x37e47e5c	2.7238559e-05
113	0x37426fda	1.1589344e-05
114	0x381c3771	3.7244932e-05
115	0x37997325	1.829264e-05
116	0x3770766b	1.4332686e-05
117	0x3645a9ef	2.9454202e-06
118	0x386afffe	5.602836e-05
119	0x37f8183d	2.957519e-05
120	0x37d4ea65	2.5381518e-05
121	0x3714958b	8.856306e-06
122	0x3786b739	1.6059364e-05
123	0x36ccaa12	6.0994726e-06
124	0x37028701	7.780037e-06
125	0x363fbc08	2.8570666e-06
126	0x379eb99e	1.8921502e-05
127	0x37427ef5	1.1592861e-05

exp_avg f4 [64]
0	0x3ade2df0	0.0016950946
1	0xb9ada795	-0.0003312199
2	0x3ada28da	0.0016644255
3	0x3a7a5a21	0.00095501734
4	0x38d88029	0.00010323554
5	0xbb010e84	-0.001969249
6	0x3b3f2927	0.0029168816
7	0xbb3bee8e	-0.0028676125
8	0x3b14a2d6	0.0022680066
9	0xba6f6bd3	-0.00091331935
10	0xb868c6d4	-5.5498283e-05
11	0xbaacee41	-0.0013193564
12	0xba3fcad6	-0.00073162967
13	0xb8daf5d0	-0.00010440836
14	0xb9271ea6	-0.00015937779
15	0xbaf3892d	-0.001858031
16	0xbaa7d12c	-0.0012803427
17	0xbb094b76	-0.002094952
18	0x3b153f77	0.0022773424
19	0xbb52f3ff	-0.003218889
20	0x3a99f825	0.0011746926
21	0x3a376be4	0.0006996973
22	0xba3cfeb0	-0.0007209582
23	0xb9c73cfe	-0.0003800168
24	0x3bc19462	0.005907581
25	0xbab078e1	-0.0013463759
26	0xb8bd62dd	-9.030637e-05
27	0xbb010ea4	-0.0019692564
28	0x3ae30984	0.0017321561
29	0x3888cfec	6.523714e-05
30	0xbb16d8c1	-0.002301738
31	0x3a8358c9	0.0010020967
32	0x3a8e6497	0.0010863718
33	0x3982ff24	0.00024985627
34	0xba1222af	-0.0005574626
35	0xbb0eb1a3	-0.002177336
36	0x3a956d38	0.0011400348
37	0x3ab436bb	0.0013749221
38	0x39e35fcc	0.00043368188
39	0x3b931b1c	0.0044893157
40	0xbb9104fe	-0.004425644
41	0x3a33be88	0.00068566995
42	0xbaa2eaaf	-0.001242956
43	0x3b5c91b3	0.003365618
44	0x3b079335	0.0020687107
45	0x3a1e2a89	0.000603356
46	0xba7d559b	-0.000966394
47	0x3b577cc0	0.0032880753
48	0xba94fcda	-0.001136686
49	0x3b56910a	0.0032740259
50	0xb9009796	-0.00012263501
51	0xba80d2a1	-0.0009828397
52	0x370f4aab	8.540849e-06
53	0x3ac27b5f	0.0014837793
54	0xbb26cc0c	-0.0025451211
55	0x3b0243b6	0.0019876785
56	0xbb6dc946	-0.0036283298
57	0xbb0f7e37	-0.0021895298
58	0x39ba2dd8	0.0003551084
59	0x3a02b617	0.000498624
60	0x3b0151bc	0.0019732555
61	0x3aa151f6	0.0012307751
62	0xbae7a416	-0.0017672803
63	0x3b0cfc02	0.0021512513

exp_avg_sq f4 [64]
0	0x360ff5ee	2.145181e-06
1	0x36e09a94	6.6937155e-06
2	0x35427f22	7.2455634e-07
3	0x35d6443f	1.5964105e-06
4	0x36920647	4.35187e-06
5	0x356b9335	8.7758536e-07
6	0x3650466d	3.1035408e-06
7	0x378c32e0	1.6712991e-05
8	0x35835e35	9.787678e-07
9	0x36ab0757	5.0970516e-06
10	0x368b4157	4.1501294e-06
11	0x373416d9	1.0734156e-05
12	0x3813b5b3	3.521675e-05
13	0x378ae66a	1.6558177e-05
14	0x37e59388	2.7367627e-05
15	0x35a4f82a	1.2291177e-06
16	0x36bef236	5.6906383e-06
17	0x37bfe483	2.2875383e-05
18	0x35c507b2	1.4679883e-06
19	0x373ce651	1.1259298e-05
20	0x3708852d	8.137239e-06
21	0x3675a45a	3.660351e-06
22	0x374363a5	1.1646106e-05
23	0x3627f083	2.5024935e-06
24	0x368d4184	4.2097545e-06
25	0x36c70a6b	5.931875e-06
26	0x352861ff	6.272748e-07
27	0x36182f88	2.2677432e-06
28	0x364816a5	2.9815503e-06
29	0x36fb1ebd	7.4839613e-06
30	0x35ce4ada	1.5369981e-06
31	0x371d66e3	9.381884e-06
32	0x3783f482	1.5730275e-05
33	0x362248bf	2.4182225e-06
34	0x37171503	9.0051935e-06
35	0x35f4f041	1.824934e-06
36	0x3525f1e1	6.181927e-07
37	0x35210e4f	5.9997996e-07
38	0x363a6cd8	2.7779515e-06
39	0x36cabb10	6.041846e-06
40	0x37014040	7.7039585e-06
41	0x363bbb05	2.797403e-06
42	0x375ff102	1.334795e-05
43	0x3619f71b	2.294261e-06
44	0x372e1ca2	1.0377875e-05
45	0x36821d2b	3.8776975e-06
46	0x36116bbb	2.166939e-06
47	0x362f6ad4	2.6139214e-06
48	0x37002a01	7.639174e-06
49	0x376f84fe	1.4276475e-05
50	0x36b289cf	5.3208564e-06
51	0x36d35a8c	6.298831e-06
52	0x35e032c3	1.6704074e-06
53	0x376c7748	1.40944685e-05
54	0x3641016a	2.8760064e-06
55	0x35b66279	1.3588716e-06
56	0x3685e738	3.9906263e-06
57	0x36d2a4e9	6.2776858e-06
58	0x359b8d7e	1.158958e-06
59	0x371b2239	9.246688e-06
60	0x368d36ae	4.208493e-06
61	0x362156ab	2.4041317e-06
62	0x35868fbd	1.0025611e-06
63	0x36ad97c2	5.1734687e-06

exp_avg f4 [64, 64]
0	0xb94be56a	-0.00019445052
1	0x39c6f6c7	0.00037949366
2	0xb8ec786d	-0.00011275788
3	0x37afc576	2.0953576e-05
4	0x393b6e67	0.00017874838
5	0xb6e16701	-6.7175138e-06
6	0xb8cba5af	-9.710655e-05
7	0x38b07898	8.414796e-05
8	0x38ce2ff1	9.831775e-05
9	0x38c174ba	9.224699e-05
10	0x36974be1	4.508984e-06
11	0x38c457f7	9.362393e-05
12	0xb8ee584b	-0.0001136517
13	0xb8a31385	-7.7760815e-05
14	0xb85b2251	-5.224563e-05
15	0xb8953d6d	-7.116315e-05
16	0xb825516e	-3.9414903e-05
17	0xb8ca3233	-9.641461e-05
18	0xb995c7bd	-0.0002856831
19	0x38bbf568	8.962565e-05
20	0x38a5ec08	7.911777e-05
21	0xb89a153e	-7.347249e-05
22	0xb9865a40	-0.00025625713
23	0xb86b5198	-5.6104356e-05
24	0x38537935	5.0419203e-05
25	0x37a8ed9d	2.0137808e-05
26	0xb89b9de7	-7.4203876e-05
27	0x39274073	0.0001595037
28	0xb8ae41b8	-8.3092076e-05
29	0x39498218	0.00019217317
30	0x39565b4f	0.00020442645
31	0xb89b8527	-7.4157775e-05
32	0x381d0ef7	3.7445654e-05
33	0x380ea7c5	3.4011686e-05
34	0x38a8dc95	8.051951e-05
35	0xb7a8a40a	-2.0103547e-05
36	0xb79066ae	-1.7213952e-05
37	0x3783251a	1.5633694e-05
38	0xb860a669	-5.3560743e-05
39	0x38820a03	6.200748e-05
40	0xb8ab2a8d	-8.161841e-05
41	0xb87fc08f	-6.0976072e-05
42	0x378f48b8	1.708079e-05
43	0xb90aa676	-0.00013222717
44	0x36179170	2.258541e-06
45	0x398f37a0	0.0002731653
46	0x3960a473	0.00021423567
47	0xb90a13ad	-0.00013168035
48	0x385023fa	4.962457e-05
49	0x38af66a1	8.3637664e-05
50	0x391f2493	0.00015177047
51	0x376f6dc2	1.4271065e-05
52	0x38a7240b	7.969894e-05
53	0x3888382c	6.495448e-05
54	0x393c04c4	0.00017930852
55	0xb96a4f86	-0.00022345604
56	0x38383f6e	4.3928092e-05
57	0xb932c6bd	-0.00017049439
58	0x38ffe12b	0.00012201288
59	0x3816bb30	3.593712e-05
60	0xb833c9bf	-4.2864816e-05
61	0xb992742f	-0.00027933854
62	0x389c07b3	7.440094e-05
63	0xb8ebef12	-0.000112502035
64	0xb844693a	-4.682804e-05
65	0x3a0b43de	0.0005312542
66	0x376de78c	1.4180212e-05
67	0x3991a5ee	0.00027780182
68	0x39c19865	0.0003692537
69	0x3693c838	4.40425e-06
70	0x3917104c	0.00014406553
71	0xb95647d8	-0.00020435394
72	0x39c51711	0.00037591954
73	0x38aab3f0	8.139748e-05
74	0xb7ce27ac	-2.4575587e-05
75	0x38874bd3	6.451425e-05
76	0x39298efb	0.0001617036
77	0x39531a10	0.00020132237
78	0xb8f88f92	-0.000118523036
79	0x398c68f7	0.00026781086
80	0x38da49ee	0.000104088205
81	0x39c59589	0.0003768618
82	0xb85c47a6	-5.2518815e-05
83	0xb73db97d	-1.1308465e-05
84	0xb88b735b	-6.649523e-05
85	0xb6f53fcf	-7.3089973e-06
86	0xb986cfd8	-0.00025713327
87	0x384de579	4.908952e-05
88	0x39f1e689	0.00046138864
89	0xb9954ee0	-0.0002847826
90	0xb9630f33	-0.00021654069
91	0xb909d670	-0.00013145222
92	0x38652b11	5.4637963e-05
93	0x390fb928	0.00013706519
94	0xb87bf564	-6.00716e-05
95	0x39320611	0.00016977663
96	0xb92dab5d	-0.00016562403
97	0xb817df12	-3.6208956e-05
98	0x38745613	5.8254296e-05
99	0xb992fe61	-0.00028036817
100	0xb85d2343	-5.2723346e-05
101	0x391556ec	0.00014242128
102	0x37efdc12	2.8593498e-05
103	0x39d62bbc	0.00040849845
104	0x37d81cf7	2.5762694e-05
105	0xb86ae299	-5.6000983e-05
106	0x385e56a7	5.3009626e-05
107	0x372469da	9.799807e-06
108	0xb9a11c30	-0.00030729314
109	0x39895d0d	0.00026200005
110	0x3933df03	0.00017153849
111	0xb94395ac	-0.00018652406
112	0x3929b8b6	0.00016185906
113	0x396ba575	0.00022472984
114	0x396aa111	0.00022375981
115	0x3989947a	0.000262413
116	0xb9616c9f	-0.00021498137
117	0xb847643e	-4.7538655e-05
118	0xb9349bd7	-0.00017224193
119	0xb85013fa	-4.960967e-05
120	0x37b140cc	2.1130218e-05
121	0xb977c2a1	-0.0002362826
122	0x3986dde0	0.0002572378
123	0xb9b3d006	-0.0003429653
124	0x3916d072	0.00014382767
125	0xb9a649ad	-0.0003171688
126	0x38bda047	9.042076e-05
127	0xb949061d	-0.00019171131
128	0xb854abb8	-5.0704664e-05
129	0x3958a466	0.00020660608
130	0x37c17adb	2.3064602e-05
131	0x3987ae0d	0.00025878884
132	0x3988aa24	0.00026066706
133	0x371d44c3	9.373939e-06
134	0x39345625	0.00017198229
135	0xb950c894	-0.00019911147
136	0x39b054c6	0.00033632497
137	0x38e4ee47	0.0001091627
138	0xb81121ba	-3.4602104e-05
139	0x38b6d863	8.7187414e-05
140	0x392540ef	0.00015759816
141	0x394f21d5	0.00019753662
142	0xb92505fb	-0.00015737854
143	0x39732e67	0.00023191572
144	0x390ea9e0	0.00013605459
145	0x393ff119	0.00018304995
146	0xb8177d17	-3.6117704e-05
147	0xb7961f25	-1.7895896e-05
148	0xb8bd813d	-9.036295e-05
149	0xb6d344ef	-6.296315e-06
150	0xb95e180e	-0.00021180531
151	0x38976e56	7.220793e-05
152	0x39d43692	0.0004047645
153	0xb981946c	-0.0002471538
154	0xb98e8fd8	-0.00027191523
155	0xb8e3a3fa	-0.000108547465
156	0x389d1c81	7.491653e-05
157	0x3910d6fa	0.00013812995
158	0xb81a78fd	-3.682914e-05
159	0x39404226	0.00018335189
160	0xb94d2196	-0.00019562835
161	0xb859c6dd	-5.1922038e-05
162	0x38a34521	7.785322e-05
163	0xb9b1a57a	-0.0003388336
164	0xb88f5957	-6.835412e-05
165	0x396a6d5b	0.00022356717
166	0x38112dcc	3.4613346e-05
167	0x39babbd3	0.00035616625
168	0x385ad879	5.2176856e-05
169	0xb8b47f57	-8.606788e-05
170	0x389b6fa3	7.41177e-05
171	0x37a77a3e	1.9964875e-05
172	0xb97df32b	-0.00024218547
173	0x3946aba9	0.000189467
174	0x3915bfb6	0.00014281165
175	0xb944d46b	-0.00018771148
176	0x394dcbcd	0.00019626245
177	0x398d09be	0.00026900874
178	0x396e8628	0.00022747426
179	0x39830c9d	0.00024995665
180	0xb95184e8	-0.00019981305
181	0xb88e2f03	-6.779844e-05
182	0xb8ef9d74	-0.00011425736
183	0xb8532ad5	-5.034621e-05
184	0x37b66b7b	2.174614e-05
185	0xb986c373	-0.00025704093
186	0x398d6322	0.00026967475
187	0xb96eff56	-0.00022792569
188	0x393ee92a	0.00018206672
189	0xb955a5e5	-0.00020375063
190	0x38e8f035	0.00011107364
191	0xb9578106	-0.00020552063
192	0xb929b763	-0.00016185413
193	0x3a0367bd	0.00050127116
194	0xb7f01b8a	-2.8623053e-05
195	0x39c1ef25	0.00036990005
196	0x39eb41f3	0.0004487183
197	0x37a50dfa	1.9676041e-05
198	0x39367d76	0.0001740361
199	0xb97bdbf6	-0.00024019167
200	0x3a001792	0.0004886325
201	0x39331909	0.00017080097
202	0xb824d2db	-3.929702e-05
203	0x3917beb4	0.00014471525
204	0x392ead33	0.00016658455
205	0x397e4e90	0.00024252594
206	0xb95f62b8	-0.00021303713
207	0x39aa44d2	0.00032476202
208	0x3925d335	0.00015814307
209	0x39a70f55	0.00031864145
210	0xb97dcff1	-0.00024205424
211	0x37b13802	2.1126125e-05
212	0xb8a81d75	-8.016351e-05
213	0xb8223d8e	-3.8681137e-05
214	0xb9d424b7	-0.00040463146
215	0x388d5f06	6.7411034e-05
216	0x3a15ea3a	0.00057188014
217	0xb9b96116	-0.00035358284
218	0xb9bb7a9e	-0.00035758776
219	0xb89b92f5	-7.418349e-05
220	0x386206cc	5.388893e-05
221	0x398ba139	0.00026632266
222	0x384ee14f	4.9324062e-05
223	0x395fc782	0.0002134126
224	0xb97ae531	-0.00023927238
225	0xb8567b04	-5.1136143e-05
226	0x3906628d	0.00012815949
227	0xb9dee8b9	-0.00042516532
228	0xb8cbe382	-9.722171e-05
229	0x39872248	0.00025774748
230	0x37ae4f6d	2.0779402e-05
231	0x3a06a544	0.0005136321
232	0x37f5096e	2.9210667e-05
233	0xb902e45a	-0.00012482834
234	0x38d0cb90	9.956129e-05
235	0xb839fc05	-4.434215e-05
236	0xb9c7036f	-0.00037958796
237	0x39ce0472	0.00039294694
238	0x39984ee6	0.00029050483
239	0xb99ec5e3	-0.00030283545
240	0x398c3c45	0.00026747785
241	0x39bdcccf	0.00036201483
242	0x39b8c291	0.00035240178
243	0x39ba31f3	0.000355139
244	0xb982fbcc	-0.00024983136
245	0xb86f46f4	-5.704812e-05
246	0xb8b445eb	-8.596092e-05
247	0xb9414bf9	-0.00018434216
248	0x38553435	5.083178e-05
249	0xb9ca7130	-0.00038612774
250	0x39cb695f	0.00038797685
251	0xb9c2a0e5	-0.0003712244
252	0x395b3d4e	0.00020908305
253	0xb9d8b68e	-0.00041334744
254	0x39370770	0.0001745501
255	0xb9a2ee50	-0.00031076605
