runs/Burgers1D_Fourier_Comparison/0-0/20000.pt (torch, 129015 bytes, 24 tensors)

spatial_net.0.weight f4 [64, 1]
0	0xbf6eab40	-0.93230057
1	0x3f64ca5d	0.8937128
2	0xbf5119c7	-0.8167996
3	0xbf1166b4	-0.5679734
4	0x3c9d9926	0.019238066
5	0xbe9414b3	-0.28922042
6	0xbee76e6e	-0.4520144
7	0x3f5597d1	0.8343478
8	0x3f70289d	0.9381197
9	0xbf5f5290	-0.87235355
10	0x3f4899ba	0.7835957
11	0xbecd7a01	-0.40132144
12	0x3f54b5d2	0.83089936
13	0x3ceff8e2	0.029293481
14	0xbf30f33a	-0.69121134
15	0xbf3d1df0	-0.73873806
16	0x3edc522f	0.4303145
17	0xbeb09cb1	-0.34494546
18	0xbdf083f5	-0.11743919
19	0xbc988443	-0.018617755
20	0xbf749251	-0.9553576
21	0xbf22298b	-0.6334464
22	0xbddcf09f	-0.10788082
23	0xbf40c759	-0.7530418
24	0x3ea55870	0.32294035
25	0x3e0bc63d	0.1364984
26	0x3eb7ce00	0.35899353
27	0xbf4399b8	-0.7640643
28	0xbddc9d3a	-0.10772176
29	0x3e031ec2	0.12804702
30	0xbe49d383	-0.19709592
31	0x3ece8969	0.4033921
32	0x3f1dc5c6	0.61629903
33	0xbf583b01	-0.8446503
34	0x3e0c1594	0.13680106
35	0xbf5c4de2	-0.8605634
36	0xbf5042d9	-0.81352
37	0x3e214820	0.1575017
38	0xbe92fed7	-0.28710052
39	0xbf5af1eb	-0.8552539
40	0x3d0c13cd	0.03419857
41	0xbd42a8da	-0.04752431
42	0x3d02601b	0.031829935
43	0x3f2e0d01	0.6798859
44	0xbec07fe5	-0.37597576
45	0x3c8ec07e	0.017425772
46	0x3ec59b77	0.38595173
47	0xbebce647	-0.36894438
48	0xbf55f151	-0.83571345
49	0x3e813f5b	0.2524365
50	0x3e9745cc	0.29545438
51	0xbf47ce77	-0.78049415
52	0x3e807725	0.250909
53	0xbceafddb	-0.0286855
54	0xbce8dcc8	-0.02842559
55	0x3c44ec38	0.01201921
56	0xbf76b3b7	-0.96367973
57	0xbf363058	-0.71167517
58	0x3eb84ef3	0.35997733
59	0xbea3ae9b	-0.3196915
60	0xbf0aadfa	-0.5417172
61	0x3f3ea8f2	0.7447654
62	0x3e07689b	0.13223498
63	0xbf3ce541	-0.73787314

spatial_net.0.bias f4 [64]
0	0x3f594604	0.8487246
1	0x3e2a80d3	0.16650705
2	0x3ea72c98	0.3265121
3	0x3b47438c	0.0030405251
4	0xbf27c55a	-0.6553551
5	0x3d3bff33	0.045897674
6	0x3d42a3e7	0.04751959
7	0x3da0f63b	0.07859465
8	0x3d9708b4	0.07374707
9	0xbee9e144	-0.45679677
10	0xbf083780	-0.53209686
11	0xbe7bd0ba	-0.24591342
12	0x3ebdc9de	0.37068075
13	0x3e44fce7	0.192371
14	0xbf13f2c5	-0.5779231
15	0x3f1130d3	0.56715125
16	0x3f0c159b	0.5472047
17	0xbf129426	-0.57257307
18	0x3e5fa399	0.21839751
19	0x3f1cd765	0.61266166
20	0xbef6847d	-0.48147956
21	0xbf173a03	-0.59072894
22	0x3f28877a	0.6583172
23	0x3f29ff50	0.664052
24	0x3e130879	0.14358701
25	0x3ed8f750	0.42376184
26	0x3e774e4a	0.24150959
27	0x3f333ecd	0.700177
28	0xbf213332	-0.6296874
29	0xbee898ff	-0.45429227
30	0xbecd15af	-0.40055606
31	0xbe93cebe	-0.2886867
32	0x3f484f16	0.78245676
33	0xbf0c96ab	-0.549174
34	0x3f5b846c	0.85748935
35	0x3f148416	0.5801405
36	0x3def6f46	0.116911456
37	0xbf124ae1	-0.57145506
38	0x3ea46860	0.32110882
39	0x3eb8f9ff	0.36128232
40	0xbe077dd1	-0.13231589
41	0x3f4dd132	0.8039733
42	0x3f3799ad	0.71718866
43	0x3d191c11	0.03738028
44	0x3f1f1225	0.6213706
45	0xbf010116	-0.5039228
46	0xbecea59e	-0.4036073
47	0xbe5f64da	-0.21815816
48	0xbea2e1d1	-0.3181291
49	0xbef3f280	-0.4764595
50	0xbf3336d9	-0.70005566
51	0xbefd1234	-0.4942795
52	0x3ef9d4c0	0.48795128
53	0x3ef59be6	0.47970504
54	0x3d83d8f2	0.064378634
55	0x3e6a2318	0.2286495
56	0xbed4234e	-0.41433185
57	0xbce8df67	-0.028426839
58	0x3e28474a	0.16433445
59	0xbdf3019a	-0.1186554
60	0xbf714d86	-0.94258916
61	0xbd3abd31	-0.045590583
62	0x3eabe89d	0.33575907
63	0x3ed4b01a	0.41540605

spatial_net.2.weight f4 [64, 64]
0	0x3c87326f	0.01650354
1	0xbe007f49	-0.12548555
2	0xbd6d1ec4	-0.05789067
3	0xbdd61ad0	-0.10454333
4	0xbd334ca0	-0.043774247
5	0x3d8f9572	0.07010926
6	0x3cd1be7d	0.025603527
7	0x3d831733	0.06400909
8	0xbdc59935	-0.096483625
9	0x3e060854	0.13089114
10	0x3d3c935c	0.04603897
11	0x3e032367	0.12806474
12	0x3d2cb9b6	0.042169295
13	0xbcb3688a	-0.021900434
14	0xbd322a5c	-0.04349743
15	0x3b832c01	0.0040030484
16	0x3d16d6f7	0.0368261
17	0x3dd5199d	0.10405276
18	0xbda6a1ed	-0.08136354
19	0xbd9a07e5	-0.07521037
20	0xbdb31d0d	-0.08745775
21	0x3d16c68d	0.036810447
22	0xbdc3ffce	-0.09570275
23	0xbe05c2d3	-0.13062601
24	0x3d6fbc80	0.058529377
25	0x3dd5f2c6	0.10446696
26	0xbbd26f17	-0.0064219343
27	0x3db97b52	0.090567246
28	0xbcf6922d	-0.030098999
29	0xbdc3efd3	-0.09567227
30	0xbdd137f9	-0.10215754
31	0xbd3048ee	-0.0430383
32	0x3d110538	0.035405368
33	0xbc31295d	-0.010813084
34	0x3d11ccd1	0.03559572
35	0xbd897096	-0.06710927
36	0xbdabf44a	-0.08396204
37	0xbdaeaed7	-0.08529442
38	0x3d03cd17	0.03217801
39	0x3c07e8be	0.008295236
40	0xbddab086	-0.106782004
41	0xbd506932	-0.050881572
42	0x3d5682f7	0.05237099
43	0xbcd908a5	-0.02649338
44	0x3d750902	0.059823044
45	0xbda853f3	-0.08219137
46	0xbc97821e	-0.018494662
47	0x3d9f8b8c	0.07790288
48	0xbd2bbc79	-0.04192779
49	0x3b589dfe	0.0033053155
50	0xbd974f0d	-0.073881246
51	0x3dd7418a	0.105105475
52	0xbb40c115	-0.002941196
53	0xbd0f9d60	-0.035062194
54	0xbbb001a9	-0.0053712917
55	0xbe083180	-0.13300133
56	0xbdbf89a0	-0.09352422
57	0xbc17097f	-0.009218573
58	0xbd9548d8	-0.072892845
59	0xbdc4e45e	-0.0961387
60	0xbcc46972	-0.023976061
61	0xbd8c11e5	-0.068393506
62	0xbdeedfdd	-0.11663792
63	0xbdabdc1c	-0.08391592
64	0xbc6c0609	-0.014405736
65	0xbd1035f0	-0.03520769
66	0x3dde3c8c	0.10851392
67	0xbd607bc8	-0.054805547
68	0x3d201702	0.039084442
69	0x3dbb8670	0.09156501
70	0x3d3d4d2c	0.046216175
71	0x3d8356bc	0.06413028
72	0x3deabc51	0.114617
73	0x3cd79bca	0.026319403
74	0xbd03f03a	-0.03221152
75	0xbd1b3e39	-0.037901137
76	0x3da0f59c	0.07859346
77	0xbde334fb	-0.110940896
78	0xbcbde28e	-0.023179319
79	0xbddb1d5c	-0.10698959
80	0x3b139524	0.0022519315
81	0x3d4ea2f7	0.050448384
82	0x3cf62b48	0.030049935
83	0xbd891f86	-0.06695466
84	0x3db24407	0.087043814
85	0x3c87da5b	0.016583612
86	0xbdb8ca57	-0.09022968
87	0x3ccb72b4	0.024834968
88	0xbda2e019	-0.079528995
89	0x3d783690	0.06059891
90	0x3c9bafa6	0.019004654
91	0x3d0ad6e9	0.03389636
92	0xbde3879e	-0.11109851
93	0xbcd4793c	-0.025936715
94	0xbdd9a158	-0.10626477
95	0x3d0d8333	0.03454895
96	0xbdeed89d	-0.116624095
97	0x3dca46ce	0.09876786
98	0x3c4e8f8a	0.012607465
99	0x3badc353	0.0053028255
100	0x3ce07472	0.027399275
101	0x3c90d053	0.017677462
102	0xbdce0acf	-0.10060655
103	0xbdd155c0	-0.10221434
104	0x3d3f931a	0.046771146
105	0x3dc337eb	0.0953215
106	0x3d0214f3	0.03175826
107	0xbd28d09c	-0.04121457
108	0x3d8f91bc	0.070102185
109	0xbd513fcc	-0.051086232
110	0xbd505351	-0.050860707
111	0x3b8959e4	0.004191624
112	0xbd8b63c7	-0.068061404
113	0x3d854eea	0.06509192
114	0xbd0a6394	-0.03378637
115	0x3db84a43	0.08998539
116	0x3d35e9a1	0.04441226
117	0xbd9abc36	-0.0755543
118	0x3c20ed5a	0.009822214
119	0xbb9da896	-0.004811357
120	0xbc0faff3	-0.008769977
121	0xbde04e5d	-0.109524466
122	0xbd98f5ba	-0.074687436
123	0x3cd695ba	0.026194442
124	0xbdca4325	-0.09876088
125	0xbcda20e7	-0.026627017
126	0xbdfe0474	-0.12403193
127	0xbd0dd92a	-0.034630932
128	0x3dc2dada	0.09514399
129	0x3cf21242	0.029549722
130	0xbd59c1a5	-0.05316319
131	0x3df2f0bd	0.118623234
132	0x3c07c87b	0.008287544
133	0x3bdf9865	0.0068235868
134	0xbc4aec59	-0.012385451
135	0xbdc72601	-0.097240455
136	0x3d9ee10d	0.07757769
137	0x3dd697a9	0.10478146
138	0x3d19d4f8	0.03755662
139	0xbd3445e3	-0.04401196
140	0xba4237be	-0.0007408819
141	0x3d618d2c	0.055066273
142	0xbd6b02bc	-0.057375655
143	0xbda34016	-0.07971208
144	0x3dea5c93	0.114434384
145	0xbd89b10d	-0.06723223
146	0xbc1e7dea	-0.009673575
147	0x3d8fddea	0.070247486
148	0x3c182878	0.009286992
149	0x3dee242d	0.11627994
150	0xbd709240	-0.058733225
151	0xbd8887d8	-0.06666535
152	0xbceecff1	-0.029151889
153	0x3d710553	0.05884297
154	0x3c3d1227	0.011539972
155	0xbdd1bd70	-0.102412105
156	0xbd7aa735	-0.061194617
157	0x3ca94724	0.020663805
158	0xbd9ffccd	-0.0781189
159	0xbd99a15b	-0.07501479
160	0xbdf40aa8	-0.11916095
161	0xbbfc1693	-0.0076931207
162	0x3d972814	0.07380691
163	0x3d238482	0.03992129
164	0xbde2eb2c	-0.11080012
165	0x3de37a32	0.11107291
166	0x3da31b32	0.079641715
167	0xbcc3540e	-0.023843791
168	0x3d5d2146	0.05398681
169	0xbdcc9b8e	-0.09990607
170	0x3c61518a	0.013752351
171	0x3d2fb01c	0.04289256
172	0x3d25280c	0.040321395
173	0xbdac502b	-0.08413728
174	0xbdb488a5	-0.088151254
175	0x3dfbb75b	0.12290832
176	0xbda473b1	-0.08029879
177	0x3d23f7e9	0.040031347
178	0xbd9bbd97	-0.07604521
179	0x3d756e42	0.059919603
180	0x3d82a720	0.06379533
181	0x3dde1e14	0.10845581
182	0x3d79aa1f	0.060953256
183	0xbcaf8568	-0.021425918
184	0x3d9aa330	0.07550657
185	0x3d465f81	0.048430923
186	0x3dbbae5e	0.09164117
187	0x3dc011dd	0.09378407
188	0x3d9aeaf3	0.07564344
189	0x3d960c5c	0.07326576
190	0xbdb27eea	-0.08715613
191	0x3b93ee4d	0.0045144917
192	0x3cb5d80b	0.022197744
193	0x3d922ea5	0.07137803
194	0x3d290771	0.041266862
195	0x3d513d6e	0.051083975
196	0x3dae7192	0.085177556
197	0x3ddb1bc3	0.106986545
198	0x3d0835b2	0.033254333
199	0x3d8dac32	0.06917609
200	0xbd1a7a37	-0.03771421
201	0xbddfa4a0	-0.109200716
202	0xbd94ca96	-0.07265203
203	0xbd21eee1	-0.039534453
204	0xbdcfdc4f	-0.101494424
205	0xbc5f8820	-0.013643295
206	0xbdf17c56	-0.11791293
207	0xbd93d38e	-0.07218085
208	0xbcd4f82d	-0.025997246
209	0x3db3698b	0.08760365
210	0xbdded40d	-0.10880289
211	0xbdac6855	-0.08418337
212	0x3db7cb41	0.089743145
213	0xbddddffe	-0.10833739
214	0xbd0dae40	-0.034590006
215	0xbcc33b5c	-0.023832016
216	0x3d2e940a	0.04262165
217	0xbd9e369e	-0.07725261
218	0xbdbb409b	-0.09143182
219	0xbdb02b67	-0.08602028
220	0xbde177cb	-0.11009177
221	0x3d4c9121	0.049943093
222	0x3d3cc7ac	0.04608886
223	0x3cc8cf7c	0.024512999
224	0xbdca6cf3	-0.09884062
225	0x3db048c8	0.08607632
226	0x3d31f5f7	0.04344746
227	0x3ce21bdd	0.027601177
228	0x3d7cd5d7	0.06172737
229	0xbdcf847f	-0.101326935
230	0xbcfdd5b0	-0.030985683
231	0xbd736385	-0.05942108
232	0x3dd00e57	0.10158985
233	0xbde4847f	-0.11158084
234	0x3dfedfba	0.12445016
235	0xbdc0daf0	-0.09416759
236	0x3d5431f3	0.051805448
237	0xbd7940a0	-0.060852647
238	0x3dfa8ad2	0.12233509
239	0xbde0e0d2	-0.10980381
240	0xbdadf383	-0.08493712
241	0xbc84fb7b	-0.016233196
242	0x3dce9ce7	0.100885205
243	0xbcb9e5ed	-0.022692645
244	0x3d960c6b	0.07326587
245	0x3d9cc57d	0.076548554
246	0xbdd79f37	-0.10528415
247	0x3ca58849	0.020206587
248	0xbce3adda	-0.02779286
249	0x3dce1207	0.10062032
250	0x3d7d7c2a	0.06188599
251	0x3c6a5510	0.014302507
252	0xbdcb910c	-0.09939775
253	0xbcd7cf2d	-0.026343906
254	0xbd279427	-0.040912773
255	0x3d897046	0.067108676

spatial_net.2.bias f4 [64]
0	0xbd16a7ea	-0.03678123
1	0x3d3c20fc	0.045929894
2	0x3be9b357	0.0071319747
3	0x3ca4c3fe	0.020112988
4	0x3dd0c228	0.10193282
5	0xbd9e7b35	-0.077383436
6	0x3e02cf06	0.12774286
7	0xbc578f35	-0.013156702
8	0xbd93ff78	-0.07226461
9	0xbc607cd2	-0.0137016345
10	0xbd3bc045	-0.04583766
11	0xbdc45a94	-0.09587589
12	0xbbf80c8c	-0.007569855
13	0x3d3c807c	0.04602097
14	0xb919a4e3	-0.00014652642
15	0x3daf0738	0.08546299
16	0xbdc389ae	-0.09547745
17	0xbd9b719f	-0.07590031
18	0xbdeb131a	-0.11478253
19	0x3dbda788	0.0926047
20	0xbd1edbb9	-0.038783763
21	0xbda32377	-0.07965749
22	0x3bd88784	0.0066079516
23	0x3c4b2363	0.012398574
24	0x3d16249c	0.036656007
25	0xbd9c41f1	-0.07629765
26	0xbd0c2123	-0.03421129
27	0xbc87febd	-0.01660096
28	0xbdcc62a7	-0.09979754
29	0x3d9f344a	0.07773645
30	0x3d915d15	0.07097832
31	0xbda65e68	-0.08123475
32	0x3cf39e86	0.029738676
33	0xbd3b1508	-0.045674354
34	0x3dcade9f	0.09905743
35	0xbd159a08	-0.03652385
36	0xbd322a7b	-0.043497544
37	0x3db17f8a	0.08666904
38	0x3d898733	0.0671524
39	0xbd989249	-0.07449777
40	0x3b47a115	0.0030461003
41	0xb99f6d5b	-0.0003040832
42	0xbdebf99e	-0.1152222
43	0x3cb6b143	0.022301322
44	0x3de842bb	0.11340853
45	0xbd36f05e	-0.044662826
46	0xbdd7f367	-0.10544472
47	0x3db896e2	0.090131536
48	0xbd835bca	-0.06413992
49	0x3ddd082c	0.10792574
50	0x3db0c1a8	0.08630687
51	0xbb044165	-0.002018058
52	0x3d3d0584	0.04614784
53	0xbd9bf1f9	-0.07614512
54	0xbcb70a1d	-0.02234369
55	0xba93dc56	-0.0011280875
56	0x3d3610c0	0.044449568
57	0xbd9b35e4	-0.07578638
58	0xbdc570d5	-0.096406616
59	0xbce4064a	-0.02783503
60	0xbc8c194f	-0.017101912
61	0xbcc50fac	-0.024055324
62	0x3d009c98	0.03139934
63	0x3da733a9	0.0816415

spatial_net.4.weight f4 [64, 64]
0	0xbdbbc834	-0.09169045
1	0x3c0b28af	0.008493586
2	0x3dcff0ca	0.10153349
3	0x3ced4559	0.028963732
4	0x3d9f5a9a	0.07780953
5	0x3c764047	0.015029973
6	0x3b9ded56	0.0048195524
7	0x3d06e3ab	0.032931965
8	0x3d59f9e4	0.05321683
9	0x3e01f9cd	0.12692948
10	0xbc03a377	-0.0080345785
11	0x3b893104	0.0041867513
12	0x3c3588d7	0.011079988
13	0x3cd97a87	0.026547683
14	0xbcc08ca8	-0.02350457
15	0xbd013ed3	-0.031554054
16	0x3cf96a8c	0.030446313
17	0xbd934ee8	-0.071927845
18	0xbdd875ca	-0.105693415
19	0x3d1c4d3d	0.038159598
20	0x3da6ffa6	0.0815423
21	0xbdb447d9	-0.08802766
22	0x3c3e34f8	0.011609308
23	0x3dc98a40	0.09840822
24	0x3dd9e5f1	0.10639561
25	0x3c97f7f0	0.018550843
26	0xbd358e7f	-0.044325348
27	0xbcda70eb	-0.026665172
28	0xbd394d95	-0.045240004
29	0xbc0eabed	-0.0087079825
30	0xbda29dec	-0.079402775
31	0xbdb3a896	-0.087723896
32	0xbd15bc58	-0.03655657
33	0x3d11a761	0.035560016
34	0x3db97a97	0.09056585
35	0xbdc71a03	-0.09721758
36	0xbda1e9aa	-0.07905896
37	0x3df8082e	0.12110935
38	0xbcb5363b	-0.022120586
39	0xbda60fde	-0.08108495
40	0xbcca2a9c	-0.02467852
41	0xbdbf3e4a	-0.093380526
42	0xbdc6fea0	-0.097165346
43	0xbd89454e	-0.06702672
44	0xbd85e408	-0.06537634
45	0x3daddbdf	0.08489203
46	0xbd998231	-0.07495535
47	0xbe0fe3ac	-0.14051694
48	0x3c8f86f0	0.017520398
49	0x3ce802bc	0.028321616
50	0x3be84c26	0.0070891557
51	0xbd70da3a	-0.058801867
52	0x3cc09041	0.023506286
53	0xbd1d7ed1	-0.03845102
54	0x3dd12dbe	0.10213803
55	0x3e06d8ea	0.13168684
56	0x3d9af7a0	0.07566762
57	0x3dca89fc	0.098896
58	0x3cef5e93	0.029219901
59	0x3c74c41e	0.014939336
60	0xbd590cf9	-0.052990887
61	0xbd6fef28	-0.058577687
62	0x3d7bab74	0.061442807
63	0x3b85bcba	0.004081336
64	0x3d8f499a	0.0699646
65	0xbd8ee3cb	-0.06977042
66	0x3d6bacc7	0.05753782
67	0x3bf4e3c6	0.007473442
68	0xbd5a9d0f	-0.05337244
69	0xbcb4ae1b	-0.022055676
70	0x3d03a8e9	0.032143507
71	0x3de9b16d	0.114107944
72	0x3cb814b4	0.02247081
73	0xbd4358df	-0.047692176
74	0x3d40371d	0.04692756
75	0x3e03ead0	0.12882543
76	0x3bec3fdd	0.0072097615
77	0xbb59fb44	-0.0033261338
78	0x3d8fbcc5	0.07018427
79	0xbc1cb61b	-0.009564902
80	0x3d388f83	0.04505874
81	0x3db3ecd0	0.08785403
82	0xbcbdf4d1	-0.023188027
83	0x3c96dd42	0.01841605
84	0xbbfbad3e	-0.007680564
85	0x3d645231	0.055742446
86	0xbdab2922	-0.08357455
87	0x3d900fea	0.07034285
88	0xbd589161	-0.05287302
89	0xbd6ed504	-0.058308616
90	0x3c2949b0	0.01033251
91	0x3bc94355	0.00614206
92	0x3da99f54	0.082823426
93	0x3d9ec624	0.07752636
94	0x3dd93cf0	0.10607326
95	0xbcda0160	-0.026611984
96	0xbd579ecc	-0.052641675
97	0x3d22ab80	0.039714336
98	0xbd84a0fc	-0.06476018
99	0x3d6aa686	0.057287715
100	0x3d77edf2	0.060529657
101	0x3dc45310	0.095861554
102	0xbd89bbfd	-0.06725309
103	0x3b3fa24a	0.002924102
104	0x3cdaa583	0.02669025
105	0xbdf252b2	-0.11832179
106	0xbd4eea9c	-0.05051671
107	0x3cd8486d	0.026401723
108	0x3d3d8fe7	0.046279814
109	0x3db7dd59	0.089777656
110	0xbce1f9c4	-0.027584918
111	0x3e117f2b	0.14208667
112	0x3cb4ae2c	0.022055708
113	0xba969ce3	-0.0011490848
114	0x3d60743a	0.054798342
115	0xbdab4785	-0.08363251
116	0xbd68c9a3	-0.05683292
117	0xbdd83181	-0.10556317
118	0xbdd124e8	-0.102121174
119	0xbde7bebd	-0.11315677
120	0xbdd87d8d	-0.10570822
121	0xbc896bad	-0.016774977
122	0x3bb18e0c	0.0054185446
123	0xbd19db34	-0.037562564
124	0xbdcdc225	-0.10046796
125	0x3d2a7150	0.04161197
126	0x3dee1736	0.11625521
127	0x3d91a669	0.07111818
128	0x3ce52ceb	0.02797552
129	0xbdc06cb9	-0.09395737
130	0xbbc8fd20	-0.0061336905
131	0x3ad83643	0.0016495663
132	0xbdd093cb	-0.10184439
133	0xbd8ead5f	-0.06966662
134	0xbd89891c	-0.06715605
135	0xbdd26279	-0.102726884
136	0xbd94c597	-0.0726425
137	0xbda86b50	-0.08223593
138	0x3a343fcc	0.00068759616
139	0x3d69f0eb	0.057114523
140	0x3cbc39db	0.022976806
141	0xb926db96	-0.00015912796
142	0x3da003c8	0.07813221
143	0x3d1300bc	0.035889372
144	0xbc814357	-0.01577918
145	0xbdea3b74	-0.11437121
146	0x3d91d60e	0.07120906
147	0xbdabde4c	-0.08392009
148	0xbcc3feb7	-0.023925168
149	0xbb80bc0c	-0.003928667
150	0x3dcaa42e	0.09894596
151	0x3d8fc5bb	0.07020136
152	0xbd45f36a	-0.04832784
153	0xbdf76535	-0.120798506
154	0xbd8e6c19	-0.06954212
155	0xbe0131dd	-0.12616678
156	0xbdd90af6	-0.10597794
157	0xbd27b315	-0.04094227
158	0x3de2607d	0.1105356
159	0xbd3da015	-0.046295244
160	0x3deb01ca	0.114749506
161	0x3ce9a7a3	0.028522318
162	0x3d95baf2	0.073110476
163	0x3dc00cce	0.09377442
164	0xbbce8950	-0.00630299
165	0xbddc0894	-0.10743824
166	0xbdc4d79f	-0.09611439
167	0xbd2b1ca5	-0.041775364
168	0x3d1bfed6	0.038084827
169	0xbde49708	-0.111616194
170	0xbb73b167	-0.0037184597
171	0xbcd8dbcb	-0.026471993
172	0xbdd2cf5e	-0.102934584
173	0x3cb2f8aa	0.021847088
174	0x3dc0468c	0.09388456
175	0x3cf0d10e	0.02939656
176	0x3d540f95	0.051772673
177	0xbdd57e9d	-0.1042454
178	0x3de282ca	0.11060102
179	0xbc2cc537	-0.010545067
180	0x3cdaf840	0.026729703
181	0xbca429ec	-0.020039521
182	0x3dcf003c	0.101074666
183	0x3d21408a	0.03936819
184	0x3ce4e85f	0.027942834
185	0xbd7719dc	-0.060327396
186	0xbd322788	-0.04349473
187	0x3d963e03	0.073360465
188	0x3dff51f2	0.12466802
189	0x3b0c3896	0.0021396033
190	0x3d800bdc	0.06252262
191	0x3dd45f87	0.10369783
192	0xbdbc56d6	-0.0919625
193	0xbd62be19	-0.055357073
194	0x3d90d197	0.07071226
195	0x3dbedca7	0.0931943
196	0xbd33942d	-0.043842483
197	0x3d891762	0.06693913
198	0xbb6d4380	-0.0036203563
199	0xbd2e1d7a	-0.04250858
200	0x3d6a51d3	0.05720694
201	0x3d80d708	0.06291014
202	0x3c5ac8c4	0.01335353
203	0xbc49c2c8	-0.012314506
204	0xbd17220d	-0.036897708
205	0xba0c0e44	-0.0005342702
206	0x3d973e6d	0.07384954
207	0xbd531268	-0.051531225
208	0xbdcec7c9	-0.100967
209	0xbbcea492	-0.0063062394
210	0xbd63889e	-0.05555021
211	0xbcfb2ddd	-0.030661518
212	0xbdf53e88	-0.119748175
213	0x3c4405c5	0.011964266
214	0x3d060c0b	0.03272633
215	0xbcc288a8	-0.023746803
216	0x3d219225	0.039446015
217	0xbcdccf13	-0.02695421
218	0xbd874401	-0.066047676
219	0xbdba2890	-0.09089768
220	0xbd8874c2	-0.06662895
221	0xbd84f781	-0.0649252
222	0xbd8c3d95	-0.06847683
223	0xbd243097	-0.0400854
224	0xbd278500	-0.040898323
225	0x3d9a86ba	0.07545228
226	0x3cdb7654	0.026789822
227	0x3d92a124	0.071596414
228	0x3dc2e219	0.09515781
229	0x3d13814a	0.03601197
230	0xbd6aaa95	-0.057291586
231	0xbdd13a4d	-0.10216198
232	0x3e10cde0	0.14141035
233	0x3d590fa9	0.05299345
234	0xbc51c3c2	-0.01280302
235	0xbd66decc	-0.05636482
236	0x3ad2b0c3	0.0016074408
237	0xbc929ea2	-0.017897908
238	0x3dba6af7	0.09102433
239	0x3df24246	0.11829047
240	0xbd855b3e	-0.06511544
241	0xbc979535	-0.018503765
242	0x3d2f09e5	0.042734046
243	0xbd19734b	-0.037463468
244	0xbda3e989	-0.08003528
245	0xbdccb9f9	-0.09996409
246	0x3dce9d1a	0.100885585
247	0x3c1df60f	0.0096411845
248	0xbdcf8892	-0.101334706
249	0x3d928490	0.071541905
250	0x3cf816d0	0.030284315
251	0x3dc7c2c1	0.09753943
252	0x3da4991e	0.08037017
253	0xbd5bd8f2	-0.053673692
254	0xbdad3a57	-0.08458393
255	0x3af0f499	0.0018383443

spatial_net.4.bias f4 [64]
0	0xbdae69ea	-0.08516295
1	0x3d190ccc	0.03736572
2	0xbc792b49	-0.015208074
3	0xbd0cbff8	-0.034362763
4	0x3da4ae7f	0.08041095
5	0x3c426159	0.01186403
6	0x3d14629e	0.03622686
7	0xbda2e412	-0.07953657
8	0x3db7daa4	0.08977249
9	0xbd626da0	-0.055280328
10	0x3d6a28b9	0.057167742
11	0xbdaad104	-0.08340648
12	0x3b322af3	0.0027186244
13	0xbc9f49b8	-0.019444332
14	0x3db053fc	0.08609769
15	0x3d475714	0.04866703
16	0x3c6be657	0.014398179
17	0xbd9d1bf9	-0.07671351
18	0x3cee8499	0.029115962
19	0xbb287cfd	-0.0025709264
20	0x3d3a69ba	0.045510985
21	0xbccb17db	-0.024791649
22	0xbdc720d8	-0.09723061
23	0x3d8b15cf	0.06791269
24	0x3cc810e8	0.024422124
25	0xbd496cf8	-0.049176186
26	0x3c36baea	0.011152962
27	0xb99ce649	-0.00029926214
28	0x3d086de0	0.03330791
29	0xbb022fc2	-0.0019864892
30	0xbd881f48	-0.066465914
31	0x3bc12271	0.0058939983
32	0xbde09e30	-0.10967672
33	0x3cace1b8	0.021103725
34	0x3c999561	0.018747987
35	0xbda67807	-0.08128362
36	0xbb72a5a9	-0.003702501
37	0x3d1db0e9	0.038498793
38	0xbb39ebe0	-0.0028369352
39	0x3cd3e663	0.025866693
40	0x3da6f595	0.0815231
41	0xbc3df6ce	-0.011594487
42	0xbd94cc38	-0.07265514
43	0xbc25e798	-0.010126017
44	0xbd27113e	-0.040787928
45	0x3d095a8b	0.033533614
46	0xbb8efb6c	-0.004363468
47	0x3d1d2527	0.03836551
48	0x3d1805fd	0.037115086
49	0xbd26a70b	-0.04068665
50	0x3d74d5fc	0.059774384
51	0xbb9c2f1a	-0.004766357
52	0x3cce1aa0	0.02515918
53	0xbcdd2be1	-0.026998462
54	0x3dc1005d	0.094238974
55	0xbdc54a14	-0.0963327
56	0x3c3f6353	0.011681396
57	0x3de79b40	0.113089085
58	0xbd9d84af	-0.07691323
59	0xbcd52be7	-0.02602191
60	0xbcbae3b2	-0.022813652
61	0xbdd1111b	-0.10208341
62	0xbe023420	-0.12715197
63	0xbc263310	-0.01014401

spatial_net.6.weight f4 [24, 64]
0	0x3d757531	0.059926216
1	0xbc9755e4	-0.018473573
2	0x3d374a96	0.044748865
3	0x3d5d392a	0.054009594
4	0xbd3bc8ba	-0.045845725
5	0xbd6d5b89	-0.057948623
6	0x3caf8e40	0.021430135
7	0xb9c7f645	-0.00038139723
8	0x3ddb4b1e	0.10707687
9	0x3e48061c	0.1953358
10	0xbd2916b8	-0.041281432
11	0x3d768a15	0.06019028
12	0xbc46cee2	-0.012134286
13	0xbdc1a70d	-0.094556905
14	0xbe0b1f82	-0.13586238
15	0x3d852ff5	0.06503288
16	0xbd234d45	-0.03986861
17	0x3de9c25b	0.114140235
18	0xbe174d67	-0.1477562
19	0xbbe540b5	-0.006996239
20	0x3d1bb3d4	0.038013294
21	0xbdd5f6b4	-0.104474455
22	0x3ba11a70	0.0049164817
23	0xbd1801ea	-0.0371112
24	0x3e6531ed	0.22382326
25	0xbdd228dd	-0.102617
26	0xbe01ed20	-0.12688112
27	0xbdf6243e	-0.120186314
28	0x3df5ba27	0.11998396
29	0x3dfe8d14	0.12429252
30	0xbd9b8360	-0.07593417
31	0xbe56c0ea	-0.20972028
32	0x3d90906f	0.070587985
33	0x3dfc6d9f	0.12325596
34	0xbe102ccf	-0.14079593
35	0xbbb5985e	-0.005541845
36	0xbdff0897	-0.1245281
37	0xbe3cc2b7	-0.18433653
38	0xbe3dc012	-0.185303
39	0x3e6b0463	0.22950892
40	0x3d97cf06	0.074125335
41	0xbe9e16a4	-0.30876648
42	0x3e0a984d	0.1353466
43	0x3c8b0e36	0.01697455
44	0xbcc6559e	-0.024210747
45	0xbe0cb07f	-0.13739203
46	0x3e381113	0.17975263
47	0xbdafddb7	-0.085872106
48	0xbe0cb776	-0.1374186
49	0x3de8ecb8	0.113732755
50	0xbc05a24b	-0.008156369
51	0xbdccb68a	-0.09995754
52	0xbd215deb	-0.039396208
53	0xbb5a6d6c	-0.003332938
54	0xbc085fed	-0.008323652
55	0x3d6641d9	0.05621514
56	0xbe0c06e1	-0.13674499
57	0xbd380270	-0.0449242
58	0x3d943a78	0.072377145
59	0xbcea9840	-0.028637052
60	0x3e1db799	0.15402068
61	0xbdaf4638	-0.08558315
62	0xba81800a	-0.0009880078
63	0xbdd8b6f2	-0.10581769
64	0xbdf9acef	-0.121911876
65	0x3c5a451c	0.013322141
66	0x3d8b140d	0.06790934
67	0x3cbbc391	0.022920402
68	0x3d93ab6f	0.07210433
69	0xbdb9ec59	-0.09078283
70	0xbd5d45da	-0.054021694
71	0x3ce7ecb7	0.028311117
72	0x3dfa44a1	0.12220121
73	0xbd4a6519	-0.04941282
74	0x3e2180f7	0.15771852
75	0x3dcd1d07	0.10015302
76	0xbd3531be	-0.04423689
77	0x3c67bcc9	0.014144131
78	0x3d0e0fa7	0.034682896
79	0x3e3c648f	0.18397735
80	0xbd4d9922	-0.050194867
81	0xbd8ce653	-0.06879868
82	0x3da6d2c5	0.0814567
83	0xbd8ae9cb	-0.06782874
84	0xbd7eb921	-0.06218827
85	0xbdee9729	-0.11649925
86	0x3d33b4ef	0.043873724
87	0x3cf90009	0.030395525
88	0xbd313abc	-0.043268904
89	0x3d247e70	0.040159643
90	0x3e24bcd8	0.16087663
91	0xbd1e7840	-0.038688898
92	0x3db09e02	0.086238876
93	0xbd522b86	-0.05131104
94	0x3cce6005	0.02519227
95	0xbcbd4c6c	-0.02310773
96	0x3ccac7b5	0.02475343
97	0xbdf45e67	-0.11932068
98	0x3db7f8d4	0.08983007
99	0x3ce07970	0.027401656
100	0xbdb3be29	-0.087765045
101	0x3d8cd45f	0.06876444
102	0xbcfdcd1d	-0.030981595
103	0x3c45fa5c	0.012083616
104	0x3cf6d41d	0.03013044
105	0x3d588bae	0.052867584
106	0x3dbf1f27	0.09332114
107	0xbb4635d8	-0.0030244496
108	0x3d93f5f7	0.072246484
109	0xbd29be5f	-0.041441318
110	0x3d799a06	0.060937904
111	0xbc6f4814	-0.014604587
112	0xbde220c1	-0.110414036
113	0x3d38c687	0.045111205
114	0xbd47f2e9	-0.04881564
115	0xbdd88116	-0.10571496
116	0x3de756c3	0.11295845
117	0xbc030225	-0.007996117
118	0x3d0115c1	0.031514887
119	0xbd4e69d1	-0.050393883
120	0x3b561e26	0.0032671778
121	0xbdd40e6f	-0.103543155
122	0x3e058a5f	0.13041066
123	0xbddf9425	-0.10916928
124	0xbdc75862	-0.097336546
125	0xbd0e9ae4	-0.034815684
126	0x3d80bc82	0.06285955
127	0xbd01d560	-0.03169763
128	0x3c859b39	0.016309367
129	0xbc615b86	-0.013754731
130	0x3e1726e4	0.1476093
131	0x3bde341f	0.0067811157
132	0x3dabed69	0.08394892
133	0x3dc90299	0.098149486
134	0x3cf74025	0.030181954
135	0xbcadc056	-0.021209877
136	0x3d1f78de	0.038933627
137	0xbcface65	-0.030615995
138	0x3e191a99	0.14951552
139	0xbd3e2f5e	-0.04643189
140	0xbd7af7d0	-0.06127149
141	0x3e1ff120	0.15619326
142	0x3c2a9d10	0.010413423
143	0x3db50dbc	0.0884051
144	0xbd4f5b85	-0.05062439
145	0xbccc96dc	-0.02497428
146	0x3d951142	0.07278682
147	0x3d6a96fe	0.057272904
148	0x3d962e64	0.07333067
149	0xbdf9d95d	-0.12199662
150	0xbdc2c183	-0.09509566
151	0x3e318327	0.17335187
152	0xbba5b128	-0.005056519
153	0x3d58d534	0.0529377
154	0x3d430e04	0.04762079
155	0x3df13d98	0.11779326
156	0x3d37f9e0	0.044916034
157	0xbd953dcf	-0.0728718
158	0xbd8074aa	-0.06272252
159	0xbce296dd	-0.027659828
160	0xb8054324	-3.17722e-05
161	0x3bf93073	0.0076046526
162	0xbde33f19	-0.11096019
163	0x3d53ecad	0.051739383
164	0xbdf0d72d	-0.117597915
165	0xbd21d509	-0.039509807
166	0x3bb3f854	0.0054922495
167	0xbd13c2f6	-0.0360746
168	0x3b0495b4	0.0020230832
169	0x3de8953d	0.1135659
170	0xbd1e0456	-0.038578354
171	0xbdc773c5	-0.09738878
172	0xbd957bf8	-0.07299036
173	0x3ddfb3bc	0.109229535
174	0xbd63f4d0	-0.055653393
175	0x3ca951cf	0.020668892
176	0xbbb1ad86	-0.005422297
177	0x3dc76bcf	0.0973736
178	0x3d7adedd	0.061247695
179	0xbd259837	-0.040428367
180	0x3e0e898e	0.1391966
181	0x3c081f53	0.0083082495
182	0xbd6eb04e	-0.058273606
183	0x3cdb4632	0.02676687
184	0xbd631407	-0.05543902
185	0x3e116ad4	0.14200908
186	0xbcdf1b39	-0.02723466
187	0xbde824ed	-0.11335168
188	0x3e037a61	0.12839653
189	0x3d576fd1	0.05259687
190	0x3d838a1d	0.064228274
191	0x3d193059	0.037399624
192	0xbd7a2ac0	-0.061075926
193	0xbd8732d4	-0.066014916
194	0x3e2b3d46	0.16722593
195	0x3ba31c0e	0.0049777096
196	0x3daf6162	0.08563496
197	0xbd5904f3	-0.052983236
198	0x3d3502e2	0.044192202
199	0xbdcd613a	-0.1002831
200	0x3d0fa94e	0.03507357
201	0xbc09c0b3	-0.0084077595
202	0xbdad3fed	-0.084594585
203	0x3c36fbab	0.011168401
204	0xbda1a55b	-0.07892867
205	0xbc92ca7f	-0.017918823
206	0x3d6f575f	0.058432933
207	0x3e1e1e45	0.15441234
208	0x3e021a72	0.127054
209	0x3d92bfa2	0.07165457
210	0x3de32d94	0.11092678
211	0x3cdf6a37	0.027272327
212	0x3d3015e2	0.04298962
213	0xbd294e41	-0.041334394
214	0xbdf3238d	-0.11872015
215	0xbdb5d81e	-0.08879112
216	0xbdb8b66f	-0.090191714
217	0xbc0b8889	-0.008516439
218	0x3ddb53de	0.10709356
219	0xbd9ec68c	-0.077527136
220	0xbd2d1ac6	-0.04226186
221	0x3c4b96a9	0.012426057
222	0xbd215277	-0.039385285
223	0xbd6af34d	-0.057360936
224	0x3cb6b7b2	0.02230439
225	0x3df4941a	0.11942311
226	0x3db27376	0.08713429
227	0x3dc889be	0.09791897
228	0xbd878ef4	-0.06619063
229	0xbdc3e575	-0.0956525
230	0x3c27e601	0.010247708
231	0x3c232c44	0.009959284
232	0x3de69612	0.112590924
233	0xbc58ea68	-0.013239481
234	0xbca94125	-0.020660946
235	0x3daf366f	0.08555304
236	0x3da47e75	0.08031932
237	0xbde9b078	-0.11410612
238	0x3d47b207	0.048753764
239	0x3de86b1d	0.11348555
240	0xbd1a3077	-0.037643876
241	0xbccaa31f	-0.024735985
242	0x3bece2f4	0.0072292034
243	0xbd4bea46	-0.049783967
244	0x3d860fe3	0.06545999
245	0xbdf7a1fa	-0.120914415
246	0xbd46b8e6	-0.048516177
247	0x3d94b6b8	0.07261413
248	0xbbddf694	-0.006773779
249	0x3dad647a	0.0846643
250	0xbd6a20e7	-0.057160284
251	0xbbebd7ba	-0.0071973475
252	0xbd5f1c29	-0.054470215
253	0xbc1e0414	-0.009644527
254	0xbdc48481	-0.095955856
255	0x3db9badf	0.09068846

spatial_net.6.bias f4 [24]
0	0x3d749797	0.05971488
1	0xbc1b8859	-0.009492957
2	0xbd69ac92	-0.05704934
3	0xbd354720	-0.044257283
4	0xbd6e9d2d	-0.058255363
5	0xba7367ab	-0.0009285162
6	0xbd7c8114	-0.061646536
7	0xbd41f803	-0.047355663
8	0xbda21393	-0.0791389
9	0x3da95b07	0.08269315
10	0xbd3d1248	-0.046160012
11	0xbda18357	-0.07886379
12	0x3bab1ed6	0.005222182
13	0xbd36ab32	-0.04459686
14	0x3d6a53fc	0.057209
15	0xbd1b48cc	-0.03791122
16	0x3d4a0839	0.049324248
17	0x3cfc494d	0.030796671
18	0x3c48fd93	0.012267488
19	0x3c973ca6	0.018461537
20	0x3d7414bd	0.05959009
21	0x3cdb1b98	0.026746556
22	0x3d2b0748	0.04175499
23	0xbdb075cb	-0.08616217

exp_avg f4 [64, 1]
0	0xbb26f3d8	-0.0025474932
1	0xbb2a68ab	-0.0026002328
2	0xba6dfb6e	-0.00090782985
3	0xbbfa3c85	-0.007636609
4	0x3b01f2c2	0.0019828533
5	0xbb868715	-0.0041054585
6	0x3ae29d72	0.0017289354
7	0xbb0e59bc	-0.0021720966
8	0x3b0db56f	0.0021623035
9	0xbc8d0b6e	-0.017217364
10	0x3ba5425f	0.0050433124
11	0xba8f3ffe	-0.0010929105
12	0xbc05e4ad	-0.008172196
13	0x3a883ac2	0.0010393488
14	0x3b829882	0.0039854655
15	0x37f17cea	2.8787606e-05
16	0x3b3df06c	0.0028982414
17	0xbb71232d	-0.0036794648
18	0xbaafb49f	-0.001340527
19	0xba61adb3	-0.0008608952
20	0xbb8b0d04	-0.004243495
21	0xbb3e9b87	-0.00290844
22	0x39c80df4	0.00038157369
23	0x363d3e56	2.819948e-06
24	0x3b356685	0.0027679515
25	0x3ace7ee9	0.0015754375
26	0xbb96f99e	-0.0046073934
27	0x3b44faa1	0.0030056613
28	0x3aabc2ad	0.0013104283
29	0xb82e074e	-4.1491636e-05
30	0x3ae60169	0.0017548028
31	0x3b1dd12e	0.002408098
32	0x3afc2181	0.0019236059
33	0x3bbe46bb	0.0058067716
34	0xbaeac2d4	-0.0017910847
35	0x3b2af5fe	0.0026086564
36	0x3c29b9ab	0.010359208
37	0xba6273ab	-0.00086384517
38	0xb7ba7bc9	-2.223057e-05
39	0xbb32f267	-0.0027305128
40	0xbb2b9995	-0.0026184071
41	0xbae918bf	-0.0017783864
42	0x3ac276b3	0.00148364
43	0xbaaec13b	-0.0013332734
44	0xbb34ddf8	-0.0027598124
45	0x3b0a1cdc	0.002107433
46	0x3c0b7394	0.008511443
47	0x3b13958a	0.0022519552
48	0x3b1fdb3d	0.002439215
49	0xbba5bc58	-0.0050578527
50	0xbbbc95cf	-0.0057551633
51	0x3a0081bb	0.0004902144
52	0x3b4d4a5e	0.0031324844
53	0x3bf47239	0.0074599055
54	0xb8b2c869	-8.525031e-05
55	0xb8230417	-3.8866037e-05
56	0xbadccab4	-0.0016845078
57	0xbad266f5	-0.0016052412
58	0xba985834	-0.0011622966
59	0xb9c0a6a1	-0.00036745242
60	0x3baa4e0c	0.005197292
61	0xbbba00b6	-0.0056763543
62	0xbb7b47c5	-0.0038342339
63	0xbbda4f2c	-0.00666227

exp_avg_sq f4 [64, 1]
0	0x42efae5e	119.84056
1	0x41947d2a	18.561115
2	0x423cc067	47.187893
3	0x4296545c	75.164764
4	0x41f8fc0c	31.12307
5	0x41cb180a	25.386738
6	0x4218bf79	38.186985
7	0x420ebeae	35.68621
8	0x41be5ea6	23.796215
9	0x421ff17c	39.985825
10	0x425fdd3f	55.96606
11	0x41e7218d	28.891382
12	0x413f347e	11.950315
13	0x427ed620	63.709106
14	0x43198a16	153.5394
15	0x43bdf6f2	379.92926
16	0x422f9516	43.89559
17	0x42350ffe	45.265617
18	0x418e08c0	17.754272
19	0x4100d6b9	8.052423
20	0x4196e205	18.860361
21	0x42b2cd59	89.40107
22	0x41d63869	26.777544
23	0x42833984	65.612335
24	0x4305813c	133.50482
25	0x423c3d64	47.05995
26	0x423db492	47.42634
27	0x43d93e84	434.4884
28	0x420b0933	34.758984
29	0x42a0ffb0	80.49939
30	0x42411099	48.26621
31	0x42a19770	80.79578
32	0x42796ca6	62.356102
33	0x429cb4de	78.35326
34	0x42528299	52.627537
35	0x426e2033	59.531445
36	0x42083dd1	34.060368
37	0x41d8c253	27.094885
38	0x415f927b	13.973262
39	0x43303778	176.21667
40	0x41b73822	22.902409
41	0x418a1e26	17.26472
42	0x42465b5a	49.58921
43	0x41f53974	30.653053
44	0x42fbc774	125.88956
45	0x4284daf7	66.427666
46	0x43006322	128.38724
47	0x42baf058	93.46942
48	0x420acaf4	34.698196
49	0x42e7261f	115.574455
50	0x42592080	54.28174
51	0x4244c6df	49.19421
52	0x423f86dc	47.8817
53	0x43827e82	260.98834
54	0x4236aaab	45.666668
55	0x41861195	16.758585
56	0x4216f31d	37.737415
57	0x4239b3f7	46.425747
58	0x42b6f26f	91.4735
59	0x42851f15	66.56071
60	0x41d4b60d	26.588892
61	0x42221673	40.521923
62	0x430a9bb9	138.60829
63	0x42859a33	66.80117

exp_avg f4 [64]
0	0x39a36520	0.00031165127
1	0xbb48e0a4	-0.0030651474
2	0x3b5e0ada	0.003388098
3	0xba679cc2	-0.00088353094
4	0x3af82303	0.0018931333
5	0x3c2e113e	0.010624228
6	0x3ae51abd	0.0017479282
7	0x3bb0e90f	0.0053988765
8	0x3c0aca5e	0.0084711
9	0x3b74d095	0.003735577
10	0x3aa6300d	0.0012679115
11	0x3bcb69f5	0.0062076994
12	0x3acb8296	0.0015526589
13	0xb906ba6b	-0.00012848682
14	0xbc443467	-0.011975384
15	0x3a738b5a	0.00092904794
16	0x3a95c898	0.001142758
17	0x3b6ecc34	0.0036437633
18	0xbb943c22	-0.00452377
19	0xbb8f4c45	-0.0043731057
20	0xba1fb5bf	-0.0006092451
21	0x3b04f983	0.0020290322
22	0xb9be19ae	-0.00036258757
23	0x3b609320	0.003426738
24	0x394d1468	0.00019557925
25	0xbc042fca	-0.008068034
26	0xbb199cf6	-0.0023439503
27	0xbb18ba63	-0.0023304455
28	0x3979c71e	0.00023820667
29	0xb9f3dc0d	-0.00046512522
30	0x3ba0f2e2	0.0049117664
31	0xbaa78007	-0.0012779244
32	0xba127db6	-0.00055881904
33	0xbc4052c9	-0.0117384875
34	0xbb16954a	-0.0022977167
35	0x3bb27bec	0.0054469015
36	0x3ba8b0d8	0.0051480345
37	0xbb3163e4	-0.0027067596
38	0x3b46dd16	0.003034418
39	0x3bf3193b	0.007418779
40	0xba676981	-0.0008827672
41	0x3960371a	0.00021382832
42	0x3ac0ab1e	0.0014699434
43	0xbb092b38	-0.0020930301
44	0x3aa9b231	0.0012946782
45	0xba5110d9	-0.0007975228
46	0xba5e086a	-0.0008469882
47	0xbc2cdd05	-0.010550742
48	0xbc3ee1d5	-0.011650522
49	0xbb4019c2	-0.0029312228
50	0x3b97599b	0.004618836
51	0xba92126f	-0.001114441
52	0xbb1ee698	-0.0024246331
53	0xbb1898bb	-0.0023284394
54	0xbb96f381	-0.0046066646
55	0x3b1ede7c	0.0024241498
56	0xbbf6348a	-0.0075135874
57	0xbb9c8154	-0.0047761593
58	0xbbd00d64	-0.0063492525
59	0x3a80128a	0.000977115
60	0x3b75853a	0.0037463442
61	0x3b7742e5	0.0037729081
62	0xbb28b0f5	-0.002574024
63	0x3b620318	0.0034486707

exp_avg_sq f4 [64]
0	0x44235872	653.38196
1	0x44781212	992.28235
2	0x44860702	1072.219
3	0x450ae9aa	2222.604
4	0x4498c4c1	1222.1486
5	0x44f19d5f	1932.9178
6	0x44a0a98f	1285.2987
7	0x450f83c4	2296.2354
8	0x45161e7a	2401.9048
9	0x442bd7fd	687.3748
10	0x440a5e8b	553.47723
11	0x44e0527b	1794.5775
12	0x439bec1e	311.84467
13	0x450c4af4	2244.6846
14	0x44bc6054	1507.0103
15	0x457b1c10	4017.754
16	0x4491d92e	1166.7869
17	0x44d16226	1675.0671
18	0x442f0957	700.14594
19	0x44076811	541.62604
20	0x438b7c01	278.96878
21	0x4492954c	1172.6655
22	0x44c0ed13	1543.4086
23	0x43f818e6	496.19452
24	0x4586b008	4310.004
25	0x44ba2cdf	1489.4022
26	0x451d2b19	2514.6936
27	0x454f5831	3317.512
28	0x45274352	2676.2075
29	0x4532c49d	2860.2883
30	0x449ed1a3	1270.5511
31	0x452b1006	2737.0015
32	0x44459f18	790.48584
33	0x4439ffbe	743.996
34	0x44ea21ed	1873.0602
35	0x4419d068	615.25635
36	0x44df835e	1788.1052
37	0x44792886	996.6332
38	0x44a54aee	1322.3416
39	0x450752e5	2165.181
40	0x44e6ed1c	1847.4097
41	0x440e680f	569.6259
42	0x4482734f	1043.6034
43	0x450cfbc4	2255.7354
44	0x44ffc559	2046.1671
45	0x4494d27c	1190.5776
46	0x454a0594	3232.3486
47	0x452aaa1a	2730.6313
48	0x44a06319	1283.0968
49	0x453e4c57	3044.7712
50	0x448ed0d7	1142.5262
51	0x4432e195	715.5247
52	0x44c5241c	1577.1284
53	0x45ed2b7e	7589.4365
54	0x44fc6026	2019.0046
55	0x44bbc9d3	1502.307
56	0x4407b27e	542.78894
57	0x4549fcee	3231.808
58	0x458a99e7	4435.238
59	0x4534db76	2893.7163
60	0x43af7344	350.9005
61	0x450ec7a1	2284.4768
62	0x45374857	2932.5212
63	0x4486dcad	1078.8961

exp_avg f4 [64, 64]
0	0xb955ed1d	-0.00020401595
1	0x3a5749ce	0.0008212597
2	0xb9c9d7c3	-0.00038498463
3	0xb9a23196	-0.00030935992
4	0xba167e5e	-0.0005740876
5	0x387c7d73	6.0198316e-05
6	0xb8e3733c	-0.000108456676
7	0x3a2f6116	0.0006690187
8	0x3a26bb3d	0.0006360298
9	0xba918376	-0.00111018
10	0x3961af24	0.00021522917
11	0xb949ee19	-0.00019257552
12	0x3a7b6b0a	0.000959084
13	0x3936fa4a	0.00017450113
14	0xb9fd3395	-0.00048294352
15	0xb8b8f93b	-8.8202265e-05
16	0x398e3d9e	0.0002713026
17	0xb9a10950	-0.0003071525
18	0x3981b8f9	0.00024742613
19	0x3a0f0539	0.00054557953
20	0xbabbac9d	-0.001431841
21	0xb9c30020	-0.00037193391
22	0x3a1a4b5a	0.0005885862
23	0x36b2a05c	5.3234817e-06
24	0x38c37953	9.320923e-05
25	0x39abc667	0.00032763483
26	0x392d784b	0.00016543378
27	0x380a8eb2	3.303466e-05
28	0xba03bb57	-0.0005025169
29	0xb9e9984c	-0.00044554693
30	0xb9914245	-0.0002770593
31	0xb91b1183	-0.00014788476
32	0x3965fa47	0.00021932377
33	0xba7df7d4	-0.00096881134
34	0x3a24c53b	0.0006285493
35	0xb9afecd0	-0.0003355504
36	0xb9fc58a4	-0.00048131228
37	0xba0ad98e	-0.00052967004
38	0x3996ad11	0.00028739174
39	0xb9d35cb3	-0.00040314122
40	0xb917b001	-0.00014466049
41	0x3a2f0fe1	0.00066780864
42	0x3a1c940a	0.0005972987
43	0x3a022725	0.00049649394
44	0x39fa5e7b	0.0004775411
45	0xb9f41649	-0.0004655591
46	0xb98ed812	-0.00027245336
47	0xb9272a99	-0.0001594223
48	0xba768cd8	-0.00094051426
49	0xb9e3bcba	-0.00043437426
50	0xba185134	-0.000581044
51	0xba4f3de6	-0.0007905647
52	0x39a372a0	0.00031175185
53	0x39ebfaea	0.00045009638
54	0x389fb36a	7.615129e-05
55	0x3962f23e	0.00021643282
56	0xbab656bb	-0.0013911346
57	0xba0abb2d	-0.00052921736
58	0x39056d4f	0.00012724589
59	0xb89ee2bb	-7.576259e-05
60	0xb9693391	-0.00022239822
61	0x3a04a424	0.0005059859
62	0x3985eef7	0.0002554578
63	0xb979ff6e	-0.00023841645
64	0xbacd45ee	-0.00156611
65	0xbba582cc	-0.0050509926
66	0xbb033ac4	-0.002002404
67	0x3a724970	0.00092425104
68	0x3baba1d4	0.0052377973
69	0x390b292d	0.00013271412
70	0x3a00bc83	0.0004910903
71	0xbb457fd5	-0.0030136008
72	0xbb875b84	-0.0041307826
73	0x3bb9ff4e	0.0056761866
74	0x3afc864c	0.0019266098
75	0x3ad5c11e	0.0016308164
76	0xbba3436f	-0.004982404
77	0xbae7fec3	-0.0017699826
78	0x3b1b3612	0.0023683351
79	0xbab7a367	-0.001401049
80	0xbb2eea75	-0.002669004
81	0x3b5a95e4	0.0033353502
82	0xbadc883c	-0.0016825269
83	0xbba2d7fb	-0.0049695945
84	0x3c005ec8	0.007835098
85	0x3b0ccf51	0.0021485875
86	0xbba2f25a	-0.004972738
87	0xbaa62cf9	-0.0012678198
88	0xbaa24cda	-0.0012382523
89	0xbb67971a	-0.0035337866
90	0xbadc4bba	-0.0016807236
91	0xba9e3e4a	-0.0012073007
92	0x3ba3c96a	0.0049983757
93	0x3b646895	0.0034852375
94	0x3b4f4ef9	0.0031632765
95	0x3a3f58fe	0.00072993326
96	0xbb08227d	-0.002077251
97	0x3b904b96	0.004403542
98	0xbbc942a1	-0.006141976
99	0xbb424eaf	-0.002964895
100	0x394cdfb6	0.00019538295
101	0x3b879615	0.004137764
102	0xbacee003	-0.0015783313
103	0xbb38574b	-0.0028128203
104	0x3a96b7dd	0.0011498887
105	0xbbc53a2c	-0.0060188975
106	0xbbb8b731	-0.0056370725
107	0xbac64e6d	-0.0015129574
108	0xbb2c94c2	-0.0026333784
109	0x3b8aa84c	0.0042314883
110	0x3ab6ef27	0.0013956771
111	0x3acc0d65	0.0015567957
112	0x3ba52e4d	0.00504092
113	0x3b3936e1	0.002826147
114	0x3b7c7c2a	0.0038526156
115	0x3b6fb8bf	0.0036578623
116	0xbb632ca5	-0.0034664061
117	0xbb8437b1	-0.0040349592
118	0xba0f350f	-0.00054629234
119	0xbb07b8ad	-0.002070944
120	0x3c0ab7f8	0.008466713
121	0x3ad1946e	0.001598967
122	0xbaac77df	-0.0013158283
123	0x3a90ed54	0.0011057057
124	0x3b4c76a6	0.003119865
125	0xba89d99d	-0.0010517124
126	0xbb3dbcef	-0.0028951725
127	0xbab702ad	-0.001396259
128	0xbb9a8898	-0.0047159903
129	0xbb00bfda	-0.0019645602
130	0x3a3bec09	0.0007168656
131	0x3a96c2c0	0.0011502132
132	0x3b8dc4af	0.004326425
133	0xb8617733	-5.3755193e-05
134	0x39b3605e	0.0003421334
135	0xbb09d9e6	-0.0021034419
136	0xbaf6a1a0	-0.0018816479
137	0x3b60728c	0.0034247963
138	0x3afdccd7	0.0019363415
139	0x3b3476bc	0.0027536592
140	0xbb50de95	-0.003187095
141	0xbabeb35c	-0.0014549303
142	0x3bb2797c	0.005446611
143	0xbb424dd9	-0.0029648452
144	0xbba28b53	-0.0049604564
145	0x3b9d4cfd	0.0048004375
146	0xbacf8624	-0.0015832824
147	0xbb868395	-0.0041050413
148	0x3b2e12ef	0.0026561578
149	0x3bb76c27	0.0055976096
150	0xbb8f962b	-0.004381915
151	0xbb854375	-0.0040668794
152	0xbadaf11b	-0.0016703935
153	0xbb53038d	-0.0032198161
154	0xbb29835c	-0.002586565
155	0xbb91715b	-0.004438562
156	0x3b8e3ede	0.0043409904
157	0x3b53bf5d	0.0032310106
158	0x3b53c971	0.0032316113
159	0x3b05e4ff	0.0020430682
160	0xbbdbb174	-0.0067045037
161	0x3b925146	0.004465255
162	0xbbb1530f	-0.0054115127
163	0xbaaea636	-0.0013324681
164	0x3adfb241	0.0017066674
165	0x3b824fd3	0.003976801
166	0xbb1db961	-0.0024066793
167	0x3a88ef95	0.0010447378
168	0x3a7e314b	0.0009696676
169	0xbba45c08	-0.005015854
170	0xbb9891d2	-0.004656055
171	0xbaec60da	-0.0018034235
172	0xbb9a84f5	-0.0047155567
173	0x3b6522c6	0.0034963354
174	0x3b498ca8	0.0030754004
175	0x3b1f3646	0.0024293824
176	0x3b3a29ac	0.0028406186
177	0x3b67aebf	0.003535196
178	0x3ba3531a	0.0049842717
179	0x3b91e2f2	0.004452103
180	0xbb81dc5c	-0.0039630365
181	0xbb5b7e1d	-0.0033491917
182	0xb9f39a57	-0.00046463564
183	0xbadf223f	-0.0017023756
184	0x3b0421ca	0.0020161741
185	0x3af00f63	0.0018315132
186	0xbb00184c	-0.0019545732
187	0x3abdfb28	0.0014494406
188	0x3be85266	0.007089901
189	0xbacea4cc	-0.0015765666
190	0xbb2c25e0	-0.0026267692
191	0xba9c0500	-0.0011903346
192	0xbbc8c565	-0.006127047
193	0x3b9dff5a	0.0048217
194	0xbac1954f	-0.0014769229
195	0xbb065b51	-0.0020501206
196	0xba1da5ce	-0.00060137815
197	0xbaa1a251	-0.0012331699
198	0xbaf9159d	-0.0019003634
199	0x3b5aece8	0.0033405367
200	0x3b89e784	0.004208507
201	0xbb83e85f	-0.0040255035
202	0x3b60ab73	0.003428188
203	0xb9e2cbf7	-0.00043258045
204	0x3b7044b8	0.0036662053
205	0x39a969d4	0.0003231304
206	0x3a5ffaf3	0.0008544169
207	0xbb8c1c1f	-0.0042758132
208	0xba5c76ac	-0.00084100175
209	0x39db6829	0.0004184854
210	0xb9b7b8bf	-0.00035042127
211	0x3a14aa2e	0.00056711107
212	0xbbd3f0f8	-0.0064679347
213	0x3aaf04d1	0.0013352876
214	0x390ac2b7	0.00013233242
215	0xbba79d99	-0.0051152227
216	0x3a4ee8e8	0.0007892982
217	0x3a19dc20	0.0005869288
218	0x39f0bee3	0.0004591859
219	0xbbb1cd7e	-0.005426108
220	0xba36d558	-0.000697454
221	0x39762580	0.00023474358
222	0xb9f57f97	-0.00046825103
223	0x3b29d65c	0.0025915122
224	0xbb332363	-0.0027334325
225	0xbb05fe8a	-0.0020445907
226	0x3a3c741a	0.00071889313
227	0xbb2e810c	-0.002662721
228	0xbafc640c	-0.001925589
229	0x39bf59ba	0.0003649721
230	0xbade908f	-0.0016980338
231	0xba5c7afd	-0.00084106607
232	0xb70b1eac	-8.292187e-06
233	0x3a20ccbe	0.00061340246
234	0x3a48ab81	0.00076549506
235	0x3b16fee0	0.00230401
236	0xbb36794b	-0.0027843292
237	0xb9f8349d	-0.00047341446
238	0x3b32aaea	0.0027262517
239	0xba0ef551	-0.0005453425
240	0xbb842551	-0.004032769
241	0x3ab6c2d3	0.001394356
242	0x3adf6b5d	0.0017045547
243	0xbab3b18d	-0.001370953
244	0x395d4548	0.00021102012
245	0x39d43a9a	0.00040479453
246	0xb833a317	-4.2828815e-05
247	0x399eb8db	0.00030273836
248	0xbbf2ab72	-0.007405692
249	0xbb1fcf84	-0.0024385164
250	0x3a448aa1	0.0007497464
251	0xba62791c	-0.00086392625
252	0x3b2bc105	0.0026207578
253	0x3b1e1731	0.002412271
254	0x3a173315	0.00057678047
255	0xbb484afc	-0.0030562272

exp_avg_sq f4 [64, 64]
0	0x44df6095	1787.0182
1	0x42dcab3c	110.33444
2	0x43c41526	392.16522
3	0x4127b536	10.481741
4	0x44d0edc1	1671.4298
5	0x41e10fa9	28.132647
6	0x41dc55ed	27.541956
7	0x421c3f79	39.061985
8	0x421da323	39.409313
9	0x441e3d08	632.9536
10	0x44709574	962.3352
11	0x4390eb9a	289.84064
12	0x43f656fa	492.6795
13	0x434a9079	202.56435
14	0x448368d4	1051.2759
15	0x447d00de	1012.01355
16	0x448de281	1135.0782
17	0x449ec06a	1270.013
18	0x4397902c	303.12634
19	0x44c0dd81	1542.922
20	0x4437f52d	735.8309
21	0x4493fec2	1183.9612
22	0x44d06454	1667.1353
23	0x44ac0e51	1376.4474
24	0x42d67a0a	107.23836
25	0x4452cfe3	843.2482
26	0x43955359	298.65115
27	0x44b3317c	1433.5464
28	0x44c366f4	1563.2173
29	0x446590e9	918.2642
30	0x443db0a2	758.7599
31	0x43cb855b	407.04184
32	0x44e5c5b8	1838.1787
33	0x4460e9ab	899.65106
34	0x45140feb	2368.9949
35	0x447ba60a	1006.59436
36	0x42a66ade	83.208725
37	0x44aa9103	1364.5316
38	0x43f9e899	499.81717
39	0x43e2f5bd	453.91983
40	0x42e62393	115.06948
41	0x450b3bd0	2227.7383
42	0x44f09955	1924.7916
43	0x41965233	18.790136
44	0x44b4107a	1440.5149
45	0x44904009	1154.0011
46	0x442e3548	696.8325
47	0x4363129a	227.07266
48	0x43ae85bf	349.0449
49	0x447c41e7	1009.0297
50	0x44e067ac	1795.2397
51	0x444539de	788.9042
52	0x4481bd28	1037.9111
53	0x447c77c6	1009.87146
54	0x41f4e80d	30.613306
55	0x438dd794	283.6842
56	0x43fb9ed3	503.2408
57	0x419af75e	19.370785
58	0x43076881	135.40822
59	0x42a188c3	80.76711
60	0x451c1357	2497.2087
61	0x41d9a4b2	27.205418
62	0x4406b4b2	538.82336
63	0x441824f3	608.57733
64	0x449eab0f	1269.3456
65	0x432a0080	170.00195
66	0x4388810b	273.00815
67	0x420fcbc0	35.948975
68	0x44a03bd7	1281.87
69	0x41a8f171	21.117891
70	0x41e6eed0	28.866608
71	0x42bfe672	95.95009
72	0x42d6a100	107.31445
73	0x44149642	594.3478
74	0x442744cf	669.07513
75	0x4382f091	261.87943
76	0x43ebb8d5	471.444
77	0x431bdfd7	155.87437
78	0x44622fea	904.74866
79	0x443346e2	717.10754
80	0x44692fc4	932.74634
81	0x447f20c9	1020.51227
82	0x43564993	214.2874
83	0x44938728	1180.2236
84	0x442781c9	670.0279
85	0x44770183	988.0236
86	0x449ef810	1271.752
87	0x4473ddf8	975.46826
88	0x42d43a57	106.113945
89	0x44245555	657.3333
90	0x438365f7	262.7966
91	0x4480068c	1024.2046
92	0x44980f0f	1216.4706
93	0x442bba5b	686.9118
94	0x4416cef9	603.23395
95	0x438e310a	284.38312
96	0x44b9cf8d	1486.486
97	0x44466a2a	793.6588
98	0x44e72c9e	1849.3943
99	0x442f61dc	701.52905
100	0x42a573ac	82.72592
101	0x4480679c	1027.2378
102	0x43b3ac82	359.34772
103	0x439d8159	315.01053
104	0x42a454c4	82.16556
105	0x44d61474	1712.6392
106	0x44b9b1c9	1485.5558
107	0x4270c7bf	60.195065
108	0x44851f4d	1064.9781
109	0x445a4d2c	873.2058
110	0x43f91283	498.14462
111	0x4351cb3d	209.7939
112	0x43b5e5e8	363.79614
113	0x4438ec1c	739.6892
114	0x44a7b45e	1341.6365
115	0x443044f8	705.07764
116	0x444e2bec	824.6863
117	0x4441243a	772.56604
118	0x41ae3511	21.775911
119	0x435660e9	214.37856
120	0x43fa36b7	500.42746
121	0x4277f46f	61.988705
122	0x43056f45	133.43465
123	0x42a6689d	83.20432
124	0x44f72556	1977.1667
125	0x42522c49	52.543247
126	0x43d5b6e3	427.4288
127	0x43d3eb41	423.83792
128	0x44dcb7a2	1765.7385
129	0x437c9d36	252.6141
130	0x43a8e8bd	337.81827
131	0x42273026	41.79702
132	0x44eb0c96	1880.3933
133	0x41aeb887	21.840101
134	0x41e5a4f3	28.705542
135	0x43048855	132.53255
136	0x430fd2de	143.8237
137	0x4462cb8c	907.1804
138	0x445fcde5	895.2171
139	0x43c573fd	394.90616
140	0x443233e3	712.8107
141	0x4363aacd	227.66719
142	0x44ab92ad	1372.5836
143	0x4475b913	982.8918
144	0x44af9623	1404.6918
145	0x44bf308b	1529.517
146	0x43961506	300.16425
147	0x44d805b6	1728.1785
148	0x447c1673	1008.35077
149	0x44ba0b5d	1488.3551
150	0x44e8472a	1858.2239
151	0x44a8ccd4	1350.4009
152	0x4321c8f8	161.78503
153	0x44738ee8	974.2329
154	0x43c54e8c	394.61365
155	0x44b22fa1	1425.4884
156	0x44e060a3	1795.0199
157	0x4479d567	999.3344
158	0x44606e54	897.7239
159	0x43bf0ab1	382.08353
160	0x450b61e1	2230.1174
161	0x4496af26	1205.4734
162	0x452acf3f	2732.953
163	0x446d2cbf	948.69916
164	0x42a533d9	82.601265
165	0x44ba2315	1489.0963
166	0x43fc0b3b	504.08774
167	0x43c442e1	392.5225
168	0x42ea244d	117.0709
169	0x451ced0a	2510.815
170	0x450894d5	2185.302
171	0x429c4e32	78.152725
172	0x44be1f98	1520.9873
173	0x449efe39	1271.9445
174	0x442dfa85	695.91437
175	0x439fbd4c	319.47888
176	0x4409c078	551.0073
177	0x44844938	1058.2881
178	0x44f275a6	1939.6765
179	0x44865cc2	1074.8987
180	0x4499dc6b	1230.8881
181	0x448d6b48	1131.3525
182	0x41f338bd	30.402704
183	0x439d4c5f	314.59665
184	0x443dfa49	759.9107
185	0x429f9528	79.79132
186	0x434ad41c	202.82855
187	0x42fc2e95	126.09098
188	0x45378df1	2936.8713
189	0x42577398	53.862885
190	0x441f4e9e	637.2284
191	0x440aad87	554.71136
192	0x4581b15a	4150.169
193	0x440edfa4	571.4944
194	0x444d828b	822.03973
195	0x42cddfaf	102.93688
196	0x45871faf	4323.9604
197	0x425aeeb0	54.733093
198	0x42966e32	75.215225
199	0x4399de4b	307.73666
200	0x43a7b28e	335.39496
201	0x450079a5	2055.6028
202	0x45044cf9	2116.8108
203	0x445e1937	888.394
204	0x44c8b250	1605.5723
205	0x4401761a	517.84534
206	0x4543bf29	3131.9475
207	0x451182de	2328.1792
208	0x4547af24	3194.9463
209	0x4559bb6e	3483.7144
210	0x44294326	677.0492
211	0x4577c3a3	3964.2273
212	0x450dc1cb	2268.112
213	0x4553afc1	3386.9846
214	0x4585b010	4278.008
215	0x4545e405	3166.2512
216	0x43b566cd	362.80313
217	0x450a76ce	2215.4253
218	0x445c918f	882.27435
219	0x45518983	3352.5945
220	0x4580abc1	4117.469
221	0x450fded7	2301.9275
222	0x44fe83cd	2036.1188
223	0x445fe4e2	895.5763
224	0x459f3a76	5095.3076
225	0x452b0eb9	2736.9202
226	0x45c4539e	6282.452
227	0x450c888f	2248.535
228	0x4358da5b	216.85295
229	0x45566d73	3430.8406
230	0x44916ce2	1163.4026
231	0x446e1d4f	952.45795
232	0x4383b11a	263.3836
233	0x45b47760	5774.922
234	0x459cbb1e	5015.3896
235	0x4338f166	184.94296
236	0x455cbf06	3531.939
237	0x4535d1f7	2909.1228
238	0x44cbac5e	1629.3865
239	0x44334ea0	717.2285
240	0x449bd0c2	1246.5237
241	0x45186ef8	2438.9355
242	0x458c0a4e	4481.288
243	0x45183a04	2435.626
244	0x452eda21	2797.633
245	0x45229916	2601.5679
246	0x4287c1e3	67.878685
247	0x44317731	709.86237
248	0x44d763d0	1723.1191
249	0x433bbe2e	187.74289
250	0x43e32f9e	454.372
251	0x438c39ff	280.4531
252	0x45d216aa	6722.833
253	0x430d918d	141.56856
254	0x44b4ceb1	1446.4591
255	0x44a5ed49	1327.4152

exp_avg f4 [64]
0	0x3a8179aa	0.0009878178
1	0xbc15e4c4	-0.00914878
2	0xbbf6d9a3	-0.0075332685
3	0x3a96b12d	0.0011496894
4	0xbb74c11a	-0.0037346543
5	0xbb79c284	-0.0038110325
6	0x3adcb8d3	0.001683975
7	0x3af2003f	0.0018463208
8	0xbc6622f1	-0.014046417
9	0x3ad5d169	0.001631302
10	0xbb51cda0	-0.0032013431
11	0xbcc012b8	-0.023446426
12	0xbbaec43e	-0.0053334525
13	0x3cc43bdf	0.02395433
14	0x3b08e075	0.002088574
15	0x3b964fb6	0.004587139
16	0xbbf47179	-0.007459816
17	0x3b6b1d69	0.0035875684
18	0x3c05f6c5	0.00817651
19	0x3cbebc65	0.023283193
20	0x3ace94c9	0.0015760894
21	0xb86dfaa9	-5.673865e-05
22	0xbcd57e45	-0.026061187
23	0xbad53b55	-0.0016268293
24	0xbc6bfa61	-0.014402957
25	0x3c24288c	0.010019433
26	0x3ba91ad9	0.005160671
27	0xbb361a96	-0.0027786843
28	0x3a42e8cb	0.00074352016
29	0x3bf91c42	0.0076022455
30	0x3c26533e	0.010151682
31	0x3c76d5f2	0.015065657
32	0xbc244edf	-0.01002857
33	0xbb9b63ad	-0.004742107
34	0xbac6f56e	-0.0015179345
35	0x3c3302b7	0.01092594
36	0xbbb30fd1	-0.005464532
37	0x3beaec79	0.007169303
38	0x3b82b3e2	0.003988729
39	0x3b8b5711	0.0042523225
40	0x3c2277b6	0.009916237
41	0x3bbbe8ea	0.0057345526
42	0x3b0744ea	0.0020640441
43	0x3b7dc56b	0.0038722407
44	0x3c2010b5	0.009769608
45	0x3b4fee24	0.0031727636
46	0x39dd30a7	0.00042188654
47	0xbbfa4866	-0.007638025
48	0xbb5fdcc9	-0.0034158698
49	0x39cfa028	0.00039601442
50	0x3b79e7bf	0.0038132516
51	0xbad2dfc6	-0.0016088418
52	0x3c0e049e	0.008668093
53	0x3c2f05ce	0.010682536
54	0x3a85f484	0.0010219966
55	0xbbb3ca3e	-0.0054867556
56	0xbc4520c5	-0.012031739
57	0x3b691139	0.0035563244
58	0x3c7d6ce0	0.015467852
59	0xbb1f8eaf	-0.002434652
60	0x3c0e2732	0.008676337
61	0x3b2f7ad9	0.0026776104
62	0xbaf40a63	-0.0018618818
63	0xbbdb8682	-0.006699384
