runs/Burgers1D_Standard_FNN/0-0/2000.pt (torch, 163098 bytes, 27 tensors)

linears.0.weight f4 [64, 2]
00000000: 813e de3e a719 b5be 2561 6ebe 3962 8bbd
00000010: e66c 80bc 8f98 b43e 3c0d a3be 6fe7 0dbe
00000020: 8a79 4cbe be51 f7be 8e7a 23be ac58 8d3e
00000030: 82c6 c3be 8499 77be 0556 c83d 4391 8f3e
00000040: 7923 d33d 57ad 1dbd e49c c2be 3122 353e
00000050: a689 21bf 606c d73d 1174 4dbe a5eb 873e
00000060: 517c 293f 6c9d 8fbe 7d44 81bd 2932 f2bd
00000070: b318 e13e 3932 053e e475 ce3e a71e b8bc
00000080: bde8 0dbf ff24 b3bd 6b01 8dbd 7375 803e
00000090: 99da e53e d8bd afbe dcb4 21bf 2d01 153d
000000a0: daec 873e 4cab 0b3e 27a1 a4be 18c3 843e
000000b0: f5d4 84be 32eb 3cbd 9d12 bfbd 9935 85be
000000c0: 8355 013f e452 9a3d d9ca d03e 3927 223f
000000d0: 99f0 14bf 383e 07be c96d 6ebe e1fb adbc
000000e0: 0dc3 d1bd ba51 373d 36e9 8a3e ead5 debd
000000f0: 0539 013d 0af6 7b3e dbad ef3e 4f52 323d
00000100: 45c1 b73d cc93 0c3e 636e a33e 7311 96bc
00000110: e103 42be 0dba 403e cd66 fcbe 1964 8e3e
00000120: a6bb e1bd b867 7f3e e07e 293f 9a4b 013d
00000130: d395 d83d c570 603e 6827 12bd ece5 663e
00000140: b3f2 093e 7bda 3dbe a8fa 4dbe bf6e 833e
00000150: 5e14 b8be d66b 043e f504 a73e bb25 183e
00000160: 5aba 113f 82e4 093e 23fb 9fbd 0c33 2cbf
00000170: 7cf0 803e a4cc 543e 7f63 523e 0cdd eebe
00000180: 338c babd d96c 2abd 9f89 9cbe 9448 a2be
00000190: a719 3c3e 1b32 d53d 64a8 d13e a427 05be
000001a0: 285b 4bbe 3977 57bd 3e8f 423e 8667 463e
000001b0: 9c4e 53be 266f 143e 5cb9 2cbe 27c5 c43b
000001c0: e82a e33e 08fe 143e 535f 7b3e 0b0f 84bd
000001d0: b259 10be 25ab d73e 5b69 fb3c 2ed8 27be
000001e0: 0e62 cfbe 9849 813e 0ca3 5c3e 2e87 c53c
000001f0: f2cf f93c 6628 8cbe 17c3 7dbe 9b37 f53d
0.43407062 -0.35371134 -0.23279245 -0.06805844 -0.015676927 0.35272643 -0.31846035 -0.13857816
-0.19968238 -0.48304552 -0.1596472 0.27606714 -0.38237387 -0.24179655 0.09782032 0.28040513
0.103095 -0.038495388 -0.38010323 0.17688824 -0.6310066 0.10518718 -0.20063807 0.2654697
0.66205317 -0.2804979 -0.06311891 -0.118259735 0.43964157 0.1300744 0.40324318 -0.022475554
-0.55433255 -0.08747291 -0.06885036 0.25089607 0.4489334 -0.34324527 -0.63166595 0.036378074
0.2654789 0.13639563 -0.321542 0.25930095 -0.25943723 -0.046122737 -0.09329722 -0.26017454
0.50521106 0.075353414 0.4077976 0.633411 -0.5817962 -0.13207328 -0.23284067 -0.02123827
-0.10242281 0.044755675 0.2713105 -0.108806446 0.03154852 0.24605575 0.4681233 0.043535527
0.0897241 0.13728255 0.31920156 -0.018318867 -0.18946792 0.18820973 -0.4929718 0.27810743
-0.11022119 0.2494191 0.6620922 0.03156624 0.10575452 0.21918018 -0.035682112 0.22548646
0.13471489 -0.18540375 -0.20115149 0.2567043 -0.3595304 0.12931761 0.3262097 0.14858143
0.56924975 0.13466075 -0.078115724 -0.6726539 0.25183475 0.20781189 0.20545767 -0.4665302
-0.09108772 -0.04160771 -0.30573747 -0.31695998 0.1836916 0.104099475 0.40948784 -0.13003403
-0.19858992 -0.052603934 0.18999955 0.19375429 -0.20635456 0.14495525 -0.16867584 0.0060049477
0.44368672 0.1455003 0.24548082 -0.06448182 -0.14096716 0.4212276 0.030689886 -0.1639106
-0.40504497 0.2525146 0.21546572 0.02411231 0.030494664 -0.27374572 -0.24781452 0.119734965

linears.0.bias f4 [64]
00000000: 8f6b b83e 9390 693d b33b 033e 925f 46bd
00000010: 40c0 d63c 1249 e0bc 480b b93d db2c 0fbd
00000020: 3fc1 bc3d 015f b5bd 54f4 82bd 461c 8cbe
00000030: 0a03 c63d 6d7c 63bd 032e e2bd 4c07 7a3d
00000040: 6889 f73d b388 6b3d efaf eb3d 2598 0b3d
00000050: b22b cbbd e26d 73bd 0f5a 39bd f6d7 76bd
00000060: 2925 49bd 2156 c7bd 5528 f43d 7ad3 343d
00000070: 4f6c fa3d 05a3 a3bd f432 e0bc cc6d 85bd
00000080: b082 8bbe 4e3f cebc af46 a33d f115 813c
00000090: 0a39 c1bd 3307 253d a8a1 6dbd 8315 afbc
000000a0: 1918 103e a4af 4abd 0a09 e6bd e6df 7cbd
000000b0: 95ac 0ebe a37d 0fbd f93e a0be 620f 1c3d
000000c0: 1681 03be ca53 103e 8886 9abe c922 783e
000000d0: 65f4 4f3c d0f8 a7bb bf0c 1abe 5e73 6bbc
000000e0: 3236 093d ff0c 283e c4f1 093e 746d ecbc
000000f0: bc6c 9bbe a013 b4bd 5d92 6a3d 7a53 c7bd
0.3601956 0.057022642 0.12815742 -0.048430987 0.026214719 -0.027378593 0.09035355 -0.034954887
0.09216546 -0.08856011 -0.06394258 -0.2736532 0.096685484 -0.055538584 -0.11043932 0.061042115
0.12086755 0.057503413 0.11508166 0.034080643 -0.099204436 -0.059430964 -0.045251902 -0.06026455
-0.049107704 -0.09733225 0.11921755 0.044146992 0.122276895 -0.07990078 -0.027368046 -0.06515083
-0.27248144 -0.02517667 0.07972466 0.015757533 -0.094347075 0.04029007 -0.058015496 -0.021372562
0.14071693 -0.04948391 -0.11232193 -0.061736964 -0.13933022 -0.035031926 -0.31298044 0.038100608
-0.12842211 0.14094463 -0.30180764 0.2423202 0.012692546 -0.0051260963 -0.15043925 -0.014370767
0.03349895 0.16411208 0.13471133 -0.028860785 -0.30356395 -0.08792806 0.05726849 -0.09732719

linears.1.weight f4 [64, 64]
00000000: 5df9 b13e bb54 c9be dc91 5cbe 71a1 fabe
00000010: d0ee 21be d327 45bd 4e00 d4be 29ab a5bd
00000020: 800e c43e 2c2a b0be fe53 2ebf 89cf 7cbe
00000030: 5fa4 003f 1e5b 8abd 5147 903e 91c4 fa3e
00000040: 9291 9dbe c771 9ebd 31ce 933e bb55 1dbf
00000050: 1788 9c3e cfc5 ccbe d260 a2be 0a3c b53d
00000060: 0bac 033f e366 1b3d ef35 18be edf7 d6be
00000070: f276 5b3d 0500 973e aed5 e4bc b403 8d3e
00000080: 5f78 513e 5c99 dc3e 9303 69be 48e8 babe
00000090: 2e5d a9be 4c7a b93e 8945 c5bd 7797 4f3e
000000a0: ef98 7d3e b6a0 86bd 5338 57bf 3df1 973e
000000b0: 1a1f ce3e 041f 0b3e b683 e33c 2131 863e
000000c0: 32d3 95bd 45d2 d4bd d5b2 c1bd 3845 d83e
000000d0: fd39 58be fb68 213d c29a 97be c30f 6abf
000000e0: cf7f 843b 837a 8c3e d85c 1fbc d1c3 0f3b
000000f0: 25bb d9be 196e 2a3e 9f13 523e b259 adbd
00000100: 973d 9ebe c30a 063e 7ab8 513e 064d c33d
00000110: 3f2a cdbd 3fc8 713e 76ed 4fbd 0525 543d
00000120: aaf6 07bf 6b1c e23e 216d cc3e 7158 fd3e
00000130: 18c3 e9be 3559 3f3e efc7 dfbe c77e 8fbe
00000140: f144 ff3d bcc3 0d3e 8fbf e7bd 6db7 033f
00000150: 73a1 633d 3ee3 3f3e 869e 393d c2a6 47bd
00000160: 2e22 95be 78e2 63bb 7f2b eb3e 716e bf3e
00000170: d038 1e3d 5438 b03c 1f99 903e 1669 98be
00000180: b869 023f e6e9 8abe 37bc 323d ec44 883e
00000190: bc10 f63d 1eb2 13be dacc 91bd 62f6 e53d
000001a0: 276f 94be b56b 0cbc 32e4 e13e 6451 e2bd
000001b0: a9aa b1be b65e 26bd 517e c03e 42fb 9dbd
000001c0: f545 af3e 0c7f e3bc c692 a93c 81ef efbe
000001d0: 7fb4 7c3e bd7b 633d 16b1 a43d 3e44 c53e
000001e0: bd4f 66be ab32 b4be f841 fa3c 9215 fc3c
000001f0: e460 f53d a84c a9bc b915 9bbe 6e13 e33e
00000200: ec02 30be 81f0 33be 2271 86be 5d6e c63d
00000210: 5d2c 973c e46f 81be d126 2d3d c5b5 2bbe
00000220: c2e3 39be af1c ad3d d0d5 fa3b 99e7 5fbe
00000230: bca2 76bd 5869 db3d ae51 04be 22cf 19be
00000240: 4c98 913d 66ce 053e a527 483e f64b 5fbb
00000250: b6b6 d73d eb64 18be 497a b43c 628c 133e
00000260: 8f92 a8bd 1cba 35be b2a5 13be e1db 1c3d
00000270: 6b54 9abe 1a54 fabc 7ca4 21be fb81 d03c
00000280: 41ea 383e 8046 103e eb21 04bc a053 3cbc
00000290: 24b6 eebd 9427 673e 0c73 01be 5993 9cbe
000002a0: 480d 023e 7ba4 90be b0fc 653c 5340 2ebe
000002b0: bb18 97bc abfc 683e 6d4e 703c f45d 613e
000002c0: 06ba f1bd a40a 59bd 810f 633d e7fa 113e
000002d0: 16df 103d 3003 4e3d a750 25be b6b4 e23d
000002e0: c048 5ebd 6ffc 04be e2db 99bd 5f4a 5f3e
000002f0: f968 563e 2bd9 dc3c e8d2 c43c 23ea 8bbe
00000300: 89ae efbb 26a2 303e c225 273e 30b8 2bbe
00000310: a4b5 88be de9e 613e 3ad3 3b3e 174a c4bd
00000320: cb4b cebd f382 743e 2ae6 6cbc 0007 963e
00000330: 12f7 86bd 9ca8 7cbd 8524 8b3d ae34 e63d
00000340: ef39 08bd 6106 4d3e bc32 b1bc 5cbe 303e
00000350: bbec 40bd d860 563e 6768 913c df65 6e3d
00000360: a44f 76bd 90f3 63bd b70c f13d f3d7 5a3e
00000370: 49cc fc3d 4891 a43d 98cb f53c 9649 fa3d
00000380: e0a5 dd3d 068b 11bd 7d8a d6bd bba8 073e
00000390: 9136 2f3d b225 8bbd de2a 9abd 9eb0 2dbd
000003a0: 4a89 1ebe 3f9f 593e b00a 7c3e 1fc9 ab3d
000003b0: d122 20bd ba48 5e3e db40 973d 93f8 5cbe
000003c0: 5e2f b1bc eb1d 26be 520e c23d 1521 903c
000003d0: 604b d03d 73c4 20bd a624 613e db46 023d
000003e0: 4a0b adbd eeaa 02bd a50e 443d b483 133e
000003f0: fd91 1f3e 122a 643d 32ba 03bd dd0a 783e
0.34760562 -0.39322457 -0.21540016 -0.48951295 -0.15813756 -0.048133682 -0.41406482 -0.08089287
0.38292313 -0.34407175 -0.6809691 -0.24688543 0.5025081 -0.067556605 0.2817941 0.48978093
-0.30775124 -0.07736545 0.2886825 -0.6145894 0.30572578 -0.39994666 -0.31714493 0.08849342
0.5143439 0.037939917 -0.14864324 -0.41986027 0.053580232 0.29492202 -0.027933922 0.27541888
0.20456074 0.43085754 -0.2275527 -0.36505342 -0.33078903 0.36226118 -0.096324034 0.20272623
0.24765371 -0.06573622 -0.8407032 0.29676238 0.40258104 0.1358605 0.027772766 0.26209357
-0.07315673 -0.10391668 -0.09457938 0.4224031 -0.21115871 0.039406758 -0.29610258 -0.914303
0.0040435563 0.2743722 -0.0097267255 0.0021936784 -0.42525592 0.16643561 0.20515297 -0.08464374
-0.30906364 0.13090043 0.20480528 0.095361754 -0.100178234 0.23611544 -0.05076357 0.051793117
-0.53110754 0.44162306 0.3992701 0.49481538 -0.45656657 0.18686374 -0.43707225 -0.2802641
0.124643214 0.13844198 -0.11315834 0.5145176 0.05557389 0.1873903 0.045317195 -0.048743017
-0.2912764 -0.0034772437 0.45931622 0.37388948 0.0386284 0.021511234 0.28241822 -0.29767674
0.50942564 -0.27131575 0.043636527 0.26615083 0.120149106 -0.14423415 -0.071191505 0.112286344
-0.28991053 -0.008570601 0.44119412 -0.1105068 -0.34700516 -0.040617667 0.37596372 -0.07713939
0.3423306 -0.027770542 0.02069987 -0.46862414 0.24678229 0.055537928 0.08041589 0.38528627
-0.22491355 -0.35194907 0.030549034 0.030772004 0.11981371 -0.020666435 -0.3029001 0.4435076
-0.17188615 -0.17572214 -0.26258188 0.09689019 0.018453771 -0.25280678 0.042273346 -0.16768558
-0.18153289 0.084527366 0.007654883 -0.21865691 -0.06021379 0.10713452 -0.12921783 -0.15020421
0.071091264 0.13067016 0.19546373 -0.0034072376 0.10532896 -0.14882247 0.022030966 0.1440902
-0.08231079 -0.17746776 -0.14418676 0.03829563 -0.3014253 -0.03055768 -0.15785402 0.025452605
0.18058111 0.14089394 -0.008064727 -0.011494547 -0.11655834 0.22573692 -0.12641543 -0.30581167
0.12700379 -0.2825049 0.014037296 -0.17016725 -0.01844441 0.22752635 0.014667136 0.22008497
-0.11803059 -0.052988663 0.055434708 0.14255868 0.035369 0.05029601 -0.16144048 0.11069624
-0.0542686 -0.12986921 -0.075126424 0.21805714 0.20938481 0.026959023 0.02402635 -0.2732707
-0.0073145074 0.17249355 0.16322997 -0.1676948 -0.2670108 0.2203326 0.18342295 -0.09584444
-0.1007305 0.23878078 -0.014459172 0.29302216 -0.06590094 -0.061684236 0.06794075 0.112405166
-0.033258375 0.20021965 -0.021630637 0.17260116 -0.047100764 0.2093538 0.017749978 0.05820262
-0.060134545 -0.0556522 0.11770003 0.2137144 0.12343652 0.08035523 0.030004308 0.12221067
0.10822654 -0.035532974 -0.10475633 0.1324796 0.042776648 -0.06794299 -0.075277075 -0.042404763
-0.15482059 0.21252154 0.24613452 0.0838797 -0.039095704 0.2170743 0.07385417 -0.21579199
-0.021629032 -0.1622235 0.09475388 0.0175939 0.10170627 -0.03924985 0.21986637 0.031805854
-0.08449419 -0.031901293 0.04786553 0.1440571 0.15583034 0.055704184 -0.03215999 0.24222894

linears.1.bias f4 [64]
00000000: 840c 053e 4f52 06be 2a02 35bd 928a e8bd
00000010: fd68 d2bc 0a22 86bd 91b9 7ebc ee37 4d3a
00000020: 1784 103e 3902 62bd 3f01 68bd d20c 02bc
00000030: c570 a0bd b7cc d8bc d530 81bc 96a3 38be
00000040: 59c0 343d 609f a23d 4662 323c 0123 563d
00000050: 463b 853d 790a 57bd 9793 3cbc 6df4 92bd
00000060: 1299 5a3c c782 ccbc 5e4f 573d 48c4 763b
00000070: b87a 1abd 830e 853c f804 3b3e 2f49 23be
00000080: 4f91 14bd 6c5b 14be e838 103e c2bd 6f3d
00000090: 60a3 20bd 3695 7bbe 7eb6 953d 8b08 493c
000000a0: 37cb 58bd 93e8 1a3d 505b 9abe 18b1 22be
000000b0: fe9c 393d 8cd4 08bd 46d1 423d 62b0 97bc
000000c0: 6f35 633e bac7 a43d 8182 7bbe ef33 1cbd
000000d0: 7561 433e ffb0 cbbd 5b7a d13d 2bad 223b
000000e0: 733d e4b9 47cb 863c a524 a03c c6a5 2c3c
000000f0: 3405 60bc 9ef0 793d c0c2 c2bd 6946 55bd
0.12993056 -0.13117336 -0.044191517 -0.11354555 -0.025684828 -0.06549461 -0.015547172 0.00078284636
0.14112888 -0.0551779 -0.056641813 -0.007937627 -0.07834009 -0.026464803 -0.015770355 -0.18031153
0.04412875 0.079405546 0.010887688 0.052279476 0.06505446 -0.052500222 -0.011509798 -0.07175527
0.013342159 -0.024964703 0.052565925 0.0037653614 -0.03771469 0.016242271 0.18263614 -0.15945886
-0.03627139 -0.14488 0.14084208 0.058530577 -0.039218307 -0.24568638 0.07310198 0.012270103
-0.052928176 0.037819456 -0.3014779 -0.15887868 0.045315735 -0.033405825 0.04756286 -0.018516723
0.22188352 0.08045907 -0.24561502 -0.038135465 0.19080146 -0.09945869 0.102284156 0.0024822454
-0.00043533332 0.016454352 0.019548723 0.01053757 -0.0136731155 0.061020486 -0.09509802 -0.0520691

linears.2.weight f4 [64, 64]
00000000: 677f 3abd 6899 2ebe e267 53be b85e 9abd
00000010: f1bd 683d ad97 a7be 8d9e d83d 7af6 e43d
00000020: dcd3 123e bb16 58be 05d8 733d 8748 06bd
00000030: 2fe7 dbbc e3bb e03d c5b3 e2bd a0e7 90be
00000040: f678 38be 6ca8 3cbe 25bf 32be b4c4 073c
00000050: 4d4a 013e f1ff f13c f843 613e 8d22 a0be
00000060: 16e2 e23d bdcf 6c3e a57a 2ebe 20c8 1c3d
00000070: a0ed 793d 1cb5 063d a98e 923b 31dc 3abe
00000080: 47ad 2c3d 0906 953d f069 b33d 2e6f 993d
00000090: eedb 9abd f287 0f3d 78e6 f6bb 3b71 a83d
000000a0: f2f6 0dbe bbbf 97bd 48a3 85bc d240 1abe
000000b0: 5772 67bd 6e77 f33c 3ead 84be 3cb5 1d3d
000000c0: e341 d63b 68bf 7bbe 885a b2bd b68f e23d
000000d0: 4529 e63c 2257 263d fa15 9c3e 1b20 2abd
000000e0: 98a3 c8bc 7a6e 253d 2d31 f5bc e284 a63e
000000f0: 18a3 5abd 945e a33d c8b2 d5bc c1a6 89be
00000100: 2141 5a3e db51 e0bc fbf1 ac3d 2faa 433d
00000110: 18da dd3d 3b7f b43d 54a0 b83d a3f4 56be
00000120: 0221 d8bb e8dc a23d d2cb 203e 7066 cabd
00000130: 3438 853e 9007 043d 2b7e 233b 116d d7bd
00000140: 640a 593c 444e 75bd e03c 8ebc 9e44 453e
00000150: dbce 433e 9512 9dbd a6f6 1d3d a02c 1c3d
00000160: 0a81 673e ef6b 103c dda8 cdbc ecd1 023e
00000170: fe8b a3ba 8036 4abd 4678 13bc e0ea 0ebe
00000180: 0db5 36be 4ca8 b0bd 6d63 8cbd f4c8 e83d
00000190: 642c b63d 9e60 03be f807 ea3d aa15 933c
000001a0: 7202 223e 382f 4d3e d377 553d 1495 94bd
000001b0: eeac 4a3e a63e 2b3d 1bdc bdbd 0100 6c3d
000001c0: 6194 22bd 427f 983e dceb fb3d 1093 d93d
000001d0: f3ce 633c e14a 12be 1cba e53c a0a4 01be
000001e0: e847 f83a 4035 383e d412 983d ffea f13d
000001f0: 323f d83c a476 eabd 4512 5c3c 2488 94bd
00000200: c220 57be 6c21 12bd 65e9 81be 715c a63d
00000210: c2a4 18be b3c7 353c 9fc4 c1bc ccba 8b3d
00000220: 0cf5 163c 4c20 693e d22f 4d3e 550d 98bd
00000230: 9c5f 1cbc 4d00 ebbd 8b42 92bd 778a 083e
00000240: 1ede 19be 10fa 7fbe e279 86be 8f1b 2d3e
00000250: 1cd2 4c3c 2b15 84be a3a8 a6bc 3879 683c
00000260: 9b75 5c3e 439f 6a3e c542 573d 26a9 82bd
00000270: 0e07 093d 5335 553e bede 04be abd6 89bd
00000280: 975b b3bc a561 49be 3be4 79bd 661c f73e
00000290: eb43 253c 83c6 1c3e f4f7 a13d f925 f33d
000002a0: 18b2 70bd 276d 9bbd fd8b eabd 6506 a93e
000002b0: 6d69 003e 7fa4 07bd c6ab e3bc f89e 2c3e
000002c0: 9e4d 453d 601c 69bb 157b 90bc ef5f 8d3c
000002d0: 9315 523e 7e8f 933e adcf 643e bc35 073e
000002e0: e7f3 c93d 14c8 383e 02e1 623d c190 95be
000002f0: 68a6 31bd bd0f 193e 8d56 323d 7603 adbc
00000300: bcc7 993d 6378 84be 9590 e5bc 3f08 25be
00000310: d713 1fbd 89e6 e3bc dfd0 f6bd b75e 623d
00000320: 7822 bcbb 98c6 b5be b849 c1bd 2631 58be
00000330: 480e 58bd bfc8 f03d f299 94bc 0dd4 0abe
00000340: 22f2 933e c99c 843e 8c07 383e a729 adbd
00000350: 8784 ccbd 056f 71be 4e3e 29be da4b fa3d
00000360: 952b 483c 3788 b13c 4988 833e 6fc7 02bb
00000370: f28a 9c3d 9346 2d3d ee3c bc3c 7ece 73be
00000380: 5988 873e 001f 0ebd ffec 6cbd b5da b53d
00000390: eb65 253e 771b 8fbe bcf1 113d 4b61 783e
000003a0: 5ab8 b1bb 0d3a 483e 4a9b 8cbe 20ea c2bd
000003b0: 16ab 3d3d 389e b3bd f980 80bc 0bb8 41be
000003c0: 2fcd 493e e5e8 c43d 5096 62bd 66a1 2bbb
000003d0: d887 153c 108b 67be 24fd e0bb 1ac9 d6bd
000003e0: a996 be3d ca5c 993d b539 223e db25 3b3e
000003f0: eab1 2d3d 915c 00be 4911 03bf 6292 9d3c
-0.045531657 -0.17050707 -0.20645097 -0.075375974 0.056821767 -0.32732907 0.10577116 0.11179824
0.1433863 -0.21102421 0.059532184 -0.03278401 -0.026843635 0.109733365 -0.110694446 -0.28301716
-0.18014893 -0.18423623 -0.17455728 0.008286644 0.12626 0.029540988 0.21998584 -0.3127636
0.11078279 0.23126121 -0.17038973 0.03827679 0.061017632 0.032887563 0.004472573 -0.18248059
0.042157438 0.07276542 0.0876044 0.07491909 -0.075614795 0.035041757 -0.0075347982 0.08224722
-0.13863733 -0.074096166 -0.01631321 -0.1506379 -0.056505527 0.029720034 -0.25913423 0.038502917
0.006538616 -0.24584734 -0.08708674 0.11062567 0.02809585 0.04061044 0.30485517 -0.041534524
-0.02449207 0.04038856 -0.029930675 0.32523257 -0.053378195 0.07977024 -0.026086226 -0.26885036
0.21313907 -0.027382782 0.084445916 0.04776972 0.10832614 0.0881333 0.09014955 -0.20991759
-0.0065957317 0.07952291 0.15702751 -0.0988282 0.26019442 0.032233775 0.0024947028 -0.1051885
0.013247106 -0.059889093 -0.017363012 0.19264457 0.19121878 -0.0766956 0.0385653 0.038128495
0.22607818 0.008814796 -0.025104934 0.12775391 -0.0012477634 -0.04936838 -0.009000843 -0.13956785
-0.17842503 -0.0862585 -0.068549015 0.11366454 0.088951856 -0.12829825 0.11427301 0.017954666
0.15821245 0.20037544 0.052116226 -0.07254997 0.1979253 0.041807793 -0.092704974 0.05761719
-0.039692286 0.2978459 0.12300846 0.10623753 0.013904321 -0.14286377 0.028042845 -0.12660456
0.0018942328 0.17989063 0.07425466 0.118124 0.026397321 -0.1144841 0.01343209 -0.07252529
-0.2100859 -0.035676405 -0.25373378 0.081231005 -0.149066 0.011094975 -0.023653327 0.06822738
0.009213697 0.22766227 0.20037773 -0.07424418 -0.009544279 -0.11474667 -0.07141598 0.1333407
-0.15026137 -0.24997735 -0.26264864 0.16905044 0.012501266 -0.257974 -0.020344084 0.014189057
0.21529238 0.22912316 0.05255391 -0.06379919 0.033453993 0.20821123 -0.12975594 -0.06730398
-0.02189426 -0.19666155 -0.061008673 0.48263854 0.010086994 0.15310101 0.079086214 0.11872477
-0.058763593 -0.075891785 -0.11452482 0.3301269 0.12540217 -0.03311586 -0.027791869 0.16857517
0.048169725 -0.0035569891 -0.017636815 0.017257659 0.20516042 0.28820413 0.22344847 0.13204092
0.09860974 0.18045074 0.055390365 -0.29212 -0.043371588 0.1494741 0.043539573 -0.021119814
0.075087994 -0.25873098 -0.028023044 -0.16116427 -0.03883728 -0.027819889 -0.12051558 0.05526611
-0.0057414137 -0.35503078 -0.09437889 -0.21112499 -0.052747995 0.11757039 -0.018139813 -0.13557453
0.2889567 0.25900868 0.17971629 -0.0845521 -0.09986215 -0.23577507 -0.16527674 0.12221499
0.012217422 0.021671398 0.25689915 -0.0019955297 0.07643689 0.042303633 0.022978272 -0.2380924
0.26471213 -0.034697533 -0.057843205 0.08879606 0.1615216 -0.27950642 0.035630926 0.24255864
-0.0054235877 0.19553395 -0.27462226 -0.09517312 0.04630574 -0.08770412 -0.015686499 -0.18917863
0.19707178 0.096147336 -0.05531913 -0.002618873 0.009126626 -0.22611642 -0.006866114 -0.10487576
0.0930608 0.07488401 0.15842326 0.1827616 0.042406 -0.12535311 -0.5119825 0.01923484

linears.2.bias f4 [64]
00000000: 7f67 f73c ac6b b63d 2051 cbbc 25a0 bf3d
00000010: 7571 d43b 7818 5f3d 99aa 7f3c f3cd a83b
00000020: 623c 4abd 96a1 02be cad0 643b 93bc 423c
00000030: 52bc db3c 8299 4bbb fa70 f13d 364f 063d
00000040: 77e9 5b3d bbc6 8bbd 268d bcbd 8deb 593d
00000050: 019d 1ebd 6dcd f5bd beaa babb e8c7 513d
00000060: d206 e5bd 966d a2bd e166 09be 8539 0fbe
00000070: 9c47 ba3d aa01 1fbe 9a93 18bd 6712 733d
00000080: 39e3 263e fd4d 60bd 62a6 41bd ef16 9cbc
00000090: fc1a 06bd 8f3d 3f3c 5ab2 2a3d 1396 483d
000000a0: edc2 91bc 17e5 96bd 16f2 c9bc f945 113e
000000b0: 326a 813d b936 253e e479 2c3d c735 9d3d
000000c0: 8e77 593c a46f d43d 8a38 a13c 2a5a efba
000000d0: eac7 16bd 7330 5c3d 5a61 ed3c 7312 d6bc
000000e0: b423 0d3e 7132 60bc c058 ec3d 14ab 7d3b
000000f0: fa90 36be be9f d03d 762f 1b3b faed d5bb
0.030200718 0.089072555 -0.024818957 0.09356717 0.0064832517 0.054466695 0.0156046385 0.005151504
-0.04937399 -0.12756953 0.0034914487 0.01188578 0.026823197 -0.003106684 0.11789127 0.032790385
0.053689446 -0.06825014 -0.092066094 0.053203154 -0.03872395 -0.120020725 -0.0056966236 0.051216036
-0.111829415 -0.07931058 -0.13418151 -0.13986786 0.0909569 -0.15527979 -0.03725014 0.05934372
0.16297616 -0.054761875 -0.047277816 -0.019053904 -0.032740578 0.011672392 0.041673996 0.048971247
-0.017793143 -0.07367914 -0.024651568 0.14186849 0.06319083 0.16134156 0.04210843 0.07676273
0.013273133 0.10372856 0.01968028 -0.0018261124 -0.036811747 0.053757142 0.028977085 -0.026131844
0.13783151 -0.013683901 0.11540365 0.0038706707 -0.17828742 0.101867184 0.0023679412 -0.006528613

linears.3.weight f4 [64, 64]
00000000: bbab 943e ff81 3e3e db38 96bb ea75 38bd
00000010: 0121 47bb 3e94 11be 1603 2c3d 1d33 653e
00000020: 283b 003c c9c5 943c 2b14 3bbe 6cc0 823d
00000030: 5bb0 a9bd 1eb0 253d 6ca9 3d3d 2fdf 973e
00000040: b7ca a23b 63f9 6fbd d93a 7ebd 269d 39bd
00000050: ba67 183e aaa0 863e ba7d ac3d f428 cb3d
00000060: 3ab7 863d 7294 27be 96a4 0fbe fc85 b73d
00000070: 1dfe 6c3d 7101 0b3e 7772 8abd b5e7 e83d
00000080: 81ce dbbc 59ed ff3d 7040 243e a37e 3cbd
00000090: df3c 3f3d a5cf fc3d c578 033e 8319 94bd
000000a0: 042d de3d bd94 d9bd e973 553d 11bd 123d
000000b0: e39c b43d 0aa8 48be 7f82 9abe a3b5 0c3e
000000c0: e199 53bd 3196 0ebe 0f91 253e 7688 b03c
000000d0: 3a5c 23be 7101 4dbe eb26 8ebd d417 ca3d
000000e0: 8058 8cbd 3462 683e 1e01 febc 8f4f 30bd
000000f0: 59ef eb3a ec95 48be f5b8 003d a2f1 eb3d
00000100: c639 053f 7bc9 8c3d f0c4 143e db17 81be
00000110: 0136 7e3d f133 1b3e 23cb 8c3d ace7 543e
00000120: b405 56bd 31ac f9bc 7aa2 103e da75 ed3d
00000130: 6425 5a3b 49bf bebd 4bf5 103e 03b4 6cbe
00000140: 8023 453d d20e 5dbd 5f24 36be 7c0a 683d
00000150: cafb 30bd b1bd 373c d8bc 80bd fdc8 e63e
00000160: c057 48be 5372 a5be d86e 88be f6c1 d4bd
00000170: 6dfc 873e f677 78bc 81b0 72be 188f 10be
00000180: 0382 a43e e116 403d 1a54 fcbe 2ae6 1b3e
00000190: 609c 823d 6fe6 6bbe 3b5d 21be 751b 0b3d
000001a0: b766 253d 080c 66bd f618 adbe 6cfa aa3e
000001b0: e816 323d c5ab bb3d f097 a23e f726 61bd
000001c0: 52e9 08bc 4ca2 e43e c00c 163e 27dc 1dbe
000001d0: a155 e33d 88e1 193e b8e7 713e 7144 38be
000001e0: 925d d53d ff16 11be 753d 8b3e 3309 3bbd
000001f0: 9b1b 633c dc49 dc3d 3adf b63d 9746 fc3d
00000200: 3664 be3b cdfc 723e e936 65bd 370b 5bbe
00000210: 0f29 e4bd 323c 163e caf5 293e 5954 5abd
00000220: 3213 833d e069 1c3e f334 1a3e f31c 063e
00000230: ed8f 1f3e c63b 363e 7756 49be a94b 6cbd
00000240: 065f 46be e6be febd ec82 f83b 46aa 583d
00000250: 78f4 ccbc e164 eebb 32dc 323e 1109 653d
00000260: ca69 603e 3436 5dbe 9d16 303c 7bd8 0f3b
00000270: d651 c9bc 3152 fe3c ce1f 00be 0c3d 54be
00000280: 9dbe debe 52ff 02bd 4cbe ccbd 966d 5b3d
00000290: 0dfc 8ebd e051 193e d582 5e3d 022e ea3d
000002a0: 41d0 e73d fd54 6bbd 2ab8 cfbd 7292 8a3e
000002b0: 8bc4 103b 0646 3b3d 03e7 5ebe cc21 f63d
000002c0: 7602 5abd 942c 8d3d fe83 ca3d 2da7 a53d
000002d0: 63b5 c3bb 48fc 94bd bab3 ab3c 646a 84bd
000002e0: b71f 59bd 7b50 40be 3833 ef3c 2c3c 19bd
000002f0: 5386 033e 974c 03be 2113 593e 969d 023e
00000300: aabb ca3d 0b13 92bc aa4a debc 2410 5abd
00000310: 3fcc 703e 2c4c ddbd a3bb 09be d1d5 09be
00000320: 697e 11be 8694 613d 39f5 9bbd d9cd e23b
00000330: dfe4 d53d fd99 5abe 6270 e3bd 7084 d1bd
00000340: ad74 5bbd 7567 ddbd b40e d2ba 24b7 b23d
00000350: a0db 203d 9ead 1ebe e166 0cbc 7b26 63be
00000360: e65b 733d 199b ba3d 5e9f c3bd 9b88 a2bd
00000370: 26b1 ee3d 7d8d 193d 30e8 b83d 5819 573e
00000380: bc6d 3abe 4fd9 e63d fd49 cd3d f029 1b3e
00000390: ef74 79bc a67c e73c 4653 aebc 4ff5 793c
000003a0: 3270 a1bd d6fd 163e 77fb 51be 1b8b 12bd
000003b0: 7e19 163d 73e4 323e d056 98bd 8199 473e
000003c0: c327 4f3d e6a0 aa3d bc31 f7bd bb46 2d3e
000003d0: 3602 de3c 8bf3 a23d 1183 dc3d 7773 153e
000003e0: bd93 f5bb e1e0 5ebd f33d 0ebe b23d cebd
000003f0: 982b 163d e7cf 133e 482b f93b 4ae8 43bd
0.2903727 0.18604277 -0.0045844144 -0.045034327 -0.0030384662 -0.14216706 0.04199513 0.2238278
0.007826604 0.018160718 -0.18269412 0.06384358 -0.0828559 0.04045116 0.04630415 0.29662463
0.004968013 -0.058587443 -0.06206784 -0.045315884 0.14883319 0.26294452 0.08422418 0.099199206
0.065779164 -0.16365221 -0.14027628 0.08961102 0.05785953 0.13574769 -0.06760114 0.113723196
-0.026831867 0.12496442 0.16040206 -0.046019208 0.04668891 0.123442926 0.12839039 -0.072314285
0.1084843 -0.10624073 0.052112494 0.03582484 0.08818986 -0.19595352 -0.30177686 0.13741164
-0.051660422 -0.13924481 0.16168617 0.021549445 -0.1595315 -0.20020081 -0.06941017 0.09867826
-0.068528175 0.22693712 -0.031006392 -0.043044623 0.0018000408 -0.1958844 0.03142639 0.11520697
0.5204128 0.06874367 0.1452825 -0.25213513 0.06206322 0.15156533 0.06874683 0.20791501
-0.052251533 -0.030477615 0.1412448 0.11594744 0.0033286447 -0.093138285 0.14156072 -0.23115544
0.04812956 -0.053969212 -0.17787312 0.056650624 -0.043208875 0.01121466 -0.06286019 0.45075217
-0.19564724 -0.32313785 -0.26647067 -0.103885576 0.26559773 -0.01516532 -0.23700143 -0.14117086
0.3213044 0.04689682 -0.49282914 0.1522452 0.063774824 -0.23037122 -0.15758221 0.033961732
0.04038116 -0.056163818 -0.33808106 0.33394182 0.043478876 0.09163622 0.31756544 -0.0549688
-0.008356409 0.44655073 0.14653301 -0.15416013 0.11100317 0.1502744 0.2362355 -0.17994858
0.10418238 -0.14168929 0.27195325 -0.04566307 0.013861562 0.10756275 0.08929296 0.123181514
0.005810286 0.23729248 -0.05596057 -0.21390997 -0.11140644 0.146714 0.16597667 -0.053303096
0.064001456 0.15274763 0.15059261 0.13096981 0.15582247 0.1779624 -0.1966189 -0.057689343
-0.19372186 -0.12438755 0.0075839665 0.05289676 -0.025018916 -0.0072752093 0.1746681 0.05591685
0.21915355 -0.21602708 0.010747579 0.00219491 -0.024575155 0.031045051 -0.12512133 -0.20726413
-0.435048 -0.031981774 -0.09997234 0.053571306 -0.069816686 0.14972639 0.05432399 0.114345565
0.11319018 -0.057454098 -0.101425484 0.27064854 0.0022089805 0.045721076 -0.21767811 0.12018165
-0.053225003 0.06893268 0.09888457 0.08088527 -0.0059725507 -0.07274681 0.020959724 -0.06465605
-0.05300876 -0.18780701 0.029199228 -0.0374109 0.1284421 -0.12822185 0.21198703 0.12755427
0.09899075 -0.017831346 -0.027135212 -0.05323805 0.23515414 -0.10805544 -0.13450484 -0.1346047
-0.14208378 0.055073284 -0.07615132 0.0069215116 0.10444044 -0.21347804 -0.1110542 -0.102303386
-0.053578068 -0.108107485 -0.001602611 0.087263376 0.03927195 -0.15495917 -0.00856945 -0.22182648
0.059413813 0.09111614 -0.09551881 -0.07936212 0.11654882 0.03748845 0.09028661 0.21005762
-0.18205923 0.11271917 0.10023878 0.15152717 -0.015225633 0.02825768 -0.021279942 0.01525624
-0.07882728 0.14745268 -0.20506082 -0.035777193 0.036645405 0.17469959 -0.07438433 0.19492151
0.05057503 0.0833147 -0.12070033 0.16921513 0.027100664 0.079566084 0.107671864 0.14594828
-0.0074944184 -0.05441368 -0.13890819 -0.10070361 0.036662668 0.14434777 0.0076040365 -0.04782895

linears.3.bias f4 [64]
00000000: 8e9a 8a3c 2002 ca3d e77c 1dbc 44f8 76ba
00000010: c3f7 94bc a850 04bb d855 adbc a252 0ebc
00000020: fb6d 82bc 7bd1 0d3c 256a b7bb ec38 6dbb
00000030: e366 1f3c 781d 8f3c db2d 67bd 8d8a 823d
00000040: 9778 b0bb a9db 6d39 dd9a 29bc 5d2a adbb
00000050: c4c6 c9bc 6d66 0f3d c597 29ba 673f b3bc
00000060: 8814 93bc 584c d93a e9a1 aebd 4a68 503a
00000070: 7e5c 90bb 5998 913c 05de 83bc ec09 a7b9
00000080: 0f5e 773b d34e 8ebc e61c 17bb e493 54bc
00000090: 6922 75b9 af6a 57bd cf17 42bc 6b0e 073d
000000a0: 28d4 b5bb e3e6 0cbd 9307 823c ef37 eb3c
000000b0: bd93 013d 8462 303a 3271 86bc ef9e 8ebc
000000c0: 9e98 0a3b ca73 eabb 591c 7d3c e6ac 4d3d
000000d0: 4a2e 503c ff46 5fbc 3b9b d53a aa47 84bc
000000e0: 4363 fe3b 3cac a33c 48b7 0e3c 0f2a f5b9
000000f0: 3880 60bc 649c af3b f499 e3bb 9232 d4b9
0.0169194 0.098636866 -0.009612299 -0.000942115 -0.018184548 -0.0020189676 -0.021159098 -0.008686693
-0.015921583 0.008655901 -0.00559737 -0.0036197258 0.00972912 0.017470106 -0.056440216 0.06374083
-0.005385469 0.00022683911 -0.010351864 -0.005284591 -0.024630912 0.03500979 -0.0006469454 -0.021880819
-0.017954126 0.0016578538 -0.08526976 0.00079501106 -0.004405557 0.01777284 -0.016097078 -0.00031860115
0.0037745272 -0.01737157 -0.0023057996 -0.012974713 -0.0002337784 -0.052591976 -0.011846497 0.032972734
-0.0055489726 -0.03439988 0.015872752 0.028713195 0.031635035 0.0006728547 -0.016411398 -0.01740977
0.0021148096 -0.0071549164 0.015448653 0.050213717 0.012706349 -0.013627767 0.0016296873 -0.016147453
0.0077632978 0.019979589 0.00871069 -0.00046761378 -0.013702445 0.0053592194 -0.006945843 -0.0004047347

linears.4.weight f4 [1, 64]
00000000: 3fba 393e 58ed 6ebd 219b ea3c 5c83 8b3a
00000010: c48b ea3d 7d80 063e 5fc7 7b3d 8df3 63bd
00000020: 94a8 f7bd 7b9f a93c 6800 e43d 3523 03bd
00000030: 053e a2bd 1d40 be3d 8f0e 833e 8b62 093e
00000040: f7bc 663e 58c7 593b c8c5 433e ed8a 6d3e
00000050: 592c 9a3d a91e 3abf 5b8b 8c3e fa8e 59be
00000060: 8e7d 9c3b 2031 a4bd c0b5 a23e e196 3fbe
00000070: cba4 b8be 2512 773d 62c6 55bd d3f6 8dbe
00000080: d67c 2ebe c1ba 91bd 6a8c 23be 749b c5bd
00000090: db03 753d 3c2a a3be 5b81 f53d 74d3 493f
000000a0: 7e86 d7bd a62d 2bbe f385 67bd 31bd 5e3e
000000b0: 6b36 9ebc 8251 6dbc 3f93 063b 837a 6d3e
000000c0: 7154 b13d fda3 4cbe fe42 90bd 787f b23e
000000d0: e9e5 7d3e fc42 e33d 5011 a2bd 9b08 d43c
000000e0: bebb 273e f339 1539 7603 7abe 9deb bebd
000000f0: 245a 7ebd e6b9 67bd ae6f 7cbb 663f 3abe
0.18137453 -0.058331817 0.028638424 0.0010644007 0.114524394 0.13134952 0.061469432 -0.05565219
-0.120927006 0.020705929 0.1113289 -0.032015998 -0.079219855 0.092895724 0.25597045 0.13416497
0.22533022 0.003323039 0.19118416 0.23197527 0.0752799 -0.72703034 0.2745007 -0.21245947
0.0047757095 -0.08017182 0.3177929 -0.187099 -0.36063227 0.06032004 -0.052191146 -0.27727374
-0.17039809 -0.071156986 -0.15971532 -0.09648791 0.05981813 -0.3186816 0.11987563 0.78838277
-0.10523699 -0.16716632 -0.05652423 0.21751858 -0.019313058 -0.014484765 0.0020534543 0.23191266
0.08658684 -0.19984432 -0.07044028 0.34862876 0.24794735 0.11096761 -0.07913458 0.02588301
0.16380212 0.00014231335 -0.24415383 -0.093222834 -0.062097684 -0.05657377 -0.0038518715 -0.18188247

exp_avg f4 [64, 2]
00000000: 5ed3 2db9 628c 1139 905e d739 74f2 e7b9
00000010: 0957 8b38 3c51 03ba b05a 9a39 54b6 eb38
00000020: f264 6e39 82c0 e339 23f0 ba38 c8c6 a738
00000030: a4f0 c039 de3e 2fb9 3bdf a6b8 6256 6fb9
00000040: 27a4 39b9 2df8 033a 5b6e de39 791a fcb9
00000050: 83ff 3d3a ad5d 9fb9 b9bc 1a39 ac75 1aba
00000060: bbd3 acb9 a28e 7339 8fb8 3238 656d 1f39
00000070: 51b7 d6b9 2e9c 00b9 1157 ebb9 4d64 0c39
00000080: af37 d739 ddaa 0eb9 5b63 1639 a016 23ba
00000090: bebe 45b9 c823 d739 f382 123a 1427 6938
000000a0: 9bfc 01ba 1935 3639 e286 8e39 74ef 35ba
000000b0: fa21 7239 9305 0b39 b19b cb38 1af1 ff38
000000c0: 8f7a 2aba fa15 2739 13ac 9eb9 c63f a4b9
000000d0: 1542 183a 77a0 57b9 b9c6 073a 0ad1 f8b9
000000e0: 4eec 8039 9d46 41b9 31ac 12b9 3746 9e39
000000f0: 0a36 0eb6 b515 9ab8 1c0c c3b9 679b 7eb8
00000100: f387 29b9 5b39 06b9 7189 08ba cd65 f239
00000110: 2476 3039 df03 72b9 5c5b d239 3fe1 8339
00000120: f39e 0239 91c9 beb9 eb4d 02ba 6b3a 8239
00000130: 3274 3db9 b9b5 3937 206e 6db8 2e34 98b8
00000140: 8ab7 e4b8 5b33 003a ad93 a336 c28e 14ba
00000150: c61d 153a f5cf 4fba bba0 d1b9 9ae9 ca37
00000160: 8db4 11ba 3930 4bb7 65a0 0439 b43d cd39
00000170: d615 7eb9 ec8d d2b9 2427 cab8 760a 403a
00000180: 614a 4936 174a ceb8 21b3 8439 ac13 8a39
00000190: d01f 92b9 f02f 06b9 c677 cfb9 fdd1 313a
000001a0: 757a e639 7341 a9b9 2937 d1b8 eab1 dab9
000001b0: e872 1039 4a7c 45b9 c8a1 263a d9b8 00ba
000001c0: a2e5 82b9 c201 97b9 c710 8ab9 ced8 9f39
000001d0: 8928 9838 33c3 1fba f9b3 5e37 337b 9839
000001e0: 5a9e 9939 ffb1 c6b9 2be3 d2b9 4d63 6839
000001f0: 0aa0 e4b8 4a23 063a dc1f 8439 5dcb 10ba
-0.00016577306 0.00013880574 0.0004107845 -0.00044240395 6.644248e-05 -0.0005009358 0.00029440736 0.000112396345
0.00022735054 0.00043440243 8.9139e-05 8.0002064e-05 0.00036800385 -0.0001671272 -7.957077e-05 -0.00022824996
-0.00017704126 0.00050342345 0.0004242536 -0.0004808491 0.0007247852 -0.00030396637 0.00014756889 -0.0005892168
-0.00032964148 0.00023227421 4.261039e-05 0.00015204174 -0.00040953842 -0.00012265213 -0.00044887562 0.00013388805
0.00041049483 -0.00013605827 0.00014342128 -0.0006221328 -0.00018858441 0.00041034655 0.0005588971 5.5587923e-05
-0.00049586006 0.00017376653 0.00027184846 -0.00069402833 0.00023091576 0.0001325815 9.708794e-05 0.00012204256
-0.0006503248 0.00015934548 -0.00030264314 -0.00031328032 0.0005808187 -0.00020563776 0.00051794533 -0.00047457992
0.00024590123 -0.0001843222 -0.00013987791 0.00030188423 -2.1191104e-06 -7.3473355e-05 -0.0003720232 -6.070305e-05
-0.00016167741 -0.00012800602 -0.00052084686 0.00046233684 0.00016828679 -0.0002308036 0.0004012239 0.00025154089
0.0001245698 -0.00036389803 -0.0004970717 0.00024839057 -0.0001806773 1.106917e-05 -5.6607765e-05 -7.257644e-05
-0.00010906074 0.0004890465 4.8749703e-06 -0.00056670245 0.00056883355 -0.00079274114 -0.0003998334 2.4189056e-05
-0.0005558215 -1.2110971e-05 0.00012648253 0.0003914662 -0.00024231462 -0.0004016006 -9.639401e-05 0.00073257776
2.9994628e-06 -9.836646e-05 0.00025310463 0.00026336068 -0.00027870992 -0.00012797094 -0.00039571355 0.0006783305
0.00043960256 -0.00032282955 -9.976171e-05 -0.00041712757 0.00013775716 -0.00018833685 0.0006356505 -0.0004910357
-0.00024966622 -0.00028802274 -0.0002633391 0.00030488375 7.255475e-05 -0.00060944556 1.3274134e-05 0.0002908349
0.00029300415 -0.0003789812 -0.00040223575 0.00022162237 -0.00010901697 0.0005116953 0.0002520074 -0.00055234676

exp_avg_sq f4 [64, 2]
00000000: 8796 1e36 8328 9c38 1f36 4339 485a 7f3b
00000010: 8f47 6737 f05a ac39 d33b d136 efe4 7838
00000020: ca9b 0a37 4526 4a38 5030 3437 15ab f339
00000030: 92c8 8036 7588 743a c707 6b37 5022 213a
00000040: 0856 a738 f77e f83a 37ad 9037 cd14 5e3a
00000050: e52b 2a38 a4ff e738 6855 1a37 fb80 f039
00000060: 320f 9935 11e4 5539 6e96 7f38 5060 bd39
00000070: b722 3f37 9b65 5039 58bc 0137 38e3 493a
00000080: 6b7e 7936 f407 df39 6e27 4138 fcb0 f73a
00000090: 918a 9435 2187 2c39 fa02 ad36 5265 4439
000000a0: 3462 c537 2475 fa3a b303 0c37 61c8 bf3a
000000b0: 2602 d937 dd9e 8a3a 4a5f 0837 f4ab 023a
000000c0: 60ed 4b37 f4f3 a13a d58a 1236 eba7 2e39
000000d0: 8953 5a36 21a7 a83a cf2f 4438 c20b 963b
000000e0: 3285 8f37 5030 493a b86d 2437 b4c8 1b3a
000000f0: 2801 c437 b361 553a b03b cd37 0567 c939
00000100: 82e8 cb37 98be 7d38 6950 9438 149b 8a3b
00000110: bc48 d236 c04d bf39 ff6c c638 34d6 c63a
00000120: 6605 8737 71c2 8d38 d552 d535 5f93 9039
00000130: 7166 0e36 d6ba f638 202b 5036 8b56 8538
00000140: 27c6 0137 168b 9439 0501 4038 a622 613a
00000150: 8bfd 0c38 8cd1 8f3b d210 e537 f44f 9d3a
00000160: 8903 c136 36c6 cc3a 7da4 e336 a84c b938
00000170: 551d 8435 6b41 8639 adef 7e38 0458 5b3a
00000180: 6677 2d38 1437 253a 6ad1 a336 7d2e ec39
00000190: a86f 7e36 8b3a b439 b592 2937 ff2b a83a
000001a0: 887d 1b38 36f9 053b d1ff c136 0077 3539
000001b0: 806b e235 48e6 9738 59d3 5238 4613 453b
000001c0: 30d2 0537 e056 b438 0d57 6637 80e5 7a3a
000001d0: b967 8137 0f49 a838 6c5e a137 3576 4f39
000001e0: 89c3 4937 73ee 1c3a d524 7c38 bd2e 043b
000001f0: 3ec5 5c38 6163 1e39 0779 bf36 d513 0d3a
2.3631453e-06 7.4462056e-05 0.00018616811 0.0038963724 1.3785334e-05 0.0003287415 6.23565e-06 5.934102e-05
8.261713e-06 4.8196194e-05 1.0740085e-05 0.00046476038 3.8380467e-06 0.0009328195 1.4008902e-05 0.00061467756
7.979205e-05 0.0018958737 1.7246797e-05 0.00084717275 4.057204e-05 0.00011062555 9.1990005e-06 0.00045872465
1.1403811e-06 0.00020398224 6.0936836e-05 0.00036120648 1.139257e-05 0.00019874277 7.732851e-06 0.00077014
3.7177476e-06 0.000425398 4.6051508e-05 0.001889735 1.1067187e-06 0.00016453538 5.1561483e-06 0.00018729761
2.352996e-05 0.0019108397 8.345512e-06 0.0014631861 2.5869416e-05 0.0010575909 8.128418e-06 0.00049847295
1.2155011e-05 0.0012356029 2.1836506e-06 0.00016656487 3.2533155e-06 0.0012867191 4.6774567e-05 0.0045790384
1.7108952e-05 0.00076747406 9.800708e-06 0.0005942688 2.336556e-05 0.00081398635 2.4465699e-05 0.00038414463
2.4307756e-05 6.0497405e-05 7.0721675e-05 0.0042299125 6.266955e-06 0.00036488287 9.461678e-05 0.0015170039
1.6095768e-05 6.7596215e-05 1.5893844e-06 0.0002757562 2.1219278e-06 0.00011764995 3.1019517e-06 6.358054e-05
7.735135e-06 0.00028332387 4.5777317e-05 0.0008588232 3.361473e-05 0.0043889936 2.730676e-05 0.0012001977
5.7522598e-06 0.0015623036 6.784276e-06 8.835766e-05 9.843303e-07 0.00025607212 6.0781535e-05 0.00083673024
4.1357613e-05 0.0006302458 4.8821576e-06 0.00045048064 3.7913942e-06 0.00034375893 1.0107343e-05 0.0012830495
3.707179e-05 0.002044273 5.781629e-06 0.00017305836 1.6869599e-06 7.243134e-05 5.0264734e-05 0.0030071302
7.976356e-06 8.5992506e-05 1.3729336e-05 0.00095709413 1.5426298e-05 8.0244725e-05 1.9236664e-05 0.00019785094
1.202606e-05 0.00059864594 6.0115784e-05 0.002016946 5.2635784e-05 0.00015105076 5.706333e-06 0.00053816783

exp_avg f4 [64]
00000000: 56d9 a339 54eb abb9 fe71 0bba 9691 6539
00000010: 6678 f239 f8bc f439 c664 05b9 576f 9db9
00000020: 16d8 3c3a 7ca2 12b9 298f b538 8eb6 25ba
00000030: 777d 7239 fbc6 d5b7 1032 3db8 c698 3039
00000040: ab0c b738 801d 5cba 64be 7639 bc28 a938
00000050: 0a0b 3db8 18c8 0dba 2525 8339 94ca e4b6
00000060: d1f5 ba37 53e6 9eb9 72b2 33b9 4233 08ba
00000070: b9e6 e6b8 27e5 a839 8777 8738 c36d 3fb9
00000080: 23ea c4b9 e3d7 073a 8116 06b9 f752 283a
00000090: c555 27b9 4b0e 5538 ca71 9638 0f2e 41b7
000000a0: 38ae e839 c49e cdb9 c3a5 45ba 1c0b 8438
000000b0: 8abf 0fb8 8fc1 a739 683d 89b9 4027 0b3a
000000c0: db4a 6bb9 9b28 6939 214e cab8 ce8b e339
000000d0: 17da b6b9 8b54 26ba 2447 34b9 8663 f5b9
000000e0: 95af 30ba 4d48 8339 b7b0 d6b9 44a1 6f39
000000f0: 7b98 7fb9 493f 8a39 acf6 6939 c541 beb9
0.0003125171 -0.00032790995 -0.00053194154 0.00021893377 0.0004624754 0.000466801 -0.0001272141 -0.00030028328
0.000720383 -0.00013984175 8.657418e-05 -0.0006321453 0.00023125658 -2.5484236e-05 -4.5107736e-05 0.0001684158
8.7284796e-05 -0.000839673 0.00023531314 8.066135e-05 -4.5071392e-05 -0.00054085394 0.00025013942 -6.8185127e-06
2.2287395e-05 -0.00030307713 -0.00017137246 -0.0005195626 -0.0001101023 0.0003221419 6.459565e-05 -0.00018256069
-0.0003755848 0.0005182011 -0.00012787619 0.0006421054 -0.00015958313 5.079647e-05 7.173752e-05 -1.151442e-05
0.0004438029 -0.00039218937 -0.0007539654 6.29632e-05 -3.427224e-05 0.00031996935 -0.00026176427 0.0005308278
-0.00022439232 0.00022235738 -9.646663e-05 0.00043400977 -0.00034876235 -0.00063449953 -0.0001719264 -0.00046804192
-0.0006740031 0.00025040135 -0.00040948924 0.00022852892 -0.00024375498 0.00026368562 0.00022312504 -0.00036288626

exp_avg_sq f4 [64]
00000000: 1ffd 3538 2d18 873b f9e5 703a bdbe d73a
00000010: 6a48 9338 e032 163b 8d70 ea39 b49e 473a
00000020: 5f03 1e3b 7131 1038 6da6 7d3b c019 8639
00000030: a7a7 9a38 d8f7 7e3a 9322 f439 cffa 0e38
00000040: 70e5 1d38 1846 4c3b 1ca1 1a37 1a45 4d3a
00000050: 0a26 4b3a 88b3 9b3a 675e 3c3a e473 123a
00000060: 9b87 ec37 85f5 7538 cab5 f537 ae7d 373b
00000070: 6d3e 133a e3ba 193a 50af ff3a 5826 9839
00000080: 215b 0e3a 8581 703b 2d3f 0239 134f 2e3c
00000090: d014 0d39 53ab 6e39 bb76 d938 007e 1639
000000a0: 4706 0639 10f9 e13a d150 363b fff0 a539
000000b0: d9a8 2939 2540 9d38 1013 4539 6ca9 7a3a
000000c0: 4d1f 933a 6c7e 1c39 748d 1b38 288f 0f39
000000d0: fa1f 1f3a 55e4 e03a 88bb 8737 0cdc b53a
000000e0: c92a 203b b1c9 b339 534c 3438 a7c2 f839
000000f0: c347 4339 032b 323a aa36 363a 80c6 a038
4.33895e-05 0.004122755 0.0009189542 0.0016460043 7.0229944e-05 0.0022918507 0.00044715815 0.0007614896
0.0024110896 3.437832e-05 0.0038703934 0.00025577657 7.37452e-05 0.00097262627 0.00046565066 3.4089022e-05
3.7645397e-05 0.0031169709 9.2166265e-06 0.00078304263 0.0007749504 0.0011879066 0.0007185698 0.0005586727
2.8196539e-05 5.864121e-05 2.9290928e-05 0.0027998495 0.0005616907 0.0005864335 0.0019507203 0.00029020268
0.00054304494 0.0036698293 0.00012421301 0.01063897 0.00013454561 0.00022761272 0.000103694816 0.00014352053
0.00012781574 0.0017240364 0.0027819166 0.00031650809 0.00016179997 7.498291e-05 0.00018794485 0.0009561989
0.0011224538 0.00014924415 3.708662e-05 0.00013690873 0.00060701335 0.0017157892 1.618058e-05 0.0013874783
0.0024439564 0.00034291812 4.2986427e-05 0.00047447273 0.00018623382 0.00067965704 0.00069508946 7.666368e-05

exp_avg f4 [64, 64]
00000000: 68de 83b8 cece 6838 77bf c838 9aee 1538
00000010: c0f1 28b8 d930 9f38 b5b4 8d38 c0cd 9537
00000020: 851d deb6 d862 c338 d2af 1739 d288 a437
00000030: 8de6 33b9 59a6 a3b7 7c5c ddb8 74b0 a6b8
00000040: 437c 1339 7c2d 9638 a25e 08b9 5a98 2439
00000050: 28e1 81b8 3152 d338 39b7 2538 8a2c 26b8
00000060: c14a efb8 b750 6237 1fdd 1139 3921 7b38
00000070: 09a6 7a38 51bc ccb8 bf66 ec37 3d42 f1b8
00000080: 3fa7 87b8 a382 aab8 2c71 c138 51e3 2639
00000090: 0100 3538 475c 0cb9 a0f3 59b5 ef26 2c38
000000a0: 7576 d9b7 2f80 9f38 8d64 9c38 def4 86b8
000000b0: bbb0 13b9 8e7b 02b9 0f32 cfb8 c2a3 f7b8
000000c0: 44f6 99b7 67be 5138 7766 c9b8 7377 58b8
000000d0: a852 2438 902e 3db7 893e 0938 d718 1438
000000e0: fe79 8bb8 bd23 cfb7 24fa 0c39 7eec 2cb8
000000f0: 22a3 6638 4db4 8ab8 9dde 24b8 1676 5738
00000100: a260 44b8 b07f 04b8 cabc 92b9 96cf a138
00000110: 4cda 6839 0f89 14b9 0bf5 a237 1527 ecb8
00000120: c61f 26b8 1842 87b8 eed5 97b8 f471 5138
00000130: 501b 1539 67a2 cd38 b182 8338 d0c8 dd36
00000140: db0d ddb8 1b2f 3eb9 9249 1239 c37e e9b8
00000150: 0ab2 0338 94f4 01b9 8907 0738 cc5e 3639
00000160: 15fe 5538 9a93 78b9 3944 afb8 fea8 41b8
00000170: ff84 03b9 c13a 1739 bc66 dfb8 41b5 9f38
00000180: 923d 1739 6bf9 8038 f25e 39b9 0183 59b9
00000190: 1263 94b8 e668 b237 adc2 80b8 71f1 dfb8
000001a0: 8382 7036 db9c f7b8 4c0c a0b7 2928 3736
000001b0: 4f49 ca38 b832 c839 5097 2339 5b9c 7b39
000001c0: a922 e638 b3dc ee37 8e30 4839 94bd 9cb8
000001d0: b8e9 12b6 e0af a4b8 00c7 9537 becd 19b7
000001e0: 1e76 6db8 5050 8ab8 f8b8 acb9 c009 e838
000001f0: b51c 7538 47a0 9f38 2f81 db38 92a0 66b7
00000200: 632a deb7 2d5c 7fb7 5a8a 2139 949b 8eb8
00000210: 2f20 36b9 b72c c438 d2dd 9ab8 26fc cb38
00000220: e804 1637 b646 1238 4b05 2636 56d7 e837
00000230: 392b 64b8 1bbb 71b8 c9d9 ed37 b524 8337
00000240: 8845 63b7 3ef9 d938 4d6a b3b8 e9af 8436
00000250: 79af 0038 992e 9c38 2a91 07b8 f033 e8b8
00000260: 260e e037 2a0a 6139 2883 03b8 4b1e 90b5
00000270: e631 3538 1ad6 63b8 be78 b338 cf5a 2037
00000280: 831f 5fb7 f3e9 e9b6 1d43 b138 7366 c138
00000290: 48f2 8f38 f45f 2f38 eddb 9138 4f85 a438
000002a0: 5f5f 0bb8 8d5e a738 e15f 4e37 1d4b 3e38
000002b0: 637f dd37 ae91 81b9 7a21 2236 c7bd 25b9
000002c0: 37cf 42b8 319d b7b8 57a7 03b8 b9fe b837
000002d0: 465d a4b7 53b5 9838 86b8 6b37 3f31 81b6
000002e0: aeba 9438 b5f9 a537 53c8 3839 03ad 8bb8
000002f0: 3764 da36 4fb7 12b7 639d b8b8 44aa 8937
00000300: 4002 9e38 6e1d a536 4029 29b8 f4f9 f836
00000310: 7d2f 8338 d96b 36b8 588e d437 2aa6 1cb8
00000320: 8899 4c37 3573 21b8 5b79 0db8 53ae 5fb8
00000330: 43a0 7238 4331 4937 45fe 0db7 4581 8e37
00000340: b2b5 92b4 6aa9 08b8 9d20 8538 ab57 afb7
00000350: bcf5 79b7 7231 42b8 49f2 4db6 7b42 fe37
00000360: 8088 2b36 f663 aab8 dbf3 9d36 583b f8b5
00000370: 1a98 51b6 5c1d 9937 9663 0fb8 2bf5 ae36
00000380: d251 dcb7 4286 2e37 2033 ddb7 249b 49b8
00000390: fa6c 2db8 ff66 8137 6701 fab7 68aa 0ab8
000003a0: 938b 1438 16ba 32b8 5482 08b8 374f 5bb7
000003b0: 9121 cdb6 c2a0 b438 78de 03b8 34aa 9138
000003c0: b9c2 2bb6 0cc2 2638 d55c acb7 f4ac 2438
000003d0: 8802 0636 72d9 adb7 1c61 07b8 e29a cfb6
000003e0: b753 beb6 9176 c037 c858 53b8 585a b437
000003f0: e4c1 74b8 9b04 6ab5 1956 2c38 4808 e8b7
-6.287993e-05 5.5505712e-05 9.572406e-05 3.5746583e-05 -4.027947e-05 7.5908094e-05 6.757063e-05 1.7857994e-05
-6.619552e-06 9.316736e-05 0.0001446598 1.9614035e-05 -0.00017156657 -1.9508576e-05 -0.00010555328 -7.948364e-05
0.00014065304 7.1610295e-05 -0.00013005224 0.00015697014 -6.193138e-05 0.000100765734 3.9509705e-05 -3.9618964e-05
-0.00011410332 1.3489443e-05 0.00013910652 5.9874004e-05 5.9759277e-05 -9.762555e-05 2.8181237e-05 -0.00011504113
-6.468454e-05 -8.130565e-05 9.224037e-05 0.00015915676 4.3153766e-05 -0.00013385816 -8.119332e-07 4.1044255e-05
-2.5923577e-05 7.605587e-05 7.457389e-05 -6.435228e-05 -0.0001408485 -0.00012443794 -9.879853e-05 -0.0001180838
-1.8353698e-05 5.000681e-05 -9.6035124e-05 -5.160966e-05 3.9177627e-05 -1.1276119e-05 3.2721586e-05 3.5309084e-05
-6.650759e-05 -2.4692965e-05 0.00013444625 -4.1228246e-05 5.4988202e-05 -6.6139364e-05 -3.930797e-05 5.136997e-05
-4.6820038e-05 -3.159017e-05 -0.0002798795 7.715744e-05 0.00022206566 -0.00014165438 1.9426012e-05 -0.000112606365
-3.9607075e-05 -6.4496126e-05 -7.2400886e-05 4.993561e-05 0.00014219922 9.8054115e-05 6.27091e-05 6.609691e-06
-0.00010540682 -0.0001813736 0.00013951052 -0.00011133917 3.1398646e-05 -0.00012393511 3.2193526e-05 0.00017392187
5.101979e-05 -0.00023706109 -8.357358e-05 -4.6172172e-05 -0.00012542678 0.0001442237 -0.000106526044 7.615472e-05
0.00014423419 6.149973e-05 -0.00017678345 -0.00020743535 -7.075643e-05 2.12681e-05 -6.139777e-05 -0.000106784406
3.5838755e-06 -0.000118070944 -1.9079213e-05 2.7292501e-06 9.6457654e-05 0.0003818476 0.0001560126 0.00023995472
0.000109737106 2.8474582e-05 0.00019091574 -7.473971e-05 -2.1891738e-06 -7.852889e-05 1.785485e-05 -9.167414e-06
-5.661521e-05 -6.595312e-05 -0.0003294421 0.00011064438 5.8439287e-05 7.611565e-05 0.00010466796 -1.3746454e-05
-2.64842e-05 -1.5220646e-05 0.00015405696 -6.800066e-05 -0.00017368862 9.354337e-05 -7.3846095e-05 9.7267606e-05
8.941839e-06 3.4874967e-05 2.4739008e-06 2.7756829e-05 -5.439969e-05 -5.7633133e-05 2.8354016e-05 1.563351e-05
-1.3546443e-05 0.00010393791 -8.555185e-05 3.954385e-06 3.0681e-05 7.447339e-05 -3.2321703e-05 -0.00011072296
2.670947e-05 0.00021461459 -3.1354983e-05 -1.0737652e-06 4.3200234e-05 -5.4320415e-05 8.557875e-05 9.557886e-06
-1.3299173e-05 -6.9711764e-06 8.4525185e-05 9.22204e-05 6.8639e-05 4.1812615e-05 6.955103e-05 7.84496e-05
-3.3229004e-05 7.980792e-05 1.230088e-05 4.5369485e-05 2.6404572e-05 -0.00024713337 2.4159367e-06 -0.00015806324
-4.644619e-05 -8.755399e-05 -3.138868e-05 2.2053124e-05 -1.9593757e-05 7.281699e-05 1.4050054e-05 -3.8502326e-06
7.091962e-05 1.9785812e-05 0.00017622234 -6.6602624e-05 6.508573e-06 -8.744958e-06 -8.803119e-05 1.6410959e-05
7.534446e-05 4.9208093e-06 -4.0331157e-05 7.4200743e-06 6.255412e-05 -4.3492622e-05 2.5338653e-05 -3.734805e-05
1.2195094e-05 -3.8492686e-05 -3.373004e-05 -5.3329695e-05 5.784655e-05 1.1992003e-05 -8.463457e-06 1.6987915e-05
-2.732682e-07 -3.2582706e-05 6.348009e-05 -2.090245e-05 -1.4898771e-05 -4.6299254e-05 -3.068841e-06 3.0310117e-05
2.556044e-06 -8.124851e-05 4.707353e-06 -1.8494711e-06 -3.1231962e-06 1.8252693e-05 -3.4186603e-05 5.2141454e-06
-2.6264144e-05 1.04024675e-05 -2.636906e-05 -4.806662e-05 -4.1347907e-05 1.542596e-05 -2.9802975e-05 -3.3060467e-05
3.541594e-05 -4.2611813e-05 -3.2546304e-05 -1.3071861e-05 -6.1133837e-06 8.613012e-05 -3.1440024e-05 6.9458416e-05
-2.559433e-06 3.9758204e-05 -2.0547226e-05 3.9261722e-05 1.996903e-06 -2.0724463e-05 -3.227695e-05 -6.1871115e-06
-5.672187e-06 2.2943395e-05 -5.0389004e-05 2.1499742e-05 -5.8354708e-05 -8.7178495e-07 4.108818e-05 -2.7660411e-05
