runs/Burgers1D_Standard_FNN/0-0/20000.pt (torch, 163142 bytes, 27 tensors)

linears.0.weight f4 [64, 2]
0	0xbe37985e	-0.17929217
1	0xbd84b4de	-0.0647981
2	0x3e87d327	0.26528284
3	0x3e25006c	0.16113442
4	0xbe2e204b	-0.17004506
5	0xbe373af1	-0.17893578
6	0xbc8b64ec	-0.017015897
7	0x3e9c8f9d	0.30578318
8	0x3ec0abbf	0.37631032
9	0x3d1bb78a	0.038016833
10	0xbef409ba	-0.4766367
11	0x3e39dc8e	0.18150541
12	0xbc94a7a4	-0.018146344
13	0x3e63413c	0.22192854
14	0xbcd50fb4	-0.026008464
15	0xbdb793fb	-0.08963772
16	0xbed50c92	-0.41611153
17	0xbd0ce3a0	-0.034396768
18	0x3f232657	0.63730377
19	0xbd990d4c	-0.07473239
20	0x3f154fbc	0.5832479
21	0x3e56ebd9	0.20988406
22	0x3e9b1142	0.30286604
23	0x3f0f5a8b	0.5599753
24	0x3e11c195	0.14234002
25	0x3dc31f3e	0.09527443
26	0xbf02f51e	-0.5115527
27	0xbc068783	-0.008211019
28	0x3ef7d2ea	0.48403102
29	0xbe4880d0	-0.19580388
30	0xbf648245	-0.89261276
31	0x3e174220	0.14771318
32	0xbe851b41	-0.25997356
33	0xbe399088	-0.1812154
34	0x3e39e4fb	0.18153755
35	0x3b6f64ad	0.0036528513
36	0x3eb32add	0.3499364
37	0x3a2e5961	0.0006650892
38	0x3e977b97	0.2958648
39	0xbdf25a82	-0.11833669
40	0xbf47b5a5	-0.7801154
41	0xbc08a2ad	-0.008339566
42	0x3e7ea5b2	0.24867895
43	0x3e33e175	0.17566474
44	0x3f07f636	0.53110063
45	0x3e35f09f	0.17767571
46	0x3f837761	1.0270807
47	0xbe1a0e92	-0.1504462
48	0xbdd4ced4	-0.10391012
49	0xbf030f50	-0.5119524
50	0x3edc9c89	0.43088177
51	0xbebe81e4	-0.37208474
52	0xbe2ee246	-0.17078504
53	0x3ea1d8fe	0.31610864
54	0xbc9c5bab	-0.01908668
55	0x3ee966fb	0.4558638
56	0xbe9267ac	-0.2859472
57	0x3e5144fe	0.20436475
58	0xbece319e	-0.4027223
59	0xbe49a966	-0.19693527
60	0xbe9ab3bb	-0.30215248
61	0xbefc8a40	-0.49324226
62	0x3f170cc3	0.5900385
63	0xbcb16ed0	-0.021659285
64	0x3e6082e6	0.21924934
65	0xbf0fc261	-0.56155974
66	0xbf456eab	-0.7712199
67	0x3f2c90ad	0.6740826
68	0x3de37b56	0.11107509
69	0xbec599d3	-0.3859392
70	0x3dc64fa3	0.09683158
71	0x3e8ba35e	0.27273077
72	0x3ebf1e01	0.3732758
73	0x3e73e655	0.23818333
74	0x3e80fee9	0.2519448
75	0x3e7ee813	0.24893217
76	0xbed0836c	-0.40725267
77	0x3d0417e8	0.03224936
78	0x3e1953de	0.14973399
79	0x3e7ac557	0.24489342
80	0xbd98daaa	-0.07463582
81	0x3f759a9e	0.9593905
82	0x3ea1faa9	0.3163655
83	0xbd603c5f	-0.054745074
84	0xbecf9c97	-0.40549156
85	0x3dc32667	0.09528809
86	0xbea25b58	-0.31710315
87	0x3dd3cba4	0.10341576
88	0x3f3b3f9a	0.73143923
89	0x3d9bad70	0.0760144
90	0xbe9f0e5a	-0.31065637
91	0x3d70e75f	0.058814403
92	0xbe41fbb8	-0.1894368
93	0xbe3eab0a	-0.18619934
94	0xbe0be106	-0.13660058
95	0xbe45ea58	-0.19327676
96	0x3db2711d	0.08712981
97	0x3e64c99f	0.22342537
98	0x3f07696e	0.5289525
99	0x3de5a0a5	0.11212281
100	0xbee8bb3b	-0.45455346
101	0x3e6eeab2	0.23331717
102	0x3e531309	0.2061273
103	0x3d4a1d95	0.049344618
104	0x3f25d11f	0.6477222
105	0x3deee908	0.11665541
106	0x3ecc2184	0.3986932
107	0x3e58f1ba	0.21185961
108	0x3ec90540	0.39261818
109	0x3eb44551	0.35209134
110	0xbe03413b	-0.12817852
111	0x3ea7c591	0.3276792
112	0x3f143e8b	0.57907933
113	0xbef93511	-0.486733
114	0xbe3d34fa	-0.1847724
115	0xbdd1587d	-0.10221956
116	0x3e230b88	0.15922368
117	0xbf0832f2	-0.53202736
118	0x3ef7a06f	0.4836459
119	0x3d6e5c49	0.05819348
120	0x3e3a0d2c	0.18169087
121	0x3e2219cc	0.15830153
122	0x3b6cc89d	0.0036130317
123	0x3e0e2eb1	0.13884999
124	0x3ee50eee	0.44737953
125	0x3d7b65ac	0.06137626
126	0xbd98913c	-0.07449576
127	0xbdf0a7ad	-0.117507316

linears.0.bias f4 [64]
0	0x3d1ea87f	0.03873491
1	0x3ca4e1aa	0.020127136
2	0x3ce13759	0.027492212
3	0xbd4c4e02	-0.04987908
4	0x3d20b22f	0.03923243
5	0xbe3f5c0f	-0.18687461
6	0x3e0c7b40	0.13718891
7	0x3d034288	0.03204587
8	0x3c95a7d9	0.018268513
9	0x3e003a72	0.12522295
10	0xbec67370	-0.38759947
11	0xbde909c1	-0.113788135
12	0x3cda900f	0.02668002
13	0xbe0dd971	-0.13852479
14	0x3dc03e52	0.09386887
15	0xbd812995	-0.06306759
16	0x3d9f899f	0.07789921
17	0xbd793cc5	-0.06084897
18	0xbc06ffb8	-0.008239679
19	0x3d3035b2	0.043019958
20	0xbb90306d	-0.004400304
21	0xbcf2bdeb	-0.029631576
22	0xbe03022d	-0.12793799
23	0x3e3293bc	0.17439169
24	0x3cf178c8	0.029476538
25	0x3ed79002	0.42102057
26	0xbce65a75	-0.028119305
27	0xbc82bfca	-0.015960593
28	0xbe3c30c2	-0.18377975
29	0x3e09e701	0.13467027
30	0x3e099e74	0.13439351
31	0xbd72ae53	-0.05924828
32	0xbda517c3	-0.08061173
33	0xbe6adc64	-0.22935635
34	0xbb850742	-0.004059703
35	0xbd87bfb0	-0.06628358
36	0x3be5e8dd	0.007016285
37	0xbe3697c2	-0.17831329
38	0xbd0bcfc7	-0.0341337
39	0x3b368a53	0.0027853444
40	0x3cbc1635	0.022959808
41	0x3c6bbee1	0.014388771
42	0x3e0c272b	0.13686816
43	0xbd846499	-0.064645
44	0xbe42e305	-0.19031914
45	0xbd71d420	-0.05904019
46	0x3c38a202	0.011269094
47	0xbdcc61e8	-0.09979612
48	0xbd4de142	-0.05026365
49	0xbda01237	-0.07815974
50	0xbe3b0301	-0.18262865
51	0x3dfc82a6	0.12329607
52	0xbe189824	-0.14901787
53	0xbe0a07fa	-0.13479605
54	0xbe1a26ad	-0.15053816
55	0x3db8073f	0.08985757
56	0x3e71c43b	0.23610012
57	0x3d739115	0.059464533
58	0x3e1dd37f	0.1541271
59	0xbd6a4527	-0.057194855
60	0xbd25180e	-0.040306143
61	0x3d0b04f5	0.033940274
62	0xbe4cf734	-0.20016176
63	0x3eb8e12b	0.3610929

linears.1.weight f4 [64, 64]
0	0x3e200975	0.15628608
1	0xbdb1531b	-0.08658429
2	0xbde4ec51	-0.11177886
3	0x3da251a0	0.07925725
4	0xbeba63af	-0.36404178
5	0x3ec8723e	0.3914966
6	0x3e2be46a	0.16786352
7	0xbe0874b6	-0.13325772
8	0x3e152fb6	0.14568982
9	0xbf12f7bc	-0.5740926
10	0xbcbd21d0	-0.023087412
11	0xbd921c73	-0.071343325
12	0x3cea0eab	0.028571447
13	0x3eae213f	0.3400974
14	0xbeecc1ca	-0.462416
15	0x3e452052	0.1925061
16	0xbd0957ed	-0.03353112
17	0xbd679786	-0.05654099
18	0xbe90df50	-0.28295374
19	0xbe988795	-0.2979094
20	0x3e9cd39a	0.3063019
21	0xbe47859f	-0.19484566
22	0xbde433f3	-0.11142721
23	0xbeebd29b	-0.46059117
24	0xbda43d36	-0.080194876
25	0xbf158327	-0.5840325
26	0x3ebd218c	0.36939657
27	0x3d7d8baa	0.061900772
28	0x3f06e8e8	0.52699137
29	0x3d129bc3	0.035793077
30	0xbe31a623	-0.17348532
31	0xbebcd8b2	-0.36884075
32	0xbec5ee0c	-0.38658178
33	0x3ec96e4f	0.3934197
34	0x3d08b57f	0.033376213
35	0x3deea6e8	0.116529286
36	0x3c931da2	0.017958466
37	0xbdbe39b9	-0.092883535
38	0x3e955295	0.29164568
39	0x3e4de9bb	0.20108692
40	0x3e181256	0.14850745
41	0xbeda8efa	-0.42687207
42	0x3d839c47	0.06426292
43	0x3ea36bb7	0.31918117
44	0x3de78e36	0.113064215
45	0x3eb64d6c	0.35605943
46	0xbd9e1a14	-0.07719818
47	0x3e152bcf	0.14567493
48	0xbd9300b8	-0.071778715
49	0x3dbc0656	0.09180896
50	0x3e9c112c	0.3048185
51	0xbe79bc42	-0.24388221
52	0xbe339b81	-0.17539789
53	0xbdbf060d	-0.09327326
54	0x3d89f56f	0.06736266
55	0x3df28a87	0.11842828
56	0xbecf9c25	-0.40548816
57	0x3db50597	0.08838957
58	0xbeec4792	-0.46148354
59	0xbe31bc24	-0.17356926
60	0x3dd8c990	0.1058532
61	0xbd01b042	-0.031662233
62	0xbdb0fe5e	-0.08642267
63	0xbeb9b896	-0.3627364
64	0x3e2760cf	0.16345523
65	0xbe4428ab	-0.19156139
66	0x3e5eb015	0.21746857
67	0xbf00a934	-0.50258183
68	0x3e62b097	0.22137676
69	0xbde408cc	-0.1113449
70	0xbebbd66c	-0.36687028
71	0x3b8926fd	0.004185556
72	0x3e1eabe0	0.15495253
73	0x3d37030a	0.044680633
74	0xbe8e7198	-0.2782104
75	0xbec28f47	-0.37999937
76	0xbdfe5015	-0.12417618
77	0xbbe21fb6	-0.006900753
78	0xbd807b61	-0.06273533
79	0xbd5d3fe1	-0.054015998
80	0xbd0c8077	-0.0343022
81	0xbddef8f5	-0.108873285
82	0xbd41802e	-0.047241382
83	0x3e2ea820	0.17056322
84	0xbe0f1f76	-0.13976845
85	0xbe788fbf	-0.24273585
86	0xbea20803	-0.31646737
87	0x3e246368	0.16053545
88	0x3e23d307	0.1599847
89	0x3dadfb54	0.08495203
90	0xbef97515	-0.4872214
91	0xbec8c69e	-0.39214033
92	0xbe362e63	-0.17791133
93	0x3eb452e6	0.35219496
94	0x3ec1e41c	0.37869346
95	0xbd485cd8	-0.048916668
96	0x3ecafcbc	0.39645946
97	0xbec1f053	-0.37878665
98	0x3ec9870d	0.39360848
99	0xbdc2470e	-0.09486209
100	0xbd06eee5	-0.03294267
101	0xbee54697	-0.44780418
102	0xbd061e1b	-0.032743555
103	0xbd95214b	-0.07281741
104	0xbf0216f2	-0.5081626
105	0x3ddadc2c	0.10686526
106	0xbe31a013	-0.1734622
107	0xbe020d0f	-0.12700294
108	0xbe62a592	-0.22133473
109	0xbdbc880c	-0.092056364
110	0x3e6572d1	0.2240708
111	0x3dc342e4	0.09534243
112	0xbecd9528	-0.4015286
113	0xbec93e55	-0.39305368
114	0xbea90553	-0.33011875
115	0x3e3320db	0.17493002
116	0xbe5dc694	-0.21657783
117	0xbda6d291	-0.08145631
118	0xbee2456b	-0.44193587
119	0xbe88ae0c	-0.26695287
120	0x3ee434b8	0.4457147
121	0x3e64ed9a	0.22356263
122	0x3f1ffb70	0.6249304
123	0xbe1f7b22	-0.15574315
124	0xbd989a06	-0.07451253
125	0xbd5a7341	-0.05333257
126	0x3cb24a01	0.021763803
127	0x3e1fd1ab	0.15607326
128	0x3c88e1c4	0.016709216
129	0xbdaaeb58	-0.083456695
130	0xbcd724a2	-0.026262585
131	0x3c753197	0.014965436
132	0xbd8bc3c1	-0.068244465
133	0x3e7be222	0.24597982
134	0x3d04a8e0	0.032387614
135	0x3d2ee237	0.042696204
136	0x3de0ec35	0.10982553
137	0xbdf69920	-0.12040925
138	0x3d362f92	0.04447896
139	0xbd2d7ecc	-0.04235725
140	0x3e026a21	0.12735797
141	0xbde9daf1	-0.11418713
142	0xbd28f45a	-0.041248657
143	0xbdb38159	-0.087649055
144	0x3e85c43e	0.26126283
145	0x3caa66c0	0.020800948
146	0x3e810c8f	0.25204894
147	0xbc8d3286	-0.017236006
148	0xbacd21b7	-0.0015650307
149	0x3d124bcf	0.035716828
150	0xbdf3c625	-0.119030274
151	0xbd14b36b	-0.03630392
152	0xbc30b6db	-0.010785784
153	0x3d300c43	0.042980444
154	0x3d21d05b	0.039505344
155	0x3c6fca42	0.014635624
156	0x3e46913c	0.1939134
157	0x3dbbbbc6	0.09166674
158	0x3d19c56e	0.0375418
159	0x3e0f1753	0.13973741
160	0xbc4f5c96	-0.012656352
161	0xbe278872	-0.16360644
162	0xbcf6d72a	-0.030131895
163	0x3d09bc68	0.033626944
164	0xbde6052e	-0.11231457
165	0x3cef1dcf	0.029189019
166	0xbd4fc265	-0.0507225
167	0xbe0525b5	-0.13002665
168	0x3bb3b1ca	0.0054838406
169	0xbe5f2f09	-0.21795286
170	0xbc821091	-0.01587704
171	0x3bb3c21d	0.0054857866
172	0xbe80ba13	-0.25141963
173	0xbd8e45a8	-0.069468796
174	0xbe3abc30	-0.1823585
175	0xbbb12ab0	-0.0054067
176	0x3e6c7943	0.23093133
177	0x3e061c6c	0.1309678
178	0xbe4ece5b	-0.20195906
179	0x3dd31814	0.10307327
180	0xbe2d97f2	-0.16952494
181	0x3dc30188	0.095217764
182	0xbe9d0da4	-0.3067447
183	0x3e1caab8	0.15299499
184	0xbda52031	-0.08062781
185	0xbbdfef69	-0.00683396
186	0x3df0999f	0.11748051
187	0xbe493e85	-0.19652756
188	0x3d538011	0.051635806
189	0xbe1df4de	-0.1542544
190	0x3c3ab2da	0.011395181
191	0xbd425c26	-0.04745116
192	0xbe5325e2	-0.2061992
193	0x3d6f6222	0.058443196
194	0xbe043cf8	-0.12913883
195	0x3dbcdb1f	0.092214815
196	0x3d5f7879	0.05455825
197	0xbe734164	-0.23755413
198	0xbd35929b	-0.044329267
199	0x3d4272c4	0.04747273
200	0xbeff9d37	-0.49924633
201	0x3e02e239	0.1278161
202	0x3e5bfc4a	0.2148296
203	0x3cb23b79	0.021756874
204	0x3dceae63	0.100918554
205	0xbeb432dd	-0.35195056
206	0x3e843924	0.25824845
207	0xbee62995	-0.449536
208	0xbe801201	-0.25013736
209	0x3e13707b	0.14398377
210	0x3f819d8f	1.0126208
211	0x3e113375	0.14179786
212	0xbe858ff2	-0.26086384
213	0x3e0594d1	0.1304505
214	0x3ec8d75b	0.39226803
215	0x3f0b89d5	0.5450719
216	0x3e2b9c37	0.1675881
217	0x3d860334	0.0654358
218	0x3e143aa0	0.14475489
219	0xba09e81b	-0.00052607217
220	0xbe9a852c	-0.30179727
221	0xbda9dbd7	-0.08293884
222	0x3d8adaa2	0.06779982
223	0x3ef098ec	0.4699167
224	0xbd1190ba	-0.035538413
225	0xbeacfe74	-0.33787882
226	0xbe0fc322	-0.14039281
227	0x3d2d61a3	0.04232944
228	0x3e0c7245	0.13715465
229	0x3c7f4399	0.015580081
230	0xbf0a6920	-0.5406666
231	0x3e03f25f	0.12885426
232	0x3d5427de	0.051795833
233	0x3ed91089	0.42395428
234	0x3dd5aff0	0.10433948
235	0xbe8e5bc4	-0.27804387
236	0x3ebd76ae	0.37004608
237	0xbea86ab7	-0.32893917
238	0x3cb9cf70	0.022681922
239	0x3cc3af12	0.023887191
240	0x3e36454a	0.17799869
241	0x3f019487	0.5061726
242	0x3d803ff3	0.06262197
243	0xbcdf0384	-0.027223356
244	0x3eccd0c4	0.40003026
245	0x3ea8465a	0.32866174
246	0x3e59da10	0.2127459
247	0xbc1bbe50	-0.009505823
248	0xbd6a05c8	-0.05713442
249	0xbcc819d0	-0.02442637
250	0xbdc6fb1b	-0.09715863
251	0x3edd46e7	0.43218157
252	0x3e5185fd	0.20461269
253	0x3d15c485	0.03656437
254	0x3e6486d6	0.22317061
255	0xbe6ce9db	-0.23136084

linears.1.bias f4 [64]
0	0xbe62fa4f	-0.22165798
1	0x3d17f588	0.03709939
2	0xbb35f591	-0.0027764777
3	0x3c6e8a43	0.014559331
4	0x3e344958	0.17606103
5	0xbdccedbc	-0.10006282
6	0x3d71616c	0.0589308
7	0xbe8608cf	-0.26178595
8	0x3dc87004	0.0978699
9	0x3e2ba7b7	0.16763197
10	0xbe218b1c	-0.15775722
11	0xbcd14b80	-0.025548697
12	0x3d417200	0.04722786
13	0x3b88939b	0.0041679866
14	0xba741cf6	-0.0009312177
15	0xbd7363d5	-0.05942138
16	0xbf0e11d4	-0.55495954
17	0xbdbb40be	-0.09143208
18	0xbccdba89	-0.025113361
19	0x3d821f14	0.06353584
20	0xbd91a1d1	-0.07110942
21	0xbd715c21	-0.05892575
22	0xbd212afc	-0.039347634
23	0xbc2bf116	-0.010494491
24	0xbbf480f6	-0.0074616624
25	0x3cf71fe4	0.030166574
26	0xbc3e239e	-0.0116051715
27	0x3e02eedd	0.12786432
28	0x3cc960dc	0.024582319
29	0x3ca549ad	0.020176733
30	0x3e217231	0.15766217
31	0xbd5182b7	-0.05115005
32	0x3da3b659	0.079937644
33	0x3cd588e5	0.026066253
34	0x3c2a4a54	0.010393698
35	0x3e05baa4	0.13059479
36	0xbbbfad93	-0.005849549
37	0xbd6bec5a	-0.05759845
38	0x3c98fad6	0.018674295
39	0x3d287884	0.041130558
40	0xbe9691b0	-0.29408026
41	0x3e272608	0.16323102
42	0x3cad6acb	0.021169087
43	0xbd3165b1	-0.04330987
44	0xbdce1822	-0.10063197
45	0x3e387cd5	0.1801637
46	0xbea44245	-0.3208181
47	0x3e831de0	0.2560873
48	0xbc1d1403	-0.009587291
49	0x3decc640	0.11561251
50	0x3c211e1b	0.009833838
51	0xbc8086a2	-0.015689198
52	0x3be38328	0.0069431253
53	0x3db5c335	0.088751234
54	0x3da735b2	0.081645384
55	0x3d37c73e	0.044867747
56	0x3e7e0c31	0.24809338
57	0xbd60b039	-0.05485556
58	0x3d237105	0.039902706
59	0xbd9d8f82	-0.076933876
60	0xbd885a15	-0.06657807
61	0xbe49e8dc	-0.19717735
62	0xbe26688a	-0.16250816
63	0x3b891c1b	0.0041842586

linears.2.weight f4 [64, 64]
0	0x3e3d54d0	0.18489385
1	0x3d7d3d2b	0.061825912
2	0x3e1cfa3e	0.15329835
3	0x3b9ee0b6	0.004848565
4	0xbdb32500	-0.087472916
5	0x3bbdbffa	0.0057907077
6	0x3d8b94a3	0.068154596
7	0x3d1fa67b	0.038977128
8	0xbd3a4501	-0.045475964
9	0xbe1c4289	-0.15259756
10	0x3d7f9f4e	0.062407784
11	0xbe4a0c78	-0.19731319
12	0x3e15bff5	0.14624007
13	0xbce9e104	-0.028549679
14	0xbc89d3fd	-0.016824717
15	0xbe33a29e	-0.17542502
16	0xbd136c5a	-0.035992004
17	0xbd8826d3	-0.0664803
18	0xbd91fd65	-0.07128409
19	0xbde78142	-0.11303951
20	0xbdf65c69	-0.120293446
21	0x3ce1315e	0.02748936
22	0x3c1c3c63	0.009535882
23	0x3e2b64ad	0.16737624
24	0x3c065c3d	0.008200702
25	0x3dbeb114	0.09311119
26	0x3daf8349	0.085699625
27	0xbdfefc72	-0.12450494
28	0xbe0d015e	-0.13770053
29	0x3e1018d4	0.14071971
30	0xbcb4ac1d	-0.022054726
31	0xbea14f79	-0.31505945
32	0x3d020999	0.031747434
33	0xbca4a61f	-0.020098744
34	0xbe02105b	-0.12701552
35	0xbdfb2f22	-0.12264849
36	0xbcbbda68	-0.022931293
37	0x3eaa5ae7	0.33272478
38	0x3e6d1cd0	0.23155522
39	0x39b4e34c	0.00034501625
40	0x3e1e1781	0.15438654
41	0x3e76adf0	0.2408979
42	0x3e335bba	0.1751546
43	0x3cd7c619	0.026339578
44	0x3db3bb9d	0.08776019
45	0x3d460222	0.048341878
46	0xbdf0a248	-0.11749703
47	0xbde41ad4	-0.111379296
48	0xbdcf3a4d	-0.10118542
49	0x3dbf8053	0.09350648
50	0xbd155aef	-0.036463674
51	0x3daa39d8	0.08311814
52	0xbe48390f	-0.19553016
53	0x3d7c9752	0.061667748
54	0x3c665454	0.014058191
55	0x3e1581bd	0.14600272
56	0xbd9717d4	-0.07377592
57	0x3c0f20a1	0.008735807
58	0x3de390c2	0.11111595
59	0x3df0ab09	0.11751372
60	0x3d9a4e76	0.075344965
61	0x3d72b7b6	0.05925723
62	0xbcb37a9c	-0.02190905
63	0xbe9bbe17	-0.30418465
64	0x3d9a83a1	0.075446375
65	0x3e5ec722	0.2175565
66	0xbdabf562	-0.083964124
67	0xbea3a36a	-0.31960613
68	0xbdbfc6df	-0.093641035
69	0xbd64fc91	-0.05590493
70	0x3d1b5540	0.037923098
71	0xbe3819b2	-0.17978552
72	0x3e3049f4	0.17215711
73	0xbe36d476	-0.17854485
74	0x3e15124b	0.1455776
75	0x3e7ee063	0.24890284
76	0xbb9c0ed6	-0.004762511
77	0x3dba5848	0.090988696
78	0x3ce5cf86	0.028053056
79	0xbd3324e6	-0.04373636
80	0xbdb20667	-0.086926274
81	0x3c513a51	0.012770251
82	0x3e16fe12	0.14745358
83	0x3ac9013b	0.001533545
84	0xbe51a46c	-0.20472878
85	0x3e5b4579	0.2141322
86	0x3eb3df6e	0.351314
87	0xbc20c888	-0.009813435
88	0xbd13fe35	-0.036131103
89	0x3d29213a	0.041291453
90	0xbe0c51bf	-0.13703059
91	0x3e0606e2	0.13088563
92	0x3e9274e1	0.28604797
93	0x3d8254fa	0.06363864
94	0xbe694897	-0.22781597
95	0xbd023fe3	-0.03179921
96	0x3dcb62d0	0.09930956
97	0xbc166b7f	-0.0091809025
98	0x3c710a57	0.014711938
99	0x3da2c915	0.079485096
100	0x3e18ca09	0.1492082
101	0xbe16f448	-0.14741623
102	0xbe1a3e2d	-0.1506278
103	0x3e906e9c	0.28209388
104	0x3ecbf269	0.39833382
105	0x3e90ff47	0.2831976
106	0x3e2fddea	0.17174497
107	0x3e5ebd2d	0.21751852
108	0x3d3b4ec0	0.0457294
109	0xbd9ca7f8	-0.07649225
110	0x3e475273	0.19465046
111	0x3e4a1853	0.19735841
112	0x3dd10d7d	0.10207651
113	0x3ea1fb54	0.3163706
114	0x3e1e8b50	0.15482831
115	0x3d9750ca	0.07388456
116	0x3bda6482	0.0066648135
117	0x3dfe5180	0.12417889
118	0xbe68c7db	-0.22732489
119	0xbe2044b0	-0.15651202
120	0x3e2f0275	0.17090781
121	0x3d5f472d	0.054511238
122	0x3da1b2ef	0.07895457
123	0xbe13f544	-0.1444903
124	0x3e323c59	0.17405833
125	0x3db2b2bc	0.08725497
126	0xbd30fb07	-0.04320815
127	0xbeb08178	-0.34473777
128	0xbd1311cd	-0.035905648
129	0x3d8ac17a	0.06775184
130	0xbdcea368	-0.10089761
131	0x3e971787	0.29510137
132	0xbc686fb2	-0.0141867865
133	0x3c14f9d4	0.009092767
134	0xbcc905db	-0.024538925
135	0x3d97184f	0.07377683
136	0x3c85e399	0.016343879
137	0xbd9be648	-0.07612282
138	0x3e85ce3f	0.26133916
139	0xbe1bec7b	-0.15226929
140	0x3d1fce00	0.039014816
141	0xbc2b68eb	-0.010462026
142	0xbdace599	-0.0844223
143	0xbe267dac	-0.16258878
144	0x3d4519d8	0.04812035
145	0x3c5b7e59	0.013396823
146	0xbe3c4d5c	-0.18388885
147	0xbcb56b23	-0.022145813
148	0xbc153d1c	-0.009108808
149	0xbdd78d3f	-0.105249874
150	0xbd691048	-0.056900293
151	0xbc5fdc39	-0.013663345
152	0x3d5a85cc	0.053350255
153	0xbd053792	-0.0325237
154	0xbd1a83ad	-0.037723232
155	0xbe28adbc	-0.16472524
156	0xbdc9298e	-0.09822379
157	0xbdc0dcc5	-0.094171084
158	0xbdb96aee	-0.09053598
159	0xbbb576e8	-0.0055378564
160	0x3e713b00	0.23557663
161	0xbd586aa6	-0.052836083
162	0xbcf67d27	-0.030088974
163	0x3d26327b	0.040575486
164	0xbe72541b	-0.23664896
165	0x3ceb4c3b	0.028722873
166	0x3bb51166	0.0055257557
167	0xbd5e021d	-0.054201234
168	0xbd2a7418	-0.041614622
169	0xbe947a17	-0.28999397
170	0x3ccbaab2	0.024861667
171	0xbe6700c8	-0.22558892
172	0x3c0709b9	0.008242064
173	0xbd9402e0	-0.07227111
174	0x3beb60e3	0.0071831807
175	0x3dabd2bf	0.08389806
176	0x3d60ee13	0.054914545
177	0x3dd1d46f	0.102455966
178	0x3e186bfb	0.14884941
179	0xbd44c41e	-0.048038594
180	0x3d421e52	0.047392197
181	0xbdb557ff	-0.088546745
182	0x3dc2c6d9	0.095105834
183	0xbe39205a	-0.18078747
184	0x3e56d5f5	0.20980056
185	0x3ded3738	0.11582798
186	0x3de297f0	0.11064136
187	0x3d75fd89	0.060056243
188	0xbd36a4ba	-0.04459069
189	0xbd819c3e	-0.06328629
190	0xbd3897ba	-0.045066573
191	0x3cabbe5f	0.0209648
192	0xbc2cd41e	-0.01054862
193	0xbefdaa29	-0.49543884
194	0x3e017745	0.12643154
195	0x3e4f3533	0.20235138
196	0x3e476e02	0.19475558
197	0xbe1d960f	-0.15389274
198	0xbd8c75cb	-0.06858405
199	0xbcd08ced	-0.025457824
200	0x3e9913a2	0.2989779
201	0x3e083e68	0.13305056
202	0xbed56175	-0.41675916
203	0xbe6b4853	-0.22976808
204	0xbdb8743f	-0.09006547
205	0x3f20b46a	0.6277529
206	0x3eb23efb	0.34813675
207	0xbe26cb8c	-0.16288584
208	0xbe883a3c	-0.2660693
209	0xbe7b8073	-0.24560718
210	0xbe32685c	-0.17422622
211	0x3d562b1d	0.05228721
212	0xbf178947	-0.59193844
213	0xbdeca5ab	-0.11555036
214	0xbe1f24d2	-0.1554139
215	0xbca4a117	-0.020096345
216	0xbe21a51d	-0.15785642
217	0x3e1ef740	0.15524006
218	0x3e870869	0.26373604
219	0x3eeb49c6	0.45954722
220	0xbeba8c16	-0.36435002
221	0xbeb624ce	-0.35574955
222	0x3edf42a6	0.43605536
223	0x3e67b0c7	0.22626029
224	0x3ddf6138	0.10907215
225	0xbe445fdc	-0.19177192
226	0xbeab71d1	-0.33485273
227	0x3d1074bd	0.03526758
228	0x3ed651ef	0.41859385
229	0x3e6eaa2d	0.23307104
230	0x3d86bfc2	0.06579544
231	0x3e8010bc	0.25012767
232	0x3c6833fc	0.01417255
233	0xbd5948af	-0.053047832
234	0x3dc01a75	0.09380046
235	0x3d74221e	0.05960285
236	0x3cf5a2d1	0.029984863
237	0x3f42b280	0.7605362
238	0xbf5f6178	-0.872581
239	0x3ec0ddcc	0.37669218
240	0xbdc6a30b	-0.09699067
241	0x3ee11e4c	0.43968427
242	0x3d853efe	0.065061554
243	0xbe676267	-0.22596131
244	0x3e768de8	0.2407757
245	0xbd255605	-0.040365238
246	0x3e6ce979	0.23135938
247	0xbe710573	-0.23537235
248	0x3e8b73dc	0.2723683
249	0xbc53abc0	-0.012919366
250	0xbddc97a0	-0.10771108
251	0xbeae1a6d	-0.34004536
252	0x3dbc22c8	0.091863215
253	0xbd027b9d	-0.031856168
254	0xbe83d54a	-0.25748664
255	0xbdd52f86	-0.10409455

linears.2.bias f4 [64]
0	0x3b0927df	0.0020928306
1	0x3e007cde	0.12547633
2	0x3c4efdbc	0.012633737
3	0x3e20f6ca	0.15719143
4	0x3d778770	0.060431898
5	0x3c2e914a	0.010654757
6	0xbd98610f	-0.074403875
7	0xbd3468e4	-0.044045344
8	0x377b1be4	1.496726e-05
9	0x3d20d755	0.039267857
10	0x3c9ca939	0.01912366
11	0x3d50e8fd	0.051003445
12	0x3e1f5285	0.15558822
13	0xbc3c0a67	-0.0114770895
14	0xb96be8b8	-0.00022498041
15	0xbdac4059	-0.08410711
16	0x3c0b5b5a	0.008505667
17	0xbce3f8fd	-0.027828688
18	0xbe361d99	-0.17784728
19	0xbd019f23	-0.031645905
20	0x3e6b7a5b	0.22995894
21	0xbf1ffa73	-0.6249153
22	0x39f6ffc3	0.00047111334
23	0xbeb22a1c	-0.34797752
24	0x3a6ac4a8	0.00089556957
25	0x3d27ef76	0.040999852
26	0xbdd026ca	-0.101636484
27	0xbd449c60	-0.048000693
28	0xbd7fe581	-0.06247473
29	0x3c96b865	0.018398473
30	0x3ca93659	0.020655798
31	0x3cd1d783	0.02561546
32	0xbd10fc0a	-0.035396613
33	0x3e56d8aa	0.20981088
34	0x3da121fb	0.078678094
35	0xbbc6b80e	-0.0060644215
36	0xbd274cad	-0.040844608
37	0xbc50304e	-0.012706829
38	0x3997c9b8	0.00028951257
39	0x3cd8fc22	0.026487414
40	0xbd855a50	-0.06511366
41	0x3c6865e4	0.014184449
42	0x3dad8d8c	0.084742635
43	0xbd8cb0d3	-0.06869664
44	0x3ceceb47	0.028920783
45	0x3e20e09e	0.15710685
46	0x3ccd2ba7	0.02504523
47	0xbe86f50f	-0.2635884
48	0xbe658ac2	-0.22416213
49	0x3e169c98	0.14708173
50	0xbd6ea0f4	-0.058258966
51	0xbe093206	-0.13397989
52	0x3cd7ba54	0.026333965
53	0xbccc73a5	-0.024957487
54	0x3e51d90c	0.20492953
55	0x3c2f6e0d	0.0107073905
56	0xbd099ded	-0.033597875
57	0xbbddedd2	-0.006772735
58	0xbcabde9e	-0.020980176
59	0xbdaf5545	-0.08561186
60	0x3db60761	0.08888126
61	0xbcd7ba89	-0.026334064
62	0xbcafc319	-0.021455334
63	0x3e1fa338	0.15589607

linears.3.weight f4 [64, 64]
0	0x3e987799	0.29778746
1	0x3dac1a2c	0.084034294
2	0xbcf4c638	-0.029879674
3	0xbd4b06de	-0.049567096
4	0x3ceae8ac	0.0286754
5	0xbd869890	-0.06572068
6	0xbd78940f	-0.060688075
7	0x3e627c5d	0.22117753
8	0xbc2eaa84	-0.010660771
9	0xbee02023	-0.43774518
10	0x3e019d33	0.12657623
11	0x3c9e59ce	0.019329932
12	0xbe440add	-0.19144769
13	0x3dc150c7	0.09439235
14	0x3d573b92	0.052547045
15	0xbbff9a60	-0.0078003854
16	0xbd80261c	-0.06257269
17	0xbe76d288	-0.24103749
18	0x3d02a4ed	0.031895567
19	0x3de29fab	0.110656105
20	0x3e097b8f	0.1342604
21	0xbe6d0c22	-0.2314916
22	0x3c96e082	0.0184176
23	0xbc94153c	-0.018076532
24	0x3e472d31	0.19450833
25	0x3d305ea7	0.043059018
26	0x3e1a70dc	0.15082115
27	0xbdbeb243	-0.093113445
28	0xbe1aaee2	-0.15105775
29	0x3e2ea3f1	0.17054726
30	0x3cb1cdc2	0.021704558
31	0x3e6a2d41	0.22868825
32	0x3ce81975	0.028332451
33	0x3ea27b81	0.3173485
34	0xbd897492	-0.06711687
35	0x3e35b7fd	0.17745967
36	0xbcfea5ef	-0.031084983
37	0xbe1137e2	-0.14181474
38	0x3dcf4de8	0.10122281
39	0x3c16f029	0.009212532
40	0xbe145931	-0.14487149
41	0x3d10b4ce	0.03532868
42	0x3e29b649	0.16573443
43	0x3e47917a	0.19489089
44	0xbda137e9	-0.07871992
45	0xbdec4780	-0.11537075
46	0xbe582e11	-0.21111323
47	0xbda92845	-0.08259634
48	0xbe06d014	-0.13165313
49	0xbbf12873	-0.0073595583
50	0x3db8cc5f	0.09023356
51	0xbd14934b	-0.036273282
52	0xbd066602	-0.032812126
53	0x3d20e804	0.039283767
54	0x3e02baeb	0.12766616
55	0xbdfabae5	-0.122426786
56	0xbe015a6b	-0.12632148
57	0xbe0ad83a	-0.13559046
58	0x3c9842fd	0.01858663
59	0x3db2b1e0	0.08725333
60	0xbdabdbbf	-0.083915226
61	0x3dc0bfbf	0.09411573
62	0x3c10d7f4	0.00884055
63	0x3de54494	0.11194721
64	0xbe4aee02	-0.19817355
65	0x3d951fa7	0.07281428
66	0xbdbdea58	-0.09273213
67	0x3ca7c834	0.020481206
68	0x3e3a4b7c	0.18192858
69	0xbd496c06	-0.049175285
70	0xb9c707f4	-0.00037962163
71	0x3d39f334	0.045397952
72	0x3e2ae3af	0.16688417
73	0xbda1867b	-0.07886978
74	0x3e79c98b	0.24393289
75	0x3cc3a56c	0.02388259
76	0x3bffeac1	0.0078099673
77	0x3c45ebc4	0.012080137
78	0x3d8644ff	0.06556129
79	0xbdea63c1	-0.11444808
80	0x3d527a5d	0.051386226
81	0x3d36b8d1	0.04460985
82	0x3e6290f8	0.22125614
83	0x3dc06caa	0.09395726
84	0x3df8c2cd	0.1214653
85	0x3dc0f4f5	0.09421722
86	0xbe6ea965	-0.23306806
87	0x3c440b58	0.011965595
88	0xbdac47b6	-0.08412115
89	0x3d9b8949	0.075945444
90	0xbe286c4a	-0.16447559
91	0x3dc832c6	0.09775309
92	0xbba689c7	-0.0050823423
93	0x3d0ed3a5	0.03486981
94	0x3e27b18f	0.16376327
95	0xbe27d7ae	-0.16390869
96	0x3e35ea32	0.1776512
97	0xbb69d497	-0.0035679692
98	0xbe284b19	-0.16434897
99	0xbe267c81	-0.16258432
100	0x3d6d2ad9	0.05790219
101	0x3c2cc269	0.010544398
102	0x3d2074e0	0.03917396
103	0xbde0a039	-0.1096806
104	0xbb5610fd	-0.0032663934
105	0x3c89cc4e	0.016821053
106	0xbce64bd4	-0.02811233
107	0xbc2f6526	-0.010705268
108	0xbe1192b7	-0.14216124
109	0x3deffb04	0.11717799
110	0xbdaffb6b	-0.08592876
111	0xbe0522e7	-0.13001595
112	0xbbabda9d	-0.0052445666
113	0x3e1e27c1	0.15444852
114	0x3d076eff	0.03306484
115	0x3d2c4e54	0.042066887
116	0xbe488f0a	-0.19585815
117	0xbd570771	-0.05249733
118	0xbdc33892	-0.09532274
119	0x3cee66b3	0.029101705
120	0xbb012547	-0.0019706057
121	0x3dad7796	0.08470075
122	0x3cf35d75	0.02970765
123	0xbdad70ab	-0.08468755
124	0xbe6b9e17	-0.23009525
125	0x3be3d8e6	0.0069533465
126	0xbdd45800	-0.10368347
127	0x3d8d3e4c	0.06896648
128	0x3db2adb0	0.087245345
129	0x3e3634b6	0.17793545
130	0xbe144aad	-0.14481612
131	0x3d7edbf8	0.062221497
132	0x3dbd0016	0.09228532
133	0xbdf27135	-0.11837999
134	0xbe525628	-0.20540679
135	0xbcdc3ba2	-0.026883904
136	0x3e661c06	0.22471628
137	0xbec1ab22	-0.37825876
138	0x3d789dc5	0.060697336
139	0x3ddfe43c	0.10932204
140	0x3da6a39a	0.08136673
141	0xbe7816d1	-0.24227454
142	0xbc912391	-0.017717155
143	0x3c3234ca	0.010876844
144	0x3e107da2	0.14110425
145	0x3cf3658e	0.029711511
146	0x3e5d06ec	0.21584672
147	0x3dea3476	0.114357874
148	0xbd8b0a83	-0.06789114
149	0xbed2668f	-0.4109387
150	0x3ca8bd22	0.020597998
151	0xbd5a0706	-0.053229354
152	0xbc665ddf	-0.014060467
153	0xbd9a8a5d	-0.07545922
154	0x3cef2d4e	0.029196408
155	0xbd827825	-0.06370572
156	0x3c99b504	0.018763073
157	0x3d69d2bc	0.057085738
158	0x3e517171	0.2045343
159	0x3eb42722	0.35186106
160	0xbe367404	-0.17817694
161	0xbad59a8c	-0.0016296669
162	0xbde853bf	-0.11344098
163	0xbe405e46	-0.18785962
164	0x3c13d630	0.009023234
165	0xbe5f5ecf	-0.2181351
166	0x3c28d083	0.010303619
167	0x3d77ac52	0.06046707
168	0x3e005e68	0.12536013
169	0x3e0b071c	0.13576931
170	0x3d49020e	0.049074225
171	0x3c920c44	0.017828114
172	0x3e490fec	0.1963498
173	0x3e2cf768	0.16891253
174	0xbc5862b8	-0.01320713
175	0x3e400e3a	0.18755427
176	0xbceb0260	-0.028687656
177	0x3e2655c5	0.16243656
178	0x3db053e2	0.086097494
179	0xbd0cddb6	-0.034391128
180	0xbd6e464c	-0.05817251
181	0x3e1231d1	0.14276816
182	0x3e0b615f	0.13611363
183	0x3dcce960	0.1000545
184	0xbba88d3b	-0.005143789
185	0xbe984509	-0.2974017
186	0xbe82afc8	-0.25524735
187	0xbebd039e	-0.36916822
188	0xbd8284a3	-0.06372955
189	0xbe4c67c8	-0.19961464
190	0xbd89f206	-0.067356154
191	0x3d5cb717	0.053885546
192	0x3e2c31f9	0.16815938
193	0xbd771d98	-0.060330957
194	0x3dfec9c2	0.12440826
195	0x3cb7e0e6	0.022446107
196	0xbcee440f	-0.029085187
197	0xbb1a669c	-0.0023559695
198	0xbda4e71f	-0.08051895
199	0xbc950e32	-0.018195245
200	0xbe17f346	-0.14838895
201	0x3e8f0094	0.2793013
202	0x3df7aa54	0.120930344
203	0x3db1eecd	0.08688126
204	0xbc4a437a	-0.012345189
205	0x3b05b4fe	0.002040207
206	0x3dfc30ca	0.12313993
207	0xbe38f207	-0.18061076
208	0x3cccf9e2	0.025021497
209	0x3d944815	0.07240311
210	0x3d8c2c6c	0.0684441
211	0xbe7b5433	-0.24543838
212	0xbd8209e1	-0.063495405
213	0x3b2f6059	0.0026760309
214	0xbe255dd1	-0.1614907
215	0xbdd44223	-0.10364177
216	0x3e1c1d84	0.15245634
217	0xbd1929a0	-0.037393212
218	0x3e00b742	0.12569907
219	0x3e590e9d	0.21196981
220	0xbde1451a	-0.10999508
221	0x3e170082	0.14746287
222	0xbdc6e6b9	-0.097119756
223	0xbe3d2e57	-0.18474708
224	0x3da3f716	0.08006112
225	0xbe0bb7e0	-0.13644361
226	0xbe25161f	-0.1612172
227	0x3e126d85	0.14299591
228	0x3c71d0db	0.014759268
229	0x3d848405	0.06470493
230	0x3dde0de3	0.108424924
231	0x3e335c40	0.1751566
232	0xbd369b20	-0.044581532
233	0x3e0771f7	0.13227068
234	0xbdcfc762	-0.10145451
235	0x3d335622	0.043783315
236	0xbcdb086c	-0.026737414
237	0xbc84455f	-0.01614636
238	0x3d1da647	0.038488653
239	0x3ce276fe	0.02764463
240	0xbdc37a84	-0.095448524
241	0x3dd56175	0.10418979
242	0xbd11b39b	-0.035571676
243	0x3e6a1693	0.22860174
244	0xbcf580cb	-0.02996864
245	0xbd0621ca	-0.032747068
246	0xbe8f6c9c	-0.2801255
247	0x3d88442f	0.0665363
248	0x3ddfdea2	0.10931136
249	0x3dc65afb	0.09685322
250	0x3c88ba38	0.016690359
251	0xbda3c6e3	-0.07996919
252	0xbe6cbba2	-0.23118451
253	0xbd160c85	-0.036633033
254	0xbde4389c	-0.1114361
255	0xbd0474a8	-0.032337815

linears.3.bias f4 [64]
0	0x3cde14e4	0.02710957
1	0x3c33d47d	0.010975954
2	0x3c5c4e6f	0.013446434
3	0xbcd79731	-0.02631721
4	0x3cca629f	0.02470523
5	0xbcdcdf53	-0.026961958
6	0x3bfc3ab2	0.0076974267
7	0x3d805e4c	0.06267986
8	0xbb2fd4ea	-0.0026829788
9	0x3bfa9e2d	0.0076482506
10	0xbc4eda5d	-0.012625304
11	0xbcd8e400	-0.026475906
12	0xbc523808	-0.012830742
13	0xbc893586	-0.016749155
14	0xbc1beedd	-0.009517399
15	0xbcbe4d5a	-0.023230243
16	0xbc10e0a0	-0.008842617
17	0xbd4ee81c	-0.050514325
18	0x3c821545	0.015879283
19	0xbc3972d1	-0.011318878
20	0x3c6865b7	0.014184407
21	0x3d48a75a	0.048987724
22	0x3b637471	0.0034706856
23	0xbb4661aa	-0.0030270615
24	0x3cc021a0	0.023453534
25	0x3cc46915	0.023975888
26	0x3bc7e30f	0.0061000655
27	0x3d05719d	0.032579053
28	0xbcf4d2ef	-0.029885737
29	0x3c766962	0.015039774
30	0x3b62b98f	0.0034595465
31	0x3c7a5608	0.0152793005
32	0x3cf53f40	0.029937387
33	0x3cace552	0.021105442
34	0x3ce7e270	0.028306216
35	0xbca4f075	-0.02013419
36	0x3c060676	0.008180251
37	0x3abaa447	0.0014239632
38	0xbb129cf7	-0.002237139
39	0xbc829429	-0.015939789
40	0xbca2d99e	-0.019879159
41	0x3d6d9426	0.058002613
42	0x3ba17d3a	0.0049282582
43	0x3d6d48d3	0.05793078
44	0x3be29f7c	0.0069159847
45	0x3cd8b39e	0.026452836
46	0xb9f55ff7	-0.0004680154
47	0xbc9d6dca	-0.01921739
48	0x3d574b08	0.05256179
49	0xbdd83152	-0.10556282
50	0x3c4194d2	0.011815267
51	0xbbf7b27d	-0.0075591193
52	0xbd00e274	-0.031465963
53	0xbbd87759	-0.006606024
54	0xbd4dc214	-0.050233915
55	0xbd0210e8	-0.031754404
56	0x3cd89a6a	0.026440818
57	0x3beb80ba	0.0071869763
58	0xbc564cd6	-0.013079843
59	0xbcc1aff6	-0.023643475
60	0x3bb49043	0.0055103614
61	0x3be5db4c	0.0070146676
62	0xbc14abff	-0.00907421
63	0xbd1aa6b4	-0.037756637

linears.4.weight f4 [1, 64]
0	0xbe8b8a54	-0.27253973
1	0xbda6f12a	-0.08151467
2	0x3e91ce30	0.2847762
3	0x3ec6c9b5	0.38825765
4	0x3e2eedf4	0.1708296
5	0x3dd739ca	0.10509069
6	0xbdef9ecc	-0.1170021
7	0x3e702d52	0.23454788
8	0x3d96aa11	0.07356656
9	0x3e4ee430	0.20204234
10	0x3c1f6d50	0.009730652
11	0xba2698cc	-0.0006355166
12	0x3e074a69	0.13211979
13	0xbe1eb7dd	-0.15499826
14	0xbdac09e4	-0.08400324
15	0x3d1354fb	0.035969716
16	0x3e2e0978	0.169958
17	0xbe26a2b7	-0.16273008
18	0x3df18c15	0.11794297
19	0x3e8394e8	0.25699544
20	0xbcd9a9b0	-0.026570171
21	0xbdc97b56	-0.098379776
22	0x3e96e9a1	0.2947512
23	0xbe03f742	-0.1288729
24	0x3d3a0504	0.04541494
25	0xbd8b2086	-0.06793313
26	0x38d0ac9e	9.950365e-05
27	0xbb33c87e	-0.0027432735
28	0xbd73a6d3	-0.059485268
29	0xbe888aeb	-0.26668486
30	0xbe025494	-0.12727576
31	0xbbd97547	-0.006636295
32	0x3ef1a06c	0.47192705
33	0x3e5aef07	0.21380244
34	0x3edfa781	0.43682483
35	0x3e1faedd	0.15594049
36	0xb9a7404c	-0.00031900627
37	0x3c1f9a74	0.009741414
38	0x3d36dc30	0.04464358
39	0x3db4fff7	0.08837884
40	0x3e0a3d06	0.13499841
41	0xbe71e21f	-0.23621415
42	0xbd5b1288	-0.05348447
43	0xbec10d66	-0.37705535
44	0xb9c99685	-0.00038449853
45	0x3e325be3	0.17417865
46	0xbd1c687f	-0.038185593
47	0xbeaea6ce	-0.34111637
48	0xbee009e4	-0.43757546
49	0xbf775a19	-0.96621853
50	0xbd3f5465	-0.046711344
51	0x3a2b944e	0.00065452314
52	0xbe901119	-0.28138044
53	0xb98a49cd	-0.00026376397
54	0x3e8e217b	0.2775992
55	0xbd8d7086	-0.06906228
56	0xbc855185	-0.016274223
57	0x3bc2f3a6	0.0059494553
58	0x3e16a6e6	0.14712104
59	0x3e33d44c	0.17561454
60	0x3d0d2750	0.03446132
61	0xbe11a020	-0.14221239
62	0xb9817299	-0.0002469018
63	0x39767239	0.0002350294

exp_avg f4 [64, 2]
0	0xb93c6f12	-0.00017970454
1	0xb8a5cf22	-7.9063946e-05
2	0x381ec2b4	3.7851467e-05
3	0x37e64c3d	2.7453638e-05
4	0x37c1094b	2.301172e-05
5	0x39292bb2	0.00016133374
6	0xb83452eb	-4.2992568e-05
7	0xb89e72f7	-7.555441e-05
8	0x392cb49f	0.00016470485
9	0xb9820a49	-0.00024803195
10	0xb9411921	-0.00018415276
11	0x390e69ff	0.00013581662
12	0x37a04c12	1.910891e-05
13	0xb92534a0	-0.0001575523
14	0xb7224e5b	-9.674196e-06
15	0x389df630	7.5321994e-05
16	0xb92dcb96	-0.00016574407
17	0x39095f50	0.00013100845
18	0x383f71e8	4.5644032e-05
19	0xb93c05f8	-0.000179313
20	0x385d57f3	5.2772415e-05
21	0x3902eef4	0.00012486783
22	0xb7b19b31	-2.117231e-05
23	0xb8c93158	-9.593618e-05
24	0x38bbe6f5	8.959874e-05
25	0xb96362e4	-0.00021685247
26	0xb926701d	-0.00015872759
27	0x3943786b	0.00018641508
28	0x3956fe83	0.00020503443
29	0xb8d410f8	-0.000101121084
30	0xb894224e	-7.06358e-05
31	0x3926b452	0.00015898168
32	0xb90db9e6	-0.0001351606
33	0x3825a13e	3.9489234e-05
34	0x38407943	4.58893e-05
35	0xb85d00fc	-5.2691423e-05
36	0x393edf32	0.00018202959
37	0xb8c99596	-9.6122894e-05
38	0x392a71ce	0.00016254859
39	0xb7f9ced4	-2.9779425e-05
40	0xb801068f	-3.0762105e-05
41	0x392a95dc	0.0001626829
42	0x38dc8a8a	0.000105162224
43	0x3763dacb	1.3581196e-05
44	0x38c17c27	9.226082e-05
45	0x388b19da	6.632852e-05
46	0x38a2703b	7.7456665e-05
47	0xb99dad9b	-0.0003007472
48	0xb72d84f9	-1.0342564e-05
49	0xb8aa0bfe	-8.1084654e-05
50	0x38bba94a	8.9483874e-05
51	0xb99ee989	-0.00030310106
52	0xb85ade8b	-5.218251e-05
53	0xb7bbdc17	-2.2394624e-05
54	0xb88655f4	-6.405628e-05
55	0x38e9a450	0.000111409114
56	0xb92435d1	-0.00015660307
57	0x39637d70	0.00021695136
58	0xb7ef3c88	-2.8519207e-05
59	0x386149ed	5.371303e-05
60	0xb80e18f5	-3.387868e-05
61	0xb7943002	-1.766533e-05
62	0x38d5549b	0.000101723905
63	0xb8065f92	-3.2037096e-05
64	0x366e004d	3.5464939e-06
65	0x3851b3d5	4.9996965e-05
66	0xb843f175	-4.6716497e-05
67	0x38e597b0	0.00010947825
68	0x3884ef7d	6.338859e-05
69	0xb6ad0396	-5.1562192e-06
70	0x38dd6608	0.00010557106
71	0x364379d7	2.9128184e-06
72	0x38adb77f	8.283462e-05
73	0xb83bfa0f	-4.481716e-05
74	0x38999054	7.322492e-05
75	0x39170503	0.00014402349
76	0xb919bc5b	-0.00014661385
77	0x39ab1ae5	0.000326357
78	0x36e14276	6.7132596e-06
79	0xb8b50b79	-8.6328895e-05
80	0xb83feef3	-4.5760487e-05
81	0xb8b85cef	-8.791114e-05
82	0x391ceab6	0.00014964756
83	0xb918c352	-0.00014568612
84	0xb69a650b	-4.6013206e-06
85	0xb82c8215	-4.1129144e-05
86	0xb9546c64	-0.00020258274
87	0x38cf7e1c	9.894019e-05
88	0x38573c66	5.1316245e-05
89	0xb7f7d4bf	-2.9543762e-05
90	0xb9574c58	-0.00020532438
91	0x38b08a22	8.418063e-05
92	0xb81022fb	-3.4364853e-05
93	0x3910e6b8	0.0001381886
94	0x3777b778	1.4765064e-05
95	0x390c0fff	0.000133574
96	0x37f1bfb9	2.8818717e-05
97	0xb826916a	-3.971291e-05
98	0x39146b37	0.0001415432
99	0xb51adfdd	-5.7695235e-07
100	0xb937a4c1	-0.00017513616
101	0x3932a04b	0.00017035117
102	0x392303b6	0.00015546274
103	0xb8f2c44f	-0.000115760246
104	0x38d8b896	0.000103340644
105	0xb8ddbc37	-0.00010573159
106	0x38d18e16	9.992362e-05
107	0xb8831c53	-6.2518426e-05
108	0x383e564c	4.53799e-05
109	0x394a3e1b	0.00019287357
110	0xb8913d68	-6.9255766e-05
111	0x37a43479	1.9574758e-05
112	0x3888ef99	6.529614e-05
113	0xb7d7203b	-2.5645006e-05
114	0xb92e0fa6	-0.00016599763
115	0xb863a048	-5.427029e-05
116	0x389d2c55	7.494601e-05
117	0xb7b8e708	-2.2042092e-05
118	0x38d009ca	9.920036e-05
119	0xb8b2f419	-8.533168e-05
120	0x3904e24c	0.00012672803
121	0x38275ae8	3.9900566e-05
122	0xb6b8dbda	-5.5092214e-06
123	0xb8907203	-6.8876914e-05
124	0x38ef1d9d	0.00011401924
125	0x386c29e7	5.630581e-05
126	0x3792d08d	1.750167e-05
127	0xb92ca2bb	-0.0001646382

exp_avg_sq f4 [64, 2]
0	0x37221055	9.659755e-06
1	0x3906108b	0.00012785399
2	0x351dbf3c	5.876534e-07
3	0x3824b63c	3.9270366e-05
4	0x34fcdbb0	4.7098501e-07
5	0x38730710	5.7942292e-05
6	0x35045f67	4.931266e-07
7	0x35a9a19d	1.2638517e-06
8	0x3707ff39	8.106051e-06
9	0x397f71a8	0.00024361035
10	0x371a853c	9.210136e-06
11	0x3964381e	0.0002176468
12	0x354458b7	7.3144787e-07
13	0x36af968e	5.2329333e-06
14	0x35158343	5.5697836e-07
15	0x35ad3c83	1.2907116e-06
16	0x36ffb236	7.6203387e-06
17	0x39f6ece6	0.0004709728
18	0x351b91a9	5.7953963e-07
19	0x393b4178	0.00017858099
20	0x35372c9b	6.823772e-07
21	0x38894558	6.545585e-05
22	0x3499dc08	2.8658565e-07
23	0x3842c0a1	4.6432604e-05
24	0x3673fa89	3.6355652e-06
25	0x3885ecba	6.386028e-05
26	0x36efec64	7.1502745e-06
27	0x390314d3	0.00012500891
28	0x3733793f	1.0697461e-05
29	0x393b20de	0.00017845954
30	0x3594e7f9	1.1094372e-06
31	0x39ae3da3	0.0003323379
32	0x36c61117	5.9028494e-06
33	0x38af0829	8.34617e-05
34	0x35106bda	5.3801125e-07
35	0x389e9b21	7.562922e-05
36	0x371db39e	9.39975e-06
37	0x39ec030f	0.00045015707
38	0x370897d3	8.141581e-06
39	0x395ae0e6	0.00020873881
40	0x34db635f	4.086423e-07
41	0x399111ef	0.00027669917
42	0x367128cf	3.5935552e-06
43	0x388e56c2	6.7872475e-05
44	0x36212f81	2.401852e-06
45	0x38d971fb	0.00010368597
46	0x35c55e94	1.470517e-06
47	0x39b04253	0.0003361875
48	0x349dc531	2.9387004e-07
49	0x35e23897	1.6854782e-06
50	0x36260091	2.4736257e-06
51	0x391833d1	0.00014515153
52	0x3594840c	1.106529e-06
53	0x37a58274	1.973028e-05
54	0x357206b3	9.0161774e-07
55	0x3672466e	3.6101806e-06
56	0x36f623af	7.3355254e-06
57	0x38ed6740	0.000113202725
58	0x348858b6	2.539652e-07
59	0x3902dc39	0.00012479805
60	0x353ea611	7.1022174e-07
61	0x36e21ee2	6.73892e-06
62	0x3642d2d2	2.9030966e-06
63	0x399425da	0.0002825696
64	0x34af4b2f	3.2650993e-07
65	0x3508aa08	5.0911376e-07
66	0x35079122	5.0502615e-07
67	0x38473a0c	4.7499358e-05
68	0x359d75a7	1.1731653e-06
69	0x36ab4448	5.104146e-06
70	0x368d3d97	4.2092975e-06
71	0x37c9aefd	2.4042552e-05
72	0x362663f2	2.4794103e-06
73	0x388f902c	6.8456255e-05
74	0x35de93fd	1.6583359e-06
75	0x37adf525	2.0737361e-05
76	0x36c3592e	5.8218347e-06
77	0x39c3cb1f	0.00037344635
78	0x343a4577	1.7347871e-07
79	0x37213511	9.608703e-06
80	0x355bc0af	8.186425e-07
81	0x35d2f4e8	1.5717496e-06
82	0x36c733ec	5.9367067e-06
83	0x39658ccd	0.00021891594
84	0x32db28ba	2.5513476e-08
85	0x37cd3513	2.4462619e-05
86	0x373256c6	1.062983e-05
87	0x394257eb	0.00018534034
88	0x3518ae5a	5.687813e-07
89	0x396fe3ad	0.00022877632
90	0x374b2394	1.2108027e-05
91	0x38c53819	9.404141e-05
92	0x358ff06b	1.0724301e-06
93	0x37bf854a	2.2831042e-05
94	0x34034e64	1.2228844e-07
95	0x375d15f5	1.3177739e-05
96	0x35141f35	5.517971e-07
97	0x360a96b1	2.0651316e-06
98	0x36c47149	5.8544433e-06
99	0x3928d0c0	0.00016099494
100	0x3713a6d1	8.800723e-06
101	0x3981e856	0.000247779
102	0x36fe08be	7.5708076e-06
103	0x38490d3f	4.793447e-05
104	0x365fef28	3.3368797e-06
105	0x3999fb3d	0.0002936962
106	0x363e40bc	2.8349887e-06
107	0x38d9a47c	0.00010378004
108	0x3556b8fe	7.999041e-07
109	0x389683a1	7.177075e-05
110	0x356a2ccc	8.723698e-07
111	0x368ff004	4.2896736e-06
112	0x358efff7	1.065432e-06
113	0x37e322c7	2.7076703e-05
114	0x371b1e2d	9.245746e-06
115	0x386f5f56	5.707083e-05
116	0x35f45ebd	1.8206989e-06
117	0x35f4c418	1.8236487e-06
118	0x363239a0	2.655761e-06
119	0x3943c485	0.00018669858
120	0x36b14938	5.283535e-06
121	0x376a8fd8	1.3980978e-05
122	0x33c1d0d2	9.025247e-08
123	0x3698b5cd	4.5511174e-06
124	0x3674bd76	3.6469114e-06
125	0x3901b030	0.00012368034
126	0x34d7c601	4.0190938e-07
127	0x37a6b58a	1.9873278e-05

exp_avg f4 [64]
0	0xb98c4fb2	-0.00026762258
1	0x37b00350	2.0982377e-05
2	0x398acfbc	0.00026476185
3	0xb9385c67	-0.0001758203
4	0xb96b9afe	-0.00022469086
5	0x38bbbafe	8.951685e-05
6	0xb9585101	-0.00020629542
7	0x39095fa7	0.00013100971
8	0xb70f92f9	-8.557684e-06
9	0xb92e085e	-0.0001659705
10	0x39792169	0.00023758937
11	0xb8fb17ea	-0.00011973067
12	0xb98e1d23	-0.0002710606
13	0x391f1b4e	0.00015173593
14	0xb5cf258e	-1.5433632e-06
15	0x37502970	1.2407414e-05
16	0x3875c278	5.8593665e-05
17	0xb73b42d4	-1.1161628e-05
18	0x39501b0e	0.00019846504
19	0x388ebd8f	6.806396e-05
20	0x38d63657	0.00010214437
21	0x37a2f6bd	1.9426801e-05
22	0x39305e5d	0.00016819821
23	0xb93438c0	-0.00017187279
24	0xb7a6e2a9	-1.9894289e-05
25	0xb98c2bde	-0.00026735564
26	0xb8b295a1	-8.515572e-05
27	0x38d73243	0.00010261361
28	0x3981f5e8	0.00024788012
29	0x372c5dc7	1.0273833e-05
30	0x3707c309	8.092037e-06
31	0x38985370	7.263466e-05
32	0x38e92742	0.00011117618
33	0x38b8c2ad	8.810065e-05
34	0x36ccd37e	6.1042947e-06
35	0xb86b595c	-5.611159e-05
36	0x37f25080	2.8886134e-05
37	0x396fc88e	0.00022867529
38	0x399b293a	0.0002959462
39	0xb93eb70b	-0.00018188001
40	0xb944fe45	-0.0001878674
41	0xb84d44f9	-4.8940045e-05
42	0xb8cba979	-9.711361e-05
43	0xb7ab1d4e	-2.0398435e-05
44	0x38884b63	6.499027e-05
45	0xb632e023	-2.6654532e-06
46	0x396ea281	0.00022757986
47	0x390125ec	0.00012316526
48	0xb7e5237d	-2.7315453e-05
49	0x38e2f7f5	0.000108227054
50	0x38c9a504	9.6151634e-05
51	0x3802cda5	3.1185937e-05
52	0xb835a732	-4.3309476e-05
53	0x37ee7861	2.8427867e-05
54	0x3991df2e	0.00027822837
55	0x3839f549	4.4335877e-05
56	0x389a6baa	7.363346e-05
57	0xb93248d5	-0.00017002535
58	0x388af818	6.626564e-05
59	0x3887948b	6.46497e-05
60	0x38ad277a	8.256636e-05
61	0xb910be33	-0.00013803765
62	0x39197bf5	0.00014637395
63	0xb94b8ad1	-0.00019411302

exp_avg_sq f4 [64]
0	0x378b664a	1.6617723e-05
1	0x36c57103	5.884214e-06
2	0x3777f261	1.47787805e-05
3	0x36a595f4	4.93484e-06
4	0x373cfdb3	1.1264742e-05
5	0x36297b35	2.5254678e-06
6	0x378d80b9	1.6868451e-05
7	0x377c969c	1.5055437e-05
8	0x375bd421	1.3102807e-05
9	0x36beb0f9	5.6830436e-06
10	0x37b4b8f1	2.1543792e-05
11	0x361cd7ec	2.3371495e-06
12	0x379c5a73	1.8638768e-05
13	0x37288cbf	1.004635e-05
14	0x36dbf563	6.5552754e-06
15	0x36807632	3.828457e-06
16	0x355043b1	7.758454e-07
17	0x355822d2	8.051694e-07
18	0x371fe62a	9.530728e-06
19	0x35f3840b	1.814334e-06
20	0x365788b0	3.211706e-06
21	0x354b582d	7.5751706e-07
22	0x36e94be9	6.952778e-06
23	0x375c65ea	1.3136751e-05
24	0x36440886	2.9211237e-06
25	0x38595b7a	5.1822026e-05
26	0x36d88ad8	6.453465e-06
27	0x36aadd66	5.092169e-06
28	0x37a64d9b	1.982488e-05
29	0x37c1daa1	2.31092e-05
30	0x37bea4b7	2.2726466e-05
31	0x37b0d01a	2.107774e-05
32	0x375801bf	1.287501e-05
33	0x36e81b99	6.9173516e-06
34	0x3448522d	1.8656347e-07
35	0x361e3676	2.3575535e-06
36	0x3586d20d	1.0044911e-06
37	0x3808d759	3.2625485e-05
38	0x379df121	1.8828143e-05
39	0x36b7c4fe	5.476758e-06
40	0x36c8eb26	5.9878394e-06
41	0x3703d73b	7.858321e-06
42	0x36d7be64	6.4296637e-06
43	0x350dcefc	5.2827795e-07
44	0x36d996a7	6.484642e-06
45	0x37b32ee2	2.1360294e-05
46	0x371a9beb	9.215418e-06
47	0x3694ec49	4.438251e-06
48	0x360f0d07	2.1316243e-06
49	0x37b4c2ed	2.1548442e-05
50	0x366e05f9	3.546824e-06
51	0x37a944ff	2.0178499e-05
52	0x35dbeebb	1.6386251e-06
53	0x35ba673f	1.3888128e-06
54	0x37f001ab	2.8611006e-05
55	0x35b2b348	1.3314211e-06
56	0x35acd616	1.2877306e-06
57	0x373324e6	1.06778225e-05
58	0x3701157f	7.694004e-06
59	0x3665147e	3.4135587e-06
60	0x368faf85	4.2821653e-06
61	0x37f67207	2.9378583e-05
62	0x37008fc7	7.66287e-06
63	0x37c99aab	2.403309e-05

exp_avg f4 [64, 64]
0	0xb5d90f61	-1.6172236e-06
1	0x371b09b9	9.240984e-06
2	0xb7134a27	-8.779148e-06
3	0x378583f5	1.5916283e-05
4	0x36150284	2.2204194e-06
5	0x36b4cb95	5.388118e-06
6	0x37958f09	1.782879e-05
7	0xb6831404	-3.9064344e-06
8	0x34e4a95f	4.2591543e-07
9	0xb60f763d	-2.1377484e-06
10	0xb6bcd6a2	-5.627823e-06
11	0x37d86798	2.5797446e-05
12	0x36cc4cdc	6.0886214e-06
13	0xb6828544	-3.889816e-06
14	0xb7272004	-9.96143e-06
15	0x3728e7c4	1.00675425e-05
16	0xb6dc7d40	-6.571092e-06
17	0xb648d1f0	-2.9924522e-06
18	0xb5e7c435	-1.7267945e-06
19	0xb6dc6671	-6.5684367e-06
20	0x363388fc	2.6752814e-06
21	0x370a65fb	8.249185e-06
22	0x365a794d	3.2555138e-06
23	0xb6d1f292	-6.2569243e-06
24	0xb7e00564	-2.6705391e-05
25	0xb6ec0c83	-7.0348046e-06
26	0x37963c0e	1.7909359e-05
27	0x37d11374	2.49238e-05
28	0x36cd096c	6.110573e-06
29	0xb69c2dc7	-4.6544915e-06
30	0xb7b7881d	-2.1878683e-05
31	0xb6ce5e2c	-6.1502415e-06
32	0xb80746e5	-3.2252534e-05
33	0x3806f119	3.217263e-05
34	0xb7bbb953	-2.2378435e-05
35	0x375b12c8	1.305779e-05
36	0x37557d1e	1.272492e-05
37	0x36e1065b	6.7062624e-06
38	0x361bbebf	2.3207829e-06
39	0x37670111	1.3768921e-05
40	0x3831d298	4.239622e-05
41	0xb687c5ee	-4.0463556e-06
42	0x3752c52f	1.2562886e-05
43	0x36a5a744	4.9368555e-06
44	0xb6d1b2fb	-6.2495214e-06
45	0x3625413d	2.462489e-06
46	0xb7233d68	-9.729854e-06
47	0xb7729eea	-1.4461324e-05
48	0x37362670	1.0856995e-05
49	0x35b2d0c7	1.3322796e-06
50	0x370ff3ac	8.5801985e-06
51	0x36e97a6d	6.9581934e-06
52	0xb5f6feb9	-1.8402562e-06
53	0x36bb2679	5.577513e-06
54	0x375deec4	1.3228218e-05
55	0x37ba077b	2.2176411e-05
56	0xb7b5eae1	-2.1686255e-05
57	0xb648dc72	-2.9930638e-06
58	0xb7d2594b	-2.5075531e-05
59	0xb5630d0b	-8.458307e-07
60	0x36edff2d	7.092857e-06
61	0x371f7c3f	9.506067e-06
62	0xb6cfe637	-6.1958813e-06
63	0x370049ad	7.6465485e-06
64	0xb71e2a69	-9.427408e-06
65	0x37769da4	1.4699446e-05
66	0xb71fd9d6	-9.527857e-06
67	0x34c92e0e	3.7472677e-07
68	0x37a3e3f9	1.9537272e-05
69	0xb7c705ee	-2.372541e-05
70	0x360178b0	1.9292747e-06
71	0xb5d56f12	-1.5902062e-06
72	0xb7b108a5	-2.110407e-05
73	0x37ff1efb	3.0412795e-05
74	0x37d9d062	2.5965452e-05
75	0x3791ebdc	1.7395178e-05
76	0x370ae603	8.278995e-06
77	0xb7d5c571	-2.548352e-05
78	0x37c8ce14	2.393782e-05
79	0xb8274485	-3.9879716e-05
80	0xb766c04f	-1.3753844e-05
81	0x3715751f	8.908361e-06
82	0x379614a4	1.7891005e-05
83	0x377c84a4	1.5051253e-05
84	0xb817d215	-3.619686e-05
85	0x37646a23	1.3614571e-05
86	0x37dc9193	2.6293832e-05
87	0x38321439	4.245734e-05
88	0xb70a6237	-8.248308e-06
89	0x37b0de55	2.1084366e-05
90	0xb6f6f5f8	-7.360006e-06
91	0x35de4f4f	1.6563371e-06
92	0xb77ceabc	-1.5075024e-05
93	0xb7aaaac9	-2.0345107e-05
94	0xb78ead8e	-1.7008537e-05
95	0x37efc24b	2.8581495e-05
96	0x36e3c67c	6.788234e-06
97	0xb813fd64	-3.528352e-05
98	0x3663ceaf	3.3945942e-06
99	0x36cd1645	6.1120686e-06
100	0x37a7ec21	2.0017907e-05
101	0x3756052a	1.2756596e-05
102	0xb7ad9960	-2.0694628e-05
103	0x371b0e68	9.242074e-06
104	0x362dcd7c	2.5898617e-06
105	0x37874b05	1.6128188e-05
106	0xb79e4283	-1.886604e-05
107	0xb788d90a	-1.631353e-05
108	0x380f7fbd	3.4212822e-05
109	0xb7878419	-1.6154767e-05
110	0xb7353db7	-1.080281e-05
111	0xb717dda4	-9.051906e-06
112	0x36b72e4d	5.459215e-06
113	0x37dbf18f	2.6219319e-05
114	0xb7be4fab	-2.2686863e-05
115	0x37497bab	1.2009327e-05
116	0x38022c41	3.103563e-05
117	0x37a9e2b4	2.0251937e-05
118	0x37ac20ee	2.0519332e-05
119	0xb673542c	-3.6258816e-06
120	0x37e7ae3a	2.7618476e-05
121	0xb722f55b	-9.713079e-06
122	0x36e41a1d	6.7979695e-06
123	0x37ca348b	2.4104744e-05
124	0x3728d279	1.0062585e-05
125	0x35bd582c	1.4107259e-06
126	0x37b148ff	2.1134036e-05
127	0xb4ea7e72	-4.3677898e-07
128	0x372e72ce	1.0397938e-05
129	0xb78b8692	-1.6632755e-05
130	0x374fe304	1.2391018e-05
131	0xb6c6c092	-5.923278e-06
132	0xb7a1b15d	-1.9275287e-05
133	0x37a0f5d0	1.9187952e-05
134	0xb6957c1a	-4.4549934e-06
135	0x365abf33	3.2595824e-06
136	0x37b0f879	2.1096539e-05
137	0xb7e986b2	-2.7838487e-05
138	0xb802616a	-3.108514e-05
139	0xb7e2d114	-2.7038659e-05
140	0xb71ce3ec	-9.351392e-06
141	0x37c9bfdf	2.4050414e-05
142	0xb7a29c75	-1.938476e-05
143	0x38188195	3.6360307e-05
144	0x378dac1d	1.6888656e-05
145	0xb718974d	-9.0951335e-06
146	0xb7911146	-1.729339e-05
147	0xb74cc5e9	-1.2205427e-05
148	0x3814eb91	3.5505338e-05
149	0xb787e61e	-1.620041e-05
150	0xb7f5f661	-2.9321005e-05
151	0xb8238e4c	-3.8994753e-05
152	0x378c75a1	1.6744076e-05
153	0xb7642c41	-1.3600163e-05
154	0x35ba0943	1.3860775e-06
155	0xb71fa061	-9.51448e-06
156	0x372a4c6f	1.0150586e-05
157	0x37c8e156	2.3946788e-05
158	0x37d75ddf	2.567371e-05
159	0xb7e82789	-2.7674965e-05
160	0x365e1512	3.3092842e-06
161	0x37b422ee	2.1473938e-05
162	0x366587bf	3.4202674e-06
163	0xb7374873	-1.0924518e-05
164	0xb7c1bf5e	-2.3096505e-05
165	0xb79528cc	-1.7781182e-05
166	0x37a1d44c	1.9291554e-05
167	0xb758e74d	-1.2928457e-05
168	0xb7a3c32c	-1.9521998e-05
169	0xb7742a97	-1.455345e-05
170	0x37914ca0	1.7321028e-05
171	0x3763efb6	1.3586066e-05
172	0xb8157431	-3.563258e-05
173	0x376e8f47	1.4219265e-05
174	0x3763faf3	1.3588683e-05
175	0x37396cbe	1.1052178e-05
176	0xb71ca715	-9.337226e-06
177	0xb7e94fea	-2.7812977e-05
178	0x37912d6f	1.7306504e-05
179	0xb73f9869	-1.1419973e-05
180	0xb80aba00	-3.307499e-05
181	0xb7c9ed79	-2.4071649e-05
182	0xb7e0f376	-2.6816251e-05
183	0xb5cb5d9e	-1.5151925e-06
184	0xb79559c1	-1.7803979e-05
185	0x3740562b	1.1464154e-05
186	0x367c8804	3.7630098e-06
187	0xb7cef12d	-2.466942e-05
188	0xb753370e	-1.25893985e-05
189	0xb66425e5	-3.3996705e-06
190	0xb7beca80	-2.2744061e-05
191	0x36a36d0d	4.8704737e-06
192	0x3651b678	3.1249638e-06
193	0xb7cad3b9	-2.4178868e-05
194	0x37bf3efb	2.2798302e-05
195	0xb8347592	-4.302484e-05
196	0xb69aa35a	-4.6085743e-06
197	0xb7795419	-1.4861137e-05
198	0xb853a543	-5.0460232e-05
199	0x3729eafc	1.01278965e-05
200	0xb664c2f3	-3.4088123e-06
201	0x36fe6f25	7.582729e-06
202	0x37b58a20	2.16412e-05
203	0xb88eaee6	-6.803665e-05
204	0xb787dee2	-1.6197042e-05
205	0x3721ac5f	9.636481e-06
206	0x37ef4873	2.8524757e-05
207	0xb80291e8	-3.11303e-05
208	0x37843ec4	1.5764854e-05
209	0x372449b5	9.792323e-06
210	0x36d9e5f5	6.4938745e-06
211	0x379e6309	1.8881185e-05
212	0xb7390612	-1.1028273e-05
213	0xb7b04668	-2.101362e-05
214	0xb6a9414e	-5.044195e-06
215	0x37a8cea6	2.0123389e-05
216	0x38983475	7.257696e-05
217	0x3785d6d8	1.595488e-05
218	0xb84ff2a3	-4.957862e-05
219	0xb88f8cbc	-6.844985e-05
220	0xb785ba4d	-1.5941589e-05
221	0x371c11d0	9.302472e-06
222	0x386f0b83	5.699276e-05
223	0x37aa4d55	2.030159e-05
224	0x38bf3736	9.1178736e-05
225	0xb8bbb5ef	-8.9507426e-05
226	0x38821fef	6.204831e-05
227	0xb8108c89	-3.446316e-05
228	0xb80a90b4	-3.303653e-05
229	0xb77df43d	-1.5136841e-05
230	0xb706590e	-8.007757e-06
231	0xb81acfe7	-3.6910085e-05
232	0xb8fac2aa	-0.00011957188
233	0x37514190	1.2472636e-05
234	0xb81ec775	-3.7855894e-05
235	0xb76fb1db	-1.428692e-05
236	0x37bb3c03	2.2320082e-05
237	0xb6feaf19	-7.590174e-06
238	0x37d5b262	2.5474645e-05
239	0x3827ca09	4.0004063e-05
240	0xb7f07126	-2.8662918e-05
241	0xb487681b	-2.5221456e-07
242	0xb7c53e20	-2.351316e-05
243	0xb7a2e071	-1.9416419e-05
244	0x37212450	9.6048025e-06
245	0xb7473dbf	-1.1875701e-05
246	0xb8091269	-3.268049e-05
247	0xb8834b4b	-6.260591e-05
248	0x387874db	5.9236638e-05
249	0x36dddabf	6.6117786e-06
250	0x388e1c28	6.776332e-05
251	0x36b0dd6d	5.270986e-06
252	0xb7975ec1	-1.8044726e-05
253	0xb7dd144d	-2.6354706e-05
254	0x37b1a1ff	2.117548e-05
255	0xb7d3b755	-2.523853e-05
