runs/Burgers2D_Fourier_TimeSpace/0-0/25000.pt (torch, 702735 bytes, 30 tensors)

spatial_net.0.weight f4 [128, 2]
0	0xbcc45721	-0.023967328
1	0xbd960a00	-0.07326126
2	0x3f09ddc1	0.53853995
3	0xbe58680a	-0.21133438
4	0x3e63e43b	0.22255032
5	0x3e9d57f9	0.3073118
6	0x3ee247a0	0.4419527
7	0xbf0610eb	-0.52369565
8	0x3ebd595c	0.36982238
9	0xbe73a861	-0.237947
10	0x3ebb842c	0.36624277
11	0xbef35df1	-0.4753261
12	0x3eaa181d	0.33221522
13	0xbe6fe633	-0.23427658
14	0x3e184fd5	0.14874204
15	0xbed7f8e5	-0.4218208
16	0xbf3430b3	-0.7038681
17	0x3f21ff8e	0.6328057
18	0x3f16623f	0.5874366
19	0xbf2154c3	-0.6301996
20	0x3e476456	0.19471869
21	0x3e171412	0.1475375
22	0xbf02541f	-0.5090961
23	0x3ebb2fcf	0.36559913
24	0x3bc92762	0.006138728
25	0xbf17e622	-0.5933553
26	0xbef67c38	-0.48141646
27	0x3ec70ba9	0.38876083
28	0x3d81ffd5	0.06347624
29	0xbf0a76c7	-0.5408749
30	0x3daaefcb	0.08346518
31	0xbf0ccffd	-0.55004865
32	0x3eceff8e	0.40429348
33	0xbef5b9cb	-0.4799331
34	0x3e72ff46	0.23730192
35	0xbdbf545a	-0.09342261
36	0xbdb68e19	-0.08913822
37	0xbdb91826	-0.09037809
38	0xbe5ea3c1	-0.21742155
39	0x3eb8d949	0.36103275
40	0x3e42cf17	0.19024311
41	0xbe3ccfb5	-0.18438609
42	0xbea83803	-0.32855234
43	0xbe831ad7	-0.25606415
44	0xbe82f013	-0.25573787
45	0xbe0090cc	-0.12555236
46	0x3eac0cb8	0.33603454
47	0xbf025cd2	-0.5092288
48	0x3d2b92e6	0.04188814
49	0xbea69010	-0.32531786
50	0xbe7e3056	-0.24823126
51	0x3e6b43ff	0.22975157
52	0x3f073f3c	0.52830863
53	0x3e098e42	0.13433173
54	0xbec5c05f	-0.3862333
55	0x3eb1b3f2	0.347076
56	0x3ee3aafb	0.44466385
57	0x3ecd648a	0.40115768
58	0x3e9eb135	0.30994573
59	0x3deca6eb	0.115552746
60	0xbe945525	-0.2897121
61	0x3eda48c3	0.42633638
62	0xbedfe313	-0.4372793
63	0xbf004059	-0.50098187
64	0xbe79431a	-0.24342003
65	0xbeebb206	-0.4603426
66	0xbe7cd358	-0.24689996
67	0xbed1d5e4	-0.40983498
68	0xbedb3f54	-0.42821753
69	0x3f14faf8	0.5819545
70	0x3e985bce	0.2975754
71	0x3ea9ce7f	0.33165357
72	0xbe9986a4	-0.29985535
73	0x3cfd3587	0.030909313
74	0xbddf0522	-0.10889651
75	0x3eaabd77	0.33347675
76	0x3e602117	0.21887623
77	0xbe4351f0	-0.19074225
78	0xbda6c47c	-0.08142945
79	0x3e9a1008	0.30090356
80	0xbe78ceba	-0.2429761
81	0x3f019be4	0.50628495
82	0x3ef7851e	0.48343748
83	0x3e7768f9	0.24161138
84	0xbf086e8f	-0.532937
85	0x3e9886d2	0.2979036
86	0x3f007ee5	0.50193626
87	0xbf008d8b	-0.5021598
88	0xbf200068	-0.6250062
89	0x3f029f8a	0.5102469
90	0xbf36b688	-0.7137227
91	0x3f242e73	0.64133376
92	0x3ee0505f	0.43811318
93	0xbebb2aad	-0.36555997
94	0xbdb2a149	-0.08722169
95	0x3c24d4ef	0.010060533
96	0xbe5c014f	-0.21484874
97	0x3e82880d	0.25494424
98	0x3ecbe928	0.39826322
99	0xbf041cb9	-0.5160633
100	0x3e3f03a2	0.1865373
101	0x3deec9fa	0.11659618
102	0xbe76ea7a	-0.24112883
103	0x3e91cd45	0.2847692
104	0xbdbf8d59	-0.09353132
105	0xbdd72780	-0.10505581
106	0xbd9f6946	-0.07783751
107	0xbeedb268	-0.46425176
108	0xbf0c1c21	-0.5473042
109	0x3f07e1f3	0.53079146
110	0x3e5d4d38	0.21611488
111	0x3e086119	0.1331829
112	0xbc511bd9	-0.012762987
113	0xbd547fe3	-0.051879775
114	0xbdc7d7ac	-0.09757933
115	0x3ede2475	0.4338719
116	0x3e25d737	0.16195379
117	0xbe3de44a	-0.18544117
118	0xbf2214a6	-0.63312757
119	0x3ebd6fce	0.36999363
120	0xbef89466	-0.4855072
121	0x3e9fea79	0.31233576
122	0x3f338486	0.7012409
123	0xbf05ea2e	-0.52310455
124	0x3e834ebc	0.25646007
125	0xbd8f9e46	-0.0701261
126	0xbe714cba	-0.23564425
127	0xbe01b0bc	-0.12665075
128	0xbf3882db	-0.7207467
129	0x3e7927fc	0.24331659
130	0x3eb8a70f	0.36064956
131	0xbf1bc692	-0.6084987
132	0x3e86e546	0.26346797
133	0xbea69729	-0.325372
134	0xbf1428aa	-0.5787455
135	0x3b5c35a7	0.0033601315
136	0x3eab1a09	0.334183
137	0x3f0bce12	0.54611313
138	0xbe8322a2	-0.2561236
139	0xbe82c182	-0.2553826
140	0xbe87472f	-0.26421496
141	0x3ed66aa8	0.41878247
142	0xbe82d5c8	-0.25553727
143	0x3e87fd9b	0.26560673
144	0xbe07f4be	-0.13276955
145	0x3e967280	0.29384232
146	0xbcd6d2c9	-0.026223557
147	0xbe606167	-0.21912156
148	0x3eb9cec8	0.36290574
149	0x3d82683d	0.06367538
150	0x3ea64d75	0.3248097
151	0xbe09e0bd	-0.13464637
152	0xbf0ab311	-0.54179484
153	0x3ed0287e	0.40655893
154	0x3ecff737	0.40618297
155	0xbeeb4583	-0.4595147
156	0x3de70e34	0.11282006
157	0x3ef72b40	0.48275185
158	0xbe648c91	-0.22319247
159	0x3ebf9351	0.3741708
160	0xbd101e3e	-0.03518509
161	0xbe45e92f	-0.19327234
162	0xbeb7c207	-0.3589022
163	0x3f15327f	0.58280176
164	0x3e9cf1d1	0.3065324
165	0xbf1a19a5	-0.6019538
166	0x3ef67313	0.4813467
167	0xbf028305	-0.5098117
168	0x3f03b5c9	0.5144926
169	0x3eae2ac8	0.34017015
170	0x3eb39570	0.3507495
171	0x3d8bc33e	0.06824349
172	0x3eeb36d4	0.45940268
173	0xbf27e475	-0.6558297
174	0x3d015c1c	0.031581983
175	0x3cd4f3fb	0.025995245
176	0x3f0fe6ed	0.5621174
177	0xbc99e59b	-0.018786242
178	0x3df5c228	0.11999923
179	0x3eb014a3	0.34390745
180	0x3eecd813	0.46258602
181	0x3cd16373	0.025560116
182	0x3e81bc29	0.25338867
183	0x3f0c8917	0.5489668
184	0xbdf7c610	-0.12098324
185	0x3afedce4	0.0019444493
186	0x3f1dcd0b	0.61640996
187	0xbf0515d5	-0.5198644
188	0x3eecd4fd	0.46256247
189	0xbeeaa042	-0.45825392
190	0x3e93bb5f	0.2885389
191	0xbeab08fc	-0.33405292
192	0xbd8d7a90	-0.069081426
193	0xbdf495c0	-0.11942625
194	0x3f0a73a1	0.54082686
195	0xbf005f9d	-0.50145894
196	0x3e963268	0.29335332
197	0x3ee9472c	0.45562112
198	0xbe8a7229	-0.27040222
199	0x3eac865f	0.33696267
200	0xbe81a31f	-0.25319764
201	0x3ec9852f	0.39359424
202	0xbe8990f2	-0.26868397
203	0x3dfb8f7b	0.12283226
204	0xbeb0646d	-0.3445162
205	0x3eefadd2	0.46812302
206	0xbe8c6d10	-0.27426958
207	0xbe5977dc	-0.21237129
208	0xbdb4454f	-0.08802282
209	0x3e839d9c	0.25706184
210	0xbeba4861	-0.36383346
211	0xbe1ab71c	-0.15108913
212	0xbf1b948a	-0.6077353
213	0x3f31a71a	0.693956
214	0xbe905c3e	-0.28195375
215	0xbda2f1f7	-0.079563074
216	0xbea8c26e	-0.32960838
217	0x3e683ebf	0.22680186
218	0xbdaf420e	-0.08557521
219	0x3dcafe43	0.09911778
220	0xbbb4d633	-0.0055186986
221	0xbdbd848f	-0.09253799
222	0x3e97c976	0.2964589
223	0xbe3b66d7	-0.18300949
224	0x3ef5cb92	0.48006874
225	0xbe00ec11	-0.12590052
226	0xbeb66abf	-0.35628316
227	0x3ef6c3f4	0.48196375
228	0xbf018269	-0.50589615
229	0x3f06f64a	0.5271956
230	0xbd81d9cb	-0.06340369
231	0x3e2900f8	0.16504276
232	0x3f0507ae	0.51964843
233	0x3ec7c136	0.39014596
234	0x3e83d9d8	0.2575214
235	0xbd94bf10	-0.07263005
236	0xbf237e28	-0.63864374
237	0x3f10fe49	0.5663801
238	0xbead5027	-0.33850214
239	0x3e9b2f1f	0.30309388
240	0x3e8f792b	0.2802213
241	0xbedf8596	-0.43656605
242	0x3e5e0342	0.2168093
243	0x3e9ada1e	0.30244535
244	0xbe524b04	-0.20536429
245	0x3eb42ffd	0.35192862
246	0xbe521c56	-0.20518622
247	0x3ed47088	0.41492105
248	0xbddf053a	-0.10889669
249	0x3f1387c1	0.5762902
250	0xbf2487b1	-0.6426955
251	0x3eebfc94	0.4609114
252	0x3f01db93	0.5072567
253	0xbef9ed54	-0.4881388
254	0x3e7e661a	0.24843636
255	0xbeec324c	-0.46132123

spatial_net.0.bias f4 [128]
0	0xbeefd254	-0.46840155
1	0xbd8587db	-0.06520053
2	0xbeb5bc4e	-0.35495228
3	0xbf1a6d26	-0.603228
4	0xbec69250	-0.38783503
5	0xbe103b02	-0.1408501
6	0xbe795bb2	-0.24351385
7	0x3e8fbecf	0.28075263
8	0x3e1a93dc	0.15095466
9	0x3da8db7f	0.082449906
10	0xbe512ab0	-0.2042644
11	0x3e8e05c3	0.2773877
12	0x3f2a8896	0.66614664
13	0x3da61d40	0.08111048
14	0xbf0cdb22	-0.5502187
15	0x3eec79f9	0.46186808
16	0x3e8fca94	0.28084242
17	0x3e0c55b5	0.1370457
18	0x3d44786e	0.047966413
19	0xbeb0afbd	-0.34509078
20	0x3d9889a1	0.07448126
21	0xbe3c30a5	-0.18377931
22	0x3db5baef	0.088735454
23	0x3f039dae	0.51412475
24	0xbe745a33	-0.23862533
25	0x3cc8193d	0.024426097
26	0xbcda859a	-0.026675034
27	0x3e08dea0	0.13366175
28	0xbf14139a	-0.5784241
29	0xbe889110	-0.26673174
30	0x3e152753	0.14565782
31	0x3f405ccb	0.7514159
32	0x3efe663f	0.49687383
33	0x3ca02dc3	0.01955307
34	0xbeb5a679	-0.3547857
35	0xbf37c562	-0.7178556
36	0xbe967728	-0.29387784
37	0x3e93adb9	0.28843477
38	0x3e699655	0.22811253
39	0x3e93f49a	0.28897554
40	0x3dce8c0d	0.10085306
41	0xbe071614	-0.13192016
42	0xbec7024c	-0.3886894
43	0x3e0adec3	0.1356154
44	0x3e566180	0.20935631
45	0x3de81323	0.11331775
46	0x3eed452c	0.46341836
47	0x3f0b2cf5	0.54365474
48	0xbf096282	-0.53665936
49	0x3e9145df	0.2837362
50	0xbf221880	-0.63318634
51	0xbdff2d9c	-0.12459871
52	0xbe58ce9a	-0.21172562
53	0xbe16c18e	-0.14722273
54	0x3ae1ecf2	0.0017236753
55	0x3f1bfa48	0.60928774
56	0xbeb9545f	-0.36197183
57	0xbf1d9ab6	-0.61564195
58	0x3daf0ea6	0.08547716
59	0x3f0837d5	0.5321019
60	0x3ec6757c	0.38761508
61	0xbec0310b	-0.37537417
62	0xbec29b07	-0.380089
63	0x3f015ff5	0.50537044
64	0x3d6e5cd7	0.058194008
65	0x3f1f9696	0.6233915
66	0x3e038caf	0.12846635
67	0xbe8da5f2	-0.2766567
68	0xbf0db94f	-0.55360883
69	0x3ed28279	0.41115168
70	0xbe9e254b	-0.30887827
71	0xbdf788ab	-0.12086614
72	0xbebcf006	-0.36901873
73	0xbe7f7043	-0.24945168
74	0x3f21f8b4	0.63270116
75	0xbec35df0	-0.38157606
76	0xbeb529a3	-0.3538333
77	0x3e199f37	0.15002142
78	0xbe7be691	-0.24599673
79	0xbeaea319	-0.3410881
80	0x3f055bd0	0.5209322
81	0xbf01deb9	-0.5073047
82	0x3ed8c642	0.4233876
83	0xbcdb442b	-0.026765903
84	0xbf1f3737	-0.62193626
85	0x3e0b4d31	0.13603665
86	0x3ef05a5c	0.4694394
87	0xbe042a11	-0.12906672
88	0x3efde453	0.4958826
89	0x3f07e5f9	0.53085285
90	0xbe9bca0e	-0.30427593
91	0xbf0744fd	-0.5283964
92	0x3e37d7ce	0.17953417
93	0xbe477bc8	-0.19480813
94	0x3d6bdc4d	0.057583142
95	0x3dc6e525	0.097116746
96	0x3ebe9645	0.37224022
97	0xbe15f728	-0.14645064
98	0xbf1fd17b	-0.62429017
99	0xbe3fbdaf	-0.18724702
100	0x3eb032a6	0.34413642
101	0xbeb7b9c2	-0.3588391
102	0x3e122dab	0.14275233
103	0x3e3b25eb	0.18276183
104	0x3cdf1e8c	0.027236246
105	0x3e30a343	0.1724978
106	0xbec70b63	-0.38875875
107	0xbee5a59f	-0.4485292
108	0x3dbc9bb3	0.09209385
109	0xbcba771d	-0.022761876
110	0x3e4a7422	0.19770864
111	0xbe15b717	-0.14620624
112	0xbf30e994	-0.6910641
113	0xbed10689	-0.40825298
114	0xbd203910	-0.03911692
115	0xbe91afa0	-0.28454304
116	0xbe311df0	-0.17296576
117	0xbecf400b	-0.40478548
118	0x3ea8c5d1	0.32963422
119	0xbe8fc3d9	-0.28079107
120	0xbeaa20d3	-0.33228168
121	0xbea3001a	-0.31836015
122	0xbeae5f3d	-0.34057036
123	0xbeecd8bc	-0.46259105
124	0xbdfd77c8	-0.12376362
125	0x3f0c84f6	0.5489038
126	0x3f19c8cc	0.60072017
127	0xbeae0d9a	-0.33994752

spatial_net.2.weight f4 [128, 128]
0	0xbbf49050	-0.0074634925
1	0xbd6b8487	-0.057499435
2	0xbc3298b8	-0.010900669
3	0x3da58d9c	0.080836505
4	0xbd5cb9a1	-0.053887967
5	0x3a8daab1	0.0010808316
6	0x3d91392a	0.07090981
7	0x3bdf1e34	0.0068090204
8	0x3acc3b82	0.00155817
9	0xbc9d9d3d	-0.019240016
10	0xbd91139c	-0.07083818
11	0xbd027781	-0.03185225
12	0x3da62005	0.08111576
13	0xbd93501b	-0.07193013
14	0xbd586910	-0.05283457
15	0x3d8b6431	0.06806219
16	0xbd8e0890	-0.06935227
17	0xbd1754dd	-0.036946166
18	0xbbf0c538	-0.007347729
19	0x3db9bfff	0.090698235
20	0x3d7a264e	0.061071686
21	0xbd72bb10	-0.059260428
22	0x3cd3b90c	0.025845073
23	0x3c0d2715	0.008615275
24	0xbda075c3	-0.07834961
25	0x3c1ecd93	0.009692567
26	0x3c8e6a54	0.017384686
27	0x3db60abc	0.08888766
28	0x3cf09a2b	0.029370388
29	0xbca583bb	-0.020204416
30	0xbd990bf4	-0.07472983
31	0xbc54248b	-0.012948166
32	0x3c4c77d2	0.012479739
33	0x3d4e4293	0.05035646
34	0x3d7f3498	0.062306017
35	0x3da53723	0.08067157
36	0xbd9f9b5b	-0.077933036
37	0xbdb056dd	-0.08610318
38	0xbbbc5ead	-0.005748591
39	0xbc8963e7	-0.01677127
40	0xbd51436a	-0.05108968
41	0x3d31786c	0.043327734
42	0x3d64790e	0.05577951
43	0x3d4fa695	0.050695974
44	0xbbb88ade	-0.0056317886
45	0xbd2e764f	-0.042593297
46	0xbd352f25	-0.044234414
47	0xbcae826d	-0.021302426
48	0x3d1fa214	0.03897293
49	0x3d3c1356	0.045916878
50	0xbdbfb387	-0.09360414
51	0x3cf9fee9	0.030517058
52	0xbc936517	-0.01799254
53	0x3c8b8ce6	0.017034959
54	0xbc746429	-0.014916458
55	0x3bd56c96	0.0065131886
56	0xbd0a25c8	-0.033727437
57	0xbd852cd2	-0.065026894
58	0x3d458749	0.04822472
59	0xbd3f2c7f	-0.046673294
60	0x3cbff0cc	0.02343025
61	0xbd864b05	-0.065572776
62	0x3da0093b	0.078142606
63	0x3d96429b	0.07336923
64	0xbcb57be0	-0.022153795
65	0xbc6329e0	-0.013864964
66	0x3cde69da	0.027150083
67	0xbda548c8	-0.080705225
68	0xbd8c50ac	-0.068513244
69	0xbcea330a	-0.02858879
70	0xbc045246	-0.008076256
71	0x3d1f9a9c	0.038965806
72	0x3da09f93	0.07842936
73	0xbd7327f9	-0.059364293
74	0x3da5d435	0.08097116
75	0xbbac3ea6	-0.0052564917
76	0x3d38402a	0.044983067
77	0xbd0e0a94	-0.034678057
78	0x3cd458ba	0.025921214
79	0x3bb33a9a	0.0054696323
80	0xbd7d44c9	-0.061833177
81	0x3db10eb1	0.0864538
82	0xbd8c7da2	-0.068599
83	0xbd4cdb4a	-0.050013818
84	0xbd9de842	-0.07710315
85	0x3d22267c	0.039587483
86	0x3ce80101	0.028320791
87	0x3c80ea79	0.015736805
88	0x3d4659c1	0.04842544
89	0xbbabf181	-0.0052472954
90	0xbd7c9aa9	-0.061670933
91	0xbc8f91ac	-0.017525516
92	0xbd4e0e75	-0.050306756
93	0xbbc650d8	-0.006052118
94	0x3d0c0e38	0.034193248
95	0x3cac4376	0.021028262
96	0x3c16590f	0.009176507
97	0x3d0285e8	0.031865984
98	0x3d9fec87	0.07808786
99	0xbd0c6a9d	-0.03428136
100	0xb8f23f1c	-0.00011551214
101	0xbd15fa44	-0.036615625
102	0xbc3ab448	-0.011395521
103	0xbd79137a	-0.06080959
104	0x3bc7c50a	0.006096487
105	0x3d2fb062	0.04289282
106	0xbd56ee5e	-0.05247342
107	0x3d2a9060	0.041641593
108	0xbbd6dc3e	-0.0065570166
109	0xbda441ae	-0.0802034
110	0xbcd1bf71	-0.025603982
111	0xbb6daf0d	-0.0036267668
112	0xbca5b489	-0.020227687
113	0xbca9c251	-0.02072254
114	0x3d164d43	0.036694776
115	0x3d29f17d	0.041490067
116	0xbd306590	-0.043065608
117	0x3c9d1164	0.019173332
118	0xbd890439	-0.066902585
119	0x3d217567	0.039418604
120	0xbd58eacb	-0.05295829
121	0xbd2c0f24	-0.042006627
122	0x3ce0a5f3	0.02742288
123	0xbc97c0e4	-0.018524595
124	0x3d0906c6	0.033453725
125	0x3dac0cd0	0.08400881
126	0x3cdb798c	0.026791357
127	0x3d38e86f	0.04514354
128	0x3d80351d	0.062601306
129	0xbcac8a34	-0.021061994
130	0xbd8cc039	-0.06872601
131	0x3bea4cb0	0.007150255
132	0x3da983bb	0.08277079
133	0xbdab3bcf	-0.08361017
134	0x3ceca091	0.028885158
135	0xbda8932a	-0.08231194
136	0x3c6578ed	0.014005882
137	0xbda305ed	-0.07960115
138	0xbd412c94	-0.047161654
139	0x3d81b81c	0.06333944
140	0x3d00df85	0.031463165
141	0xbd3978b1	-0.045281116
142	0xb955fc5b	-0.00020407273
143	0xbd938aea	-0.0720423
144	0x3da4a92c	0.080400795
145	0xbd059ec8	-0.03262213
146	0xbd9428e5	-0.072343625
147	0xbd5e12cb	-0.05421714
148	0xbd41df5d	-0.047332156
149	0x3c8a5d8f	0.016890315
150	0xbcc3e5ad	-0.023913229
151	0xbceb32f5	-0.028710822
152	0xbd3a8c35	-0.045543868
153	0x3d9b6535	0.07587663
154	0x3d652040	0.05593896
155	0xbda91ad3	-0.082570694
156	0x3cdbd774	0.026836134
157	0x3da3f840	0.08006334
158	0xbd0e2cbc	-0.03471063
159	0xbd866ab7	-0.06563323
160	0x3c7cbeb7	0.015426329
161	0xbd878b88	-0.0661841
162	0xbcfb9c23	-0.0307141
163	0xbd25bda5	-0.040464062
164	0x3d7d008f	0.06176811
165	0xbda2e2f6	-0.079534456
166	0x3d90e699	0.07075233
167	0x3d3f0ab8	0.04664108
168	0xbd9e3ae8	-0.07726079
169	0x3b85f1a2	0.0040876428
170	0xbca8a662	-0.02058715
171	0xbd38ece8	-0.045147806
172	0xbc6fb813	-0.014631289
173	0x3d79aa5b	0.06095348
174	0x3ae95790	0.0017802585
175	0xbd43b2a9	-0.047777805
176	0x3d42f829	0.047599945
177	0xbd466d1a	-0.04844389
178	0xbd3ff768	-0.046866804
179	0x3d8d619b	0.069033824
180	0x3d8822b5	0.06647245
181	0xbd3c5a27	-0.045984413
182	0xbd049e18	-0.032377332
183	0xbc879102	-0.016548637
184	0x3c301f21	0.010749609
185	0xbd032592	-0.03201825
186	0x3d305997	0.04305419
187	0xbc94fde2	-0.018187467
188	0xb85b8fcc	-5.234759e-05
189	0xbc8d3e15	-0.017241517
190	0xbbf54857	-0.00748543
191	0x3d0fb578	0.03508517
192	0xbd26fac2	-0.040766485
193	0xbd4e3ad3	-0.050349068
194	0xbcc19ce1	-0.023634376
195	0xbd4e06e0	-0.050299525
196	0x3b859d2b	0.004077574
197	0x3cf175c7	0.029475106
198	0x3d77005f	0.06030309
199	0xbc070c07	-0.008242614
200	0x3d9936fb	0.0748119
201	0x3d7f145e	0.062275283
202	0x3daf476a	0.08558543
203	0xbc2da824	-0.01059917
204	0xbd811966	-0.063036725
205	0xbd8f3a8b	-0.06993588
206	0xbc995192	-0.018715654
207	0xbcb8352e	-0.022486296
208	0xbbd99216	-0.0066397293
209	0x3d5a6f6b	0.053328913
210	0x3d7365c8	0.059423238
211	0xbd90c4a7	-0.070687585
212	0x3b499293	0.003075753
213	0x3dc3312c	0.09530863
214	0x3d94bc2f	0.07262456
215	0x3db38a14	0.08766571
216	0xbd9b7c37	-0.075920515
217	0xbda00b8c	-0.078147024
218	0x3dba06d8	0.090833366
219	0xbd980c4b	-0.0742422
220	0x3dc3cd0d	0.09560595
221	0x3d7ca0b1	0.061676685
222	0x3b3862ea	0.002813513
223	0x3db80c65	0.08986739
224	0x3b1962aa	0.0023404756
225	0x3c0a0945	0.008425062
226	0x3c8a15ba	0.016856063
227	0xbd656b97	-0.05601081
228	0x3d000339	0.031253073
229	0xbd9c3dd9	-0.07628984
230	0xbbf94f8b	-0.007608359
231	0x3d6e3532	0.0581562
232	0xbd97fd78	-0.07421392
233	0xbd69fe82	-0.057127483
234	0xbcaf8a49	-0.021428244
235	0x3970f842	0.00022980667
236	0xbd477d29	-0.048703346
237	0x3d033218	0.032030195
238	0x3cb8012a	0.022461493
239	0x3c878895	0.01654462
240	0xbde90f52	-0.11379875
241	0x3d51b1c0	0.051194906
242	0x3d5cbe38	0.053892344
243	0xbd244ecb	-0.040114205
244	0xbd8b94a8	-0.06815463
245	0xbc990d04	-0.018682964
246	0x3d35145f	0.04420888
247	0xbd468c71	-0.04847378
248	0xbdbc5654	-0.09196153
249	0xbcab5741	-0.02091563
250	0x3c9a1569	0.018809037
251	0xbc6578c5	-0.0140058445
252	0xbce12ef8	-0.027488217
253	0xbd4dbbdf	-0.050227996
254	0x3db82e04	0.08993152
255	0xbdb16828	-0.08662444

spatial_net.2.bias f4 [128]
0	0xbcccff3e	-0.025024053
1	0xbd14a609	-0.036291156
2	0xbd35b31f	-0.044360276
3	0xbd965f38	-0.0734238
4	0xbd3afee5	-0.045653243
5	0xbd06a729	-0.03287426
6	0x3d237740	0.039908648
7	0xbcc6a2a4	-0.024247475
8	0x3c31b8b2	0.010847257
9	0x3d933d7b	0.07189461
10	0xbb8c3888	-0.0042792
11	0x3b4f64b9	0.0031645729
12	0x3cd31e70	0.02577135
13	0x3d3cc9bb	0.046090823
14	0xbca78d99	-0.020453261
15	0xbd8534e4	-0.06504229
16	0x3d92c462	0.07166363
17	0x3d649d81	0.05581427
18	0x3d7909ed	0.06080048
19	0x3cdeff58	0.027221367
20	0xbd466b09	-0.04844192
21	0x3da4e2db	0.08051082
22	0x3d8a6033	0.0675663
23	0x3d713e8a	0.058897533
24	0xbd3707d0	-0.044685185
25	0x3c07c8db	0.008287634
26	0xbcc1262c	-0.023577772
27	0xbda160c9	-0.078797884
28	0x3d0d6e8c	0.034529254
29	0x3d83c890	0.06434739
30	0x3c84bead	0.016204203
31	0x3ca8995e	0.020580944
32	0xbc0669cd	-0.008203936
33	0x3d87680a	0.06611641
34	0x3cc61aee	0.024182763
35	0x3d1ffa0d	0.039056826
36	0x3d496dd2	0.049177
37	0x3cede88e	0.029041555
38	0x3b373aec	0.0027958704
39	0xbda84f4e	-0.08218251
40	0x3d4c818d	0.049928237
41	0xbcb4dd68	-0.022078231
42	0x3d1a117f	0.03761434
43	0xbcf7c5f7	-0.030245764
44	0xbcade1ad	-0.021225775
45	0x3c9a65db	0.018847397
46	0x3d8afcae	0.06786476
47	0xbcad79a1	-0.021176161
48	0x3cae6709	0.021289365
49	0x3c3faff7	0.011699668
50	0x3c66c8de	0.014085976
51	0xbd94e828	-0.07270843
52	0xbce8116d	-0.028328622
53	0xbc61667b	-0.013757343
54	0x3d954aed	0.072896816
55	0x3b297871	0.0025859142
56	0x3d5f0186	0.054444812
57	0x3d044ef5	0.03230186
58	0x3db81b81	0.08989621
59	0x3da99967	0.08281212
60	0x3c2f78cc	0.010709953
61	0xbd2e5e4f	-0.04257041
62	0xbce8e638	-0.02843009
63	0x3d9e083b	0.077164136
64	0x3c11f211	0.008907811
65	0x3da4e710	0.08051884
66	0x3d092978	0.033486813
67	0x3d16845f	0.036747333
68	0xbdb48496	-0.08814351
69	0xbc87dd57	-0.016585035
70	0xbd7a6e85	-0.061140556
71	0x3c52a090	0.012855664
72	0xbd6d5d66	-0.0579504
73	0xbda6707c	-0.081269234
74	0x3d170bff	0.036876675
75	0x3dbbec9a	0.091759875
76	0x3dadc827	0.08485442
77	0x3d44fae2	0.048090823
78	0x3c9205c5	0.017825017
79	0xbc7bb8b4	-0.015363861
80	0xbc15ee5b	-0.009151067
81	0x3ce801f7	0.02832125
82	0xbc3ee6ad	-0.011651677
83	0xbdadd182	-0.08487226
84	0x3d98d6b5	0.07462827
85	0xbd5a5fb6	-0.053313933
86	0xbdaf4cb0	-0.08559549
87	0xbca5ec80	-0.020254374
88	0x3d64c1ba	0.055848815
89	0xbb6b5118	-0.003590649
90	0xbd57350c	-0.052540824
91	0xbb102dd8	-0.0021999981
92	0x3a37e2ff	0.0007014721
93	0x3d996c73	0.07491388
94	0xbd2182a4	-0.03943123
95	0xbb5edc4c	-0.003400582
96	0x3d0d4d12	0.034497328
97	0xbd7a44a4	-0.061100617
98	0x3ca02ddc	0.019553117
99	0xbda1b2e6	-0.0789545
100	0x3ca6ace5	0.020346114
101	0x3a665ec0	0.00087879226
102	0xbd0b0c59	-0.033947323
103	0xbd14f94a	-0.036370553
104	0x3d217336	0.039416514
105	0x3c4864e4	0.012231085
106	0x3b3a8079	0.0028457923
107	0xbc916b63	-0.017751401
108	0x3db83c0a	0.089958265
109	0x3bba2f41	0.0056819026
110	0xbc76f772	-0.015073644
111	0xbb907e46	-0.004409584
112	0x3d9a81d1	0.07544292
113	0x3b9f610e	0.0048638647
114	0x3c9f2c2e	0.019430246
115	0xbc924bb7	-0.01785837
116	0xbd64abb4	-0.05582781
117	0xbc4c82e0	-0.012482375
118	0xbb9e8947	-0.004838142
119	0xbd12e135	-0.035859305
120	0x3c16254f	0.0091641685
121	0xbd229afd	-0.03969859
122	0xbd9d22e8	-0.076726735
123	0xbda2b7c2	-0.07945205
124	0xbd02e6e5	-0.03195848
125	0x3c7309b2	0.0148338545
126	0x3d50ce38	0.050977916
127	0xbd19fe95	-0.037596304

spatial_net.4.weight f4 [128, 128]
0	0x3b525f79	0.0032100363
1	0xbd9cffea	-0.07665999
2	0xbcfd1312	-0.030892882
3	0x3d45d5cf	0.048299607
4	0xbda49c0c	-0.08037576
5	0x3ce75914	0.028240718
6	0xbd7552b0	-0.05989331
7	0x3d016075	0.03158613
8	0x3dd55c7e	0.10418032
9	0xbd0beaab	-0.034159344
10	0xbbd21db3	-0.006412232
11	0x3dbbe95e	0.09175371
12	0xbce03620	-0.027369559
13	0x3d421487	0.047382858
14	0xbbd68546	-0.006546649
15	0x3d417d5d	0.047238696
16	0xbb8d5411	-0.004313
17	0x3cd82650	0.026385456
18	0xbb1b1b14	-0.0023667263
19	0xbd709086	-0.05873158
20	0x3c0dc77b	0.008653517
21	0x3b7b551f	0.0038350297
22	0x3ce0773a	0.027400602
23	0xbda205a3	-0.07911231
24	0x3c878703	0.01654387
25	0xbd1d933c	-0.03847049
26	0x3d8082e0	0.062749624
27	0xbd394cc6	-0.045239232
28	0xbcdf97f5	-0.027294138
29	0x3d74ca9d	0.05976354
30	0xbc27741b	-0.010220553
31	0xbcae4016	-0.021270793
32	0x3ce3177f	0.027721165
33	0x3b31b868	0.0027117971
34	0xbdb23af5	-0.087026514
35	0xbda15437	-0.07877391
36	0x3d04f0e0	0.03245628
37	0xbd821150	-0.06350958
38	0xbd03c690	-0.032171786
39	0xbd116279	-0.0354943
40	0xbd55834d	-0.05212717
41	0x3de2aefd	0.110685326
42	0x3d1075c0	0.035268545
43	0xbdd29b41	-0.102835186
44	0xbd24643f	-0.040134665
45	0xbda6bf00	-0.08141899
46	0xbc66a53e	-0.014077483
47	0x3d34f17a	0.044175602
48	0xbd0ac079	-0.033874962
49	0x3d6746e7	0.056464102
50	0xbd9d024c	-0.07666454
51	0x3da7e392	0.081977025
52	0x3cbf7737	0.023372276
53	0x3cc1a967	0.023640348
54	0x3cc795c4	0.024363406
55	0x3d41fdea	0.047361292
56	0x3d89c81b	0.0672762
57	0x3ce4f27c	0.027947657
58	0x3c56a887	0.0131017035
59	0xbd0b362b	-0.033987205
60	0xbd2c3ce7	-0.04205027
61	0xbd7212f0	-0.05910009
62	0x3d8dd05f	0.06924509
63	0xbd595d37	-0.053067412
64	0xbd07a065	-0.03311195
65	0x3d472a8e	0.048624568
66	0xbd50b03a	-0.050949313
67	0x3c6fe36c	0.014641624
68	0x3d10881e	0.03528606
69	0x3d5f55e3	0.054525267
70	0xbd120a92	-0.035654612
71	0xbd0f2630	-0.034948528
72	0xbc5810f7	-0.0131876385
73	0xbbbfee37	-0.005857255
74	0x3d988c37	0.07448619
75	0x3ba0901d	0.004899992
76	0x3c9b72a5	0.018975565
77	0x3a3ffc87	0.0007323701
78	0xbce7bca2	-0.02828819
79	0xbd3af553	-0.045644116
80	0xbc507bbb	-0.012724812
81	0x3d8197fc	0.06327817
82	0x3c8a8164	0.016907401
83	0xbcabaf14	-0.020957507
84	0xbc45b91d	-0.01206806
85	0xbce523b2	-0.027971122
86	0x3ae49d5f	0.001744192
87	0xbd3b41d6	-0.045717083
88	0x3d9e9283	0.07742789
89	0x3d7f4cc2	0.06232906
90	0x3c4c8061	0.01248178
91	0x3d09da14	0.03365524
92	0xbca764a5	-0.020433733
93	0x3d8cc763	0.068739675
94	0x3d2c29fe	0.042032234
95	0x3d30ff61	0.0432123
96	0xbd9a2088	-0.07525736
97	0x3d15f210	0.036607802
98	0x3d86c3a9	0.06580288
99	0x3d59729a	0.05308781
100	0x3d4a4908	0.049386054
101	0x3c26bab3	0.0101763485
102	0x3bc361ca	0.005962585
103	0x3caee1f9	0.021347987
104	0xbc8d42e2	-0.017243806
105	0xbcbf2ed3	-0.023337757
106	0x3c3d0e36	0.011539033
107	0xbd85c0a2	-0.065308824
108	0x3dadbd61	0.08483387
109	0xbca22251	-0.019791754
110	0x3d36f282	0.044664867
111	0xbc8ae705	-0.016955862
112	0xbc337bae	-0.0109547805
113	0x3bd0a271	0.006367021
114	0xbc8a5f93	-0.016891276
115	0x3c79ebce	0.015253974
116	0x3ca261a9	0.019821959
117	0xbc99270a	-0.018695373
118	0xbd4f8e41	-0.050672773
119	0xbc8e28a1	-0.017353358
120	0x3d893546	0.06699614
121	0x3cc65bb2	0.024213646
122	0x3c91a795	0.017780105
123	0xbcd5a7a2	-0.02608091
124	0xbc838ab7	-0.016057355
125	0xbd806cff	-0.06270789
126	0x3d14df75	0.036345918
127	0xbd7ac472	-0.0612225
128	0x3c2307f1	0.009950624
129	0x3d520c3a	0.05128119
130	0x3d0fd4c0	0.035115004
131	0xbc9f0c44	-0.019415028
132	0x3d266296	0.040621363
133	0x3c1d411a	0.009598041
134	0x3ca2961b	0.019846966
135	0xbd12905c	-0.035782203
136	0x3bed511f	0.0072423364
137	0xbb1d6268	-0.0024014954
138	0xbb8e042c	-0.0043339934
139	0xbd3c3aab	-0.045954388
140	0x3d02c97b	0.031930428
141	0xbc6912ff	-0.01422572
142	0x3b68c96b	0.0035520445
143	0xbd5e4e1b	-0.054273706
144	0x3ccf0802	0.025272373
145	0x3cf91e06	0.030409824
146	0xbdb5b04c	-0.088715166
147	0xbd8713ee	-0.06595598
148	0x3dc6ffb8	0.09716743
149	0xbd5b0519	-0.05347166
150	0xbce6b5cc	-0.02816286
151	0xbc7ae570	-0.015313491
152	0xbd5699b2	-0.05239267
153	0x3d1a32c4	0.03764607
154	0xbca37596	-0.01995353
155	0x3d9ca3eb	0.07648452
156	0xbce0052a	-0.027346212
157	0x3d324725	0.04352488
158	0x3d4955e2	0.04915417
159	0xbcbd355e	-0.023096737
160	0x3c777f9d	0.015106109
161	0xbd72a3db	-0.059238296
162	0xbc92ce99	-0.017920779
163	0x3bcd3401	0.006262303
164	0xbcc0fef3	-0.02355907
165	0x3d9883eb	0.07447036
166	0x3c119830	0.008886382
167	0xbd4027b2	-0.046912856
168	0x3cd974c6	0.02654494
169	0xbd762260	-0.060091376
170	0xbd883e47	-0.066525035
171	0xbd72e0b5	-0.05929633
172	0xbd4ae3e7	-0.04953375
173	0xbd40e017	-0.04708871
174	0x3d09c8d9	0.03363881
175	0x3cd25e50	0.025679737
176	0xbd125e74	-0.03573461
177	0x3c058353	0.008148986
178	0xbcda044a	-0.026613373
179	0xbb6c6041	-0.0036068114
180	0x3cd6ae60	0.026206195
181	0x3c881d2c	0.016615473
182	0x3c82e3f5	0.015977839
183	0xbc7ef052	-0.0155602265
184	0x3ce18058	0.02752702
185	0x3d8e8c76	0.069603845
186	0xbd2083a6	-0.03918805
187	0x3d2c146f	0.042011674
188	0xbd060b8a	-0.03272585
189	0x3d0d94cf	0.034565743
190	0xbc8bbdf1	-0.017058345
191	0x3cd86896	0.026417058
192	0x3c954ef5	0.018226126
193	0xbd1d3138	-0.038377017
194	0xbc3ca19f	-0.011513143
195	0x3c9c2c3e	0.019064065
196	0x3cb56a35	0.02214537
197	0x3ccd8537	0.025087936
198	0xbbfa54b2	-0.007639491
199	0xbd96aa9d	-0.07356761
200	0x3d17f1dc	0.03709589
201	0x3d500022	0.050781377
202	0x3d00b12a	0.031418957
203	0x3cf4bc9d	0.029875094
204	0x3db0403d	0.086060025
205	0xbd91e310	-0.07123387
206	0x3da2cefa	0.07949634
207	0xbcc72791	-0.024310859
208	0x3cd9a9a3	0.026570147
209	0x3be98640	0.0071265996
210	0xbd8f856a	-0.070078686
211	0xbdc0c481	-0.0941248
212	0xba9b5fb0	-0.0011854079
213	0xbdb757a8	-0.08952266
214	0xbcd66c20	-0.026174605
215	0x3b4ce177	0.0031262317
216	0x3c7eaf0f	0.015544667
217	0xbd8c5527	-0.06852179
218	0x3c8a854c	0.016909264
219	0xbcf0db23	-0.029401368
220	0x3cf8fcbd	0.030393953
221	0x3a1f0005	0.00060653716
222	0xbdc2b54f	-0.09507238
223	0xbcaa424a	-0.020783562
224	0x3d29d608	0.04146388
225	0x3d479052	0.04872162
226	0x3cc69bc0	0.02424419
227	0xbbc08228	-0.005874891
228	0xbc28afc8	-0.010295816
229	0xbbd9857d	-0.0066382275
230	0xbbc7f6c9	-0.006102417
231	0xbd88d25f	-0.0668075
232	0x3d2f3b14	0.04278095
233	0xbd32e321	-0.04367364
234	0xbc74a32c	-0.014931481
235	0xbd62ef50	-0.055404007
236	0x3bb36307	0.0054744515
237	0x3c176e56	0.009242615
238	0x3cc4c50a	0.024019737
239	0x3c6721f3	0.014107215
240	0x3d99cf71	0.075102694
241	0x3c365a18	0.011129878
242	0xbc2ba7e2	-0.010477038
243	0x3d722ee6	0.059126757
244	0x3cb93d02	0.022612099
245	0xbcb7d832	-0.022441957
246	0xbd38322a	-0.044969715
247	0x3d7afc1e	0.061275594
248	0x3bfd4217	0.007728826
249	0xbcfa85f6	-0.030581456
250	0x3bedfeef	0.0072630565
251	0xbd8132ab	-0.06308492
252	0xbaf94edd	-0.0019020695
253	0xbd8afaba	-0.067861035
254	0xbbc85032	-0.0061130757
255	0xbd2c865e	-0.04212033

spatial_net.4.bias f4 [128]
0	0xbcdad2e6	-0.026711892
1	0xbd04acbc	-0.032391295
2	0x3d51e3b8	0.05124256
3	0x3d19d048	0.037552148
4	0x3b201cc6	0.0024431213
5	0x3c6e7ca6	0.014556086
6	0x3d324a87	0.043528106
7	0x3ca04e60	0.019568622
8	0x3d54bb97	0.051936712
9	0xbce71f95	-0.028213302
10	0x3d2b0941	0.041756872
11	0xbd59e6ea	-0.053198732
12	0x3c2dcd10	0.010607973
13	0xbbaec8f1	-0.0053340127
14	0xbce9566a	-0.028483588
15	0xbc66aaa2	-0.014078768
16	0xbcd981dd	-0.026551181
17	0x3d7c6f3e	0.061629526
18	0x3d0698b4	0.032860473
19	0xbd8deeb0	-0.06930292
20	0xbce7154f	-0.028208403
21	0x3d0b495d	0.03400551
22	0x3cd938b5	0.026516298
23	0x3c856840	0.016285062
24	0x3a4fcedb	0.0007927247
25	0x3d6ed9ce	0.058313183
26	0xbd2a2055	-0.04153474
27	0x3d1c2331	0.0381195
28	0x3d5ad1e5	0.053422827
29	0xbd0a9801	-0.03383637
30	0x3d211e2d	0.03933542
31	0xbc76c2db	-0.015061106
32	0xbc8248da	-0.015903879
33	0xbcc7a2e3	-0.024369663
34	0xbc900f18	-0.017585322
35	0x3a713fcd	0.00092029275
36	0x3bbe7d7c	0.0058132987
37	0xbca1afe3	-0.01973719
38	0x3d1122c9	0.035433564
39	0xbbd63f5e	-0.0065383157
40	0x3b811b7f	0.0039400454
41	0x3d961a0c	0.07329187
42	0x3c86c4e8	0.016451314
43	0xbd07042d	-0.032962967
44	0xbd1e1098	-0.038590044
45	0xbb84197c	-0.0040313583
46	0x3bb21ff7	0.0054359394
47	0xbd0ff337	-0.035144057
48	0x3ceb82df	0.028748928
49	0x3d0fc665	0.035101313
50	0xbadd56a7	-0.0016886786
51	0xbbc41f42	-0.0059851715
52	0x3c2f04e7	0.010682321
53	0xbd35fe3d	-0.044431914
54	0x3cecc35b	0.028901746
55	0x3bc5b880	0.006033957
56	0x3ca58c86	0.020208608
57	0x3d1278b1	0.03575963
58	0x3c6bc589	0.014390358
59	0xbcd4cdfb	-0.025977125
60	0xbc699ef6	-0.014259091
61	0xbd795de9	-0.060880575
62	0x3d001f1d	0.031279672
63	0x3c39441b	0.0113077415
64	0xbbba888e	-0.005692548
65	0x3be759ca	0.0070602642
66	0xbd169b74	-0.036769345
67	0xbd26b8ce	-0.040703587
68	0x3d3b2b5c	0.045695648
69	0x3d0653e3	0.032794844
70	0xbd6856cc	-0.0567234
71	0x3c5d15d6	0.013493976
72	0xbce84710	-0.028354198
73	0x3c7d07ee	0.015443785
74	0x3d059a09	0.032617602
75	0x3cadbd89	0.021208541
76	0x3b1bc27c	0.0023767045
77	0xbd21cf3f	-0.039504286
78	0x3da7be3e	0.08190583
79	0x3d6dd4d4	0.058064297
80	0x3c0817fe	0.008306501
81	0x3bc8b488	0.0061250366
82	0xbcaaf634	-0.020869352
83	0x3d857cc0	0.06517935
84	0x3bcab49a	0.00618608
85	0xbd0ba6ed	-0.03409474
86	0xbcaccaa1	-0.021092715
87	0x3c78c038	0.015182547
88	0xbd25a4ef	-0.040440496
89	0x3c975809	0.018474596
90	0x3b511c19	0.0031907617
91	0xbc0323f5	-0.008004178
92	0xbb82048f	-0.0039678286
93	0xbd4937f0	-0.04912561
94	0x3a577a4a	0.00082198216
95	0x3cd27251	0.025689276
96	0xbd0975f6	-0.033559762
97	0x3c22bd9f	0.0099329045
98	0xbd1de80c	-0.038551375
99	0x3a97101a	0.0011525184
100	0xb9c4d8f7	-0.00037545685
101	0xbc5f75f3	-0.013638961
102	0x3c948c43	0.018133288
103	0xbbbb2abd	-0.005711882
104	0x3c45cb60	0.012072414
105	0x3ce1b75e	0.027553257
106	0x3b34a4fc	0.0027564159
107	0xba152e69	-0.00056908146
108	0xbc72dc82	-0.014823081
109	0xbbb6a8dd	-0.0055743293
110	0xbd9f5f5d	-0.07781861
111	0xbd1e0478	-0.03857848
112	0x3d7bba7d	0.061457146
113	0x3c6e827b	0.014557476
114	0x39e827cb	0.00044280136
115	0x3d03062a	0.0319883
116	0xbb9f13b8	-0.0048546456
117	0xbd045165	-0.032304186
118	0xbbd48b48	-0.00648633
119	0x3c8691d5	0.01642696
120	0x3d220530	0.03955573
121	0xbd77b2a7	-0.06047311
122	0xbd198c58	-0.037487358
123	0xbba8122d	-0.00512912
124	0xbc2d073b	-0.010560806
125	0x3d302ea9	0.04301325
126	0x3ca99916	0.02070288
127	0x3d5a3dec	0.05328171

spatial_net.6.weight f4 [128, 128]
0	0xbd0df6da	-0.034659244
1	0xbd37dc62	-0.044887908
2	0x3c4b7b75	0.012419571
3	0xbd080356	-0.033206306
4	0x3c95c16c	0.018280707
5	0x3cd14697	0.025546355
6	0xbc39c0c3	-0.011337462
7	0x3d71ce7b	0.059034806
8	0x3d87d9ee	0.06633364
9	0x3db0c176	0.0863065
10	0xbc8d5e6c	-0.017256938
11	0x3cf1ff00	0.029540539
12	0xbb62a8f9	-0.0034585579
13	0x3c03a563	0.008035037
14	0x3d3c75fa	0.04601095
15	0xbd407b3f	-0.046992537
16	0xbcce69a9	-0.025196867
17	0x3c3ef3c5	0.011654799
18	0xbca86f65	-0.02056093
19	0xbc5e9bda	-0.013586963
20	0xbdb7dc02	-0.0897751
21	0x3c986503	0.018602854
22	0xba907854	-0.0011022189
23	0xbcc60f4e	-0.02417722
24	0xbced800d	-0.028991723
25	0xbd656914	-0.056008413
26	0xbc6106c0	-0.0137345195
27	0x3c3c2c86	0.011485225
28	0x3d963d6b	0.07335933
29	0x3d1520df	0.0364083
30	0x3dea95b8	0.11454338
31	0x3cfbadee	0.030722585
32	0xbd099618	-0.033590406
33	0xbc92f29f	-0.017937956
34	0xbcddad30	-0.027060121
35	0xbcdb40b5	-0.026764253
36	0xbc710785	-0.014711265
37	0xbc047bd9	-0.008086168
38	0xbbffd48f	-0.0078073214
39	0xbd1b852a	-0.037968792
40	0x3cfa7d8b	0.030577442
41	0xbd3cd436	-0.046100818
42	0x3d108274	0.03528066
43	0xbc3c2c98	-0.011485241
44	0x3d6a862c	0.057256863
45	0x3d3a20ff	0.045441624
46	0x3dd80ae4	0.10548952
47	0x3c72f3bd	0.01482862
48	0xbd42d45d	-0.047565807
49	0xbc6b0f16	-0.0143468585
50	0x3c9d6ad0	0.019215971
51	0x3c7fa57a	0.0156034175
52	0xbd11170a	-0.035422362
53	0xbd661a4c	-0.056177422
54	0xbcc99073	-0.024605012
55	0xbb9cb87a	-0.0047827335
56	0xbd9172a3	-0.07101943
57	0x38bd5547	9.0281064e-05
58	0x3d716d88	0.058942348
59	0x3d70c1b2	0.058778472
60	0xbc49c02f	-0.012313887
61	0x3c823891	0.015896114
62	0x3c8885e1	0.016665401
63	0x3d8b3014	0.067962795
64	0xbb9f3681	-0.0048587923
65	0xbd0d387e	-0.034477703
66	0x3d0af670	0.033926427
67	0xbd3ea293	-0.04654176
68	0xbc85372f	-0.016261665
69	0xbd6ed8c0	-0.058312178
70	0xba9969a9	-0.0011704463
71	0x3d855f06	0.06512265
72	0xbda1233c	-0.078680485
73	0x3d16cce0	0.036816478
74	0x3cb74c9b	0.022375396
75	0x3c55d9a6	0.01305238
76	0x3d647ee8	0.05578509
77	0xbc794a52	-0.015215473
78	0x3d811ebc	0.0630469
79	0xbd8dfcda	-0.06932993
80	0xbcfe9b92	-0.031080041
81	0xbd51ecee	-0.051251344
82	0x3d27d26b	0.040972155
83	0x3dabe0e4	0.08392504
84	0xbdd1090c	-0.10206804
85	0xbc5389ef	-0.012911304
86	0xbd40978c	-0.047019526
87	0xbc39587d	-0.011312601
88	0x3b2018ac	0.0024428768
89	0xbc9f6306	-0.019456398
90	0xbd86fc80	-0.06591129
91	0x3c74c114	0.014938612
92	0xbd055c2e	-0.032558613
93	0xbd4b0bee	-0.049571924
94	0xbc3d29e1	-0.011545629
95	0x3c4b11a6	0.012394344
96	0x3cc7a0d9	0.02436869
97	0x3d3cc34c	0.046084687
98	0xbb6c8f4b	-0.0036096151
99	0xbc03268a	-0.008004794
100	0x3cd1ae70	0.025595874
101	0xbd91256b	-0.07087215
102	0x3b18abba	0.0023295716
103	0xbd761e7a	-0.06008766
104	0xbb79b22e	-0.0038100588
105	0xbc8fbbe8	-0.017545655
106	0xbdb57828	-0.088608086
107	0x3cac7ae7	0.021054698
108	0xbd451c9c	-0.048122987
109	0x3cf45979	0.02982782
110	0xbc2b3b69	-0.010451176
111	0x3bd60bc8	0.006532166
112	0xbccda833	-0.025104618
113	0xbd4a5ce1	-0.049404982
114	0xbcc18ff4	-0.023628213
115	0xbb9fdf93	-0.004878947
116	0x3b562efb	0.003268181
117	0xbb7cff3d	-0.0038604282
118	0x3c782e23	0.015147719
119	0x3c746c40	0.014918387
120	0xbd3ddfc5	-0.04635598
121	0x3aab9677	0.0013091107
122	0xbd544be3	-0.051830184
123	0xbd49d1b0	-0.04927224
124	0xbbda7281	-0.006666482
125	0x3d547222	0.051866658
126	0xbd59ac79	-0.053143
127	0x3c3532a5	0.011059438
128	0xbc2495ec	-0.01004551
129	0xbda09c57	-0.078423195
130	0xbd7154ce	-0.058918767
131	0xbcb6ee8d	-0.022330547
132	0x3bf463f6	0.0074582053
133	0x3ce441c5	0.027863393
134	0xbc46689a	-0.0121099
135	0xbd89c4b2	-0.0672697
136	0x3d6a1168	0.057145506
137	0x3ca37ea0	0.01995784
138	0xbd554f43	-0.052077543
139	0xbdba29b7	-0.09089988
140	0xbd5439c9	-0.05181292
141	0xbd8769cc	-0.06611976
142	0xbcd51ed1	-0.026015671
143	0x3c28d8fd	0.01030564
144	0xbd935635	-0.07194177
145	0x3d07c2cc	0.033144757
146	0xbcee8e6b	-0.029120645
147	0x3d71d0f2	0.059037156
148	0x3c86a068	0.01643391
149	0x3dbf6e51	0.09347213
150	0xbd617e00	-0.055051804
151	0xbd11886d	-0.035530496
152	0x3d28ca3f	0.041208502
153	0xbd3aa7d5	-0.045570213
154	0x3d40fc5f	0.04711568
155	0xbd548064	-0.051880255
156	0x3c4f9d83	0.012671831
157	0xbc8deda3	-0.017325228
158	0x3d284965	0.04108562
159	0xbc9a4213	-0.018830335
160	0x3d8f32b6	0.06992094
161	0x3d1460da	0.036225177
162	0xbb2e7f93	-0.0026626333
163	0xbbfcfde2	-0.007720695
164	0xbcd49081	-0.025947811
165	0x3d0eb58f	0.034841117
166	0xbd33d256	-0.043901764
167	0xbd76ac08	-0.060222656
168	0xbdb75757	-0.08952206
169	0x3dabde39	0.08391995
170	0x3c454803	0.012041095
171	0x3d9ae38a	0.07562931
172	0xbbbbee55	-0.0057351985
173	0x3d8a19e6	0.06743221
174	0x3d368212	0.04455764
175	0xbc953632	-0.018214319
176	0x3d858a97	0.065205745
177	0xbce2dfeb	-0.027694663
178	0x3d17048f	0.03686958
179	0x3c611b95	0.013739486
180	0x3d8c378b	0.068465315
181	0x3c1707ee	0.009218199
182	0xbc740321	-0.014893324
183	0xbcc51e9e	-0.024062451
184	0xb9f7dc4b	-0.00047275642
185	0x3d6cdce2	0.057827838
186	0xbd1ce7c5	-0.03830697
187	0xbd393671	-0.045217935
188	0xbc26e8d3	-0.010187346
189	0xbd3a5cd0	-0.04549867
190	0x3d962548	0.073313296
191	0x3ce6ed8f	0.028189449
192	0x3cb961b2	0.022629593
193	0xbd978bde	-0.073997244
194	0x3c740669	0.014894106
195	0x3de44591	0.11146081
196	0xbce11ffb	-0.02748107
197	0x3d125461	0.035725
198	0xbd16ab07	-0.036784198
199	0xbd3b4c87	-0.04572728
200	0xbc3bdd0f	-0.011466279
201	0xbd3440c4	-0.044007078
202	0xbd1af1e3	-0.037828337
203	0xbd41e5c4	-0.047338262
204	0xbd4d162a	-0.050069965
205	0xbdbf8574	-0.09351626
206	0x3bbd7982	0.005782307
207	0x3c29781b	0.010343577
208	0xbcb6f90d	-0.022335554
209	0xbd857977	-0.06517308
210	0x3a90761e	0.001102153
211	0xbc48548e	-0.012227191
212	0xbcce6d82	-0.025198702
213	0x3d1c3fa4	0.03814663
214	0xbd24e117	-0.040253725
215	0xbda9bb16	-0.08287637
216	0x3d69611d	0.05697738
217	0xbda26910	-0.07930195
218	0x3cdd2660	0.026995838
219	0xbd198a96	-0.03748568
220	0x3d32ddbe	0.0436685
221	0xbd365d10	-0.044522345
222	0x3ba1a19b	0.004932595
223	0x3a331dba	0.00068327377
224	0xbd91cde8	-0.071193516
225	0x3d87b860	0.066269636
226	0x3d2a39a0	0.04155886
227	0xbd3c6818	-0.04599771
228	0x3d1e687a	0.038673855
229	0x3d2117c4	0.039329305
230	0x3b4fefb1	0.003172856
231	0x3bd80f95	0.0065936544
232	0xbd6853c6	-0.056720518
233	0x3c54f2ff	0.012997388
234	0x3d2870ff	0.041123386
235	0x3d37d99b	0.04488526
236	0x3ae34467	0.0017339111
237	0x3c89c729	0.0168186
238	0x3d60c0f1	0.054871503
239	0x3c99e621	0.018786492
240	0x3dd4607d	0.10369966
241	0x3d1f79a7	0.038934376
242	0x3d884136	0.06653063
243	0x3d6cb734	0.057791904
244	0x3cbdd50a	0.023172874
245	0x3b897a29	0.004195471
246	0x3d8aa7c4	0.0677028
247	0xbdac5c7f	-0.0841608
248	0x3d7a80b5	0.0611579
249	0x3d6f5f2c	0.058440372
250	0x3c9a8b7c	0.01886534
251	0xbd1f00c4	-0.03881909
252	0xbdf605ec	-0.12012848
253	0xbd3d8138	-0.04626581
254	0xbd28279f	-0.04105341
255	0xbc654737	-0.01399403

spatial_net.6.bias f4 [128]
0	0xbc5b6b02	-0.013392212
1	0x3d643537	0.055714812
2	0xbbecfa9b	-0.007232023
3	0xbc6543ea	-0.013993243
4	0xbae4c59d	-0.0017453913
5	0xbb167213	-0.0022956177
6	0x3cfe5083	0.03104425
7	0xbd8cfa5e	-0.06883691
8	0xbceaf4d7	-0.028681202
9	0x3d31a1f0	0.043367326
10	0xbc83f94d	-0.016110087
11	0x3ce1b3ec	0.027551614
12	0x3d2613a3	0.04054607
13	0x3ccaf237	0.0247737
14	0xbd4b77df	-0.049674865
15	0xbd4a1ed3	-0.049345803
16	0x3c1e1231	0.009647892
17	0x3c8006a9	0.015628176
18	0xbd4637aa	-0.04839293
19	0xbc22394a	-0.009901354
20	0xbd121393	-0.0356632
21	0x3c204f20	0.00978449
22	0x3d700edd	0.058607925
23	0x3c1f351c	0.009717252
24	0xbd688271	-0.056765024
25	0x3d26c915	0.04071911
26	0x3c981d66	0.018568706
27	0xbc11410b	-0.008865605
28	0x3cc99dcf	0.024611382
29	0x3d40bf64	0.047057524
30	0xbb809662	-0.003924177
31	0xbcaa09ad	-0.020756567
32	0xbcb88648	-0.022524968
33	0x3d0dd527	0.034627106
34	0x3a4449b9	0.0007487792
35	0xbd42d7cf	-0.047569092
36	0xbd80ef02	-0.06295587
37	0x3d047d07	0.032345798
38	0x3c00b5cc	0.007855844
39	0xbd7664d6	-0.06015476
40	0xbc6f17a3	-0.014593038
41	0x3d88b651	0.06675399
42	0x3cc51e14	0.024062194
43	0xbce98610	-0.028506309
44	0xbd81a678	-0.063305795
45	0x3c3289a6	0.010897076
46	0x3ccc1941	0.024914386
47	0xbc993ed4	-0.018706717
48	0x3d04f277	0.032457795
49	0xbd7fffdd	-0.06249987
50	0x3d11b332	0.035571285
51	0x3b12b6c2	0.0022386764
52	0xb98c0f94	-0.00026714487
53	0xbd497d50	-0.049191773
54	0xbcdc2698	-0.026873872
55	0x3cbed497	0.02329473
56	0xbb7b44cd	-0.003834057
57	0xbc9bd071	-0.019020291
58	0x3d13955e	0.03603112
59	0x3c02ab59	0.007975423
60	0x3c147884	0.009061936
61	0x3b5a1d5c	0.003328166
62	0xbd04bb0a	-0.032404937
63	0xbcb53d15	-0.022123853
64	0x3ccceaa5	0.025014231
65	0x3d4e922a	0.05043236
66	0xbd2d7eac	-0.04235713
67	0x3cf9a35a	0.0304734
68	0x3d17f75e	0.037101142
69	0x3cd06a17	0.025441213
70	0xbd108aa7	-0.03528848
71	0x3c01fe90	0.007934228
72	0xbd30eb79	-0.043193314
73	0x3d64ca70	0.055857122
74	0xbd59bec2	-0.053160436
75	0x3d26f577	0.040761437
76	0x3d682869	0.056679163
77	0x3cb8be5d	0.02255171
78	0x3cace943	0.021107322
79	0x3b891970	0.0041839406
80	0x3c7f1218	0.015568279
81	0xbb45141b	-0.0030071798
82	0x3b87b0d3	0.004140952
83	0xbd5544fb	-0.052067738
84	0xbd16c70d	-0.036810923
85	0x3c9c3081	0.019066097
86	0x3bed6b9d	0.0072454945
87	0xbd1b96be	-0.037985556
88	0xbb75eac6	-0.003752397
89	0x3cb2edca	0.021841902
90	0x3c4ca09e	0.012489466
91	0xbb89a1cd	-0.0042001964
92	0x3d22dcc9	0.03976134
93	0xbcb33950	-0.021877915
94	0xbd060429	-0.03271881
95	0xbd2519dd	-0.04030787
96	0x3ca744fa	0.020418633
97	0x3ba1915e	0.004930659
98	0x3ca42cc6	0.02004088
99	0x393ac2d3	0.0001781092
100	0xbd4925f6	-0.049108468
101	0x3b729b3f	0.0037018803
102	0xbc60fe23	-0.013732466
103	0xbcfb684f	-0.030689387
104	0xbb758a18	-0.0037466343
105	0x3d2183b1	0.03943223
106	0x3b224841	0.0024762305
107	0x3c1b80d6	0.009491166
108	0xbd85072c	-0.064955086
109	0x3b57c212	0.0032922071
110	0x3b74f7eb	0.0037379216
111	0xbbcc34d5	-0.006231884
112	0x3a42078e	0.00074016384
113	0xbc7073b3	-0.014676022
114	0xb9dfc074	-0.00042677263
115	0x3cfe5ae8	0.031049207
116	0xbbdca3e0	-0.0067334026
117	0x3c8f8193	0.01751784
118	0x3c8e98ff	0.017406939
119	0xbc6302e3	-0.013855669
120	0x3ba5e9f7	0.005063291
121	0x3c3ce68e	0.011529578
122	0x3d4f1396	0.050555788
123	0xbd36afc8	-0.04460123
124	0xbc205b13	-0.009787339
125	0xbd144446	-0.036197923
126	0x3cd795ae	0.02631649
127	0xbc672d3c	-0.014109906

spatial_net.8.weight f4 [60, 128]
0	0xbbb961cc	-0.0056574102
1	0x3dd0deee	0.101987705
2	0xbd1e7cba	-0.038693167
3	0xbbf1d4a2	-0.007380084
4	0x3bbd2d1b	0.0057731993
5	0x3d22eaac	0.03977458
6	0xbc452baa	-0.012034336
7	0xbd9f520c	-0.07779321
8	0xbd921caa	-0.071343735
9	0x3c9b3a8e	0.01894882
10	0x3d343899	0.04399929
11	0x3d45a977	0.048257317
12	0x3d98afa1	0.074553736
13	0x3a66f726	0.00088106317
14	0xbcb9e9e2	-0.022694532
15	0x3d25b28d	0.040453482
16	0xbd882e01	-0.066493995
17	0x3d4ac42b	0.049503487
18	0xbdf608da	-0.12013407
19	0x3df3ac9d	0.11898158
20	0x3d243504	0.040089622
21	0xbc2975bd	-0.010343012
22	0x3dbc5f21	0.09197832
23	0xbcbd9dc2	-0.023146514
24	0xbc94324b	-0.018090388
25	0x3c4619db	0.012091125
26	0x3d26601d	0.040619005
27	0xbd3f14c4	-0.046650663
28	0x3b43a015	0.0029850055
29	0x3cc200e1	0.02368206
30	0xbd89bd47	-0.06725555
31	0xbd73b7b1	-0.059501354
32	0x3d73e495	0.059544165
33	0xbc92c2dd	-0.017915184
34	0xbceb074a	-0.02869
35	0xbdafe5dd	-0.08588765
36	0xbd555310	-0.052081168
37	0x3d0d2da4	0.034467354
38	0x3d3f8e76	0.04676672
39	0xbbced536	-0.006312038
40	0xbba0f6e8	-0.004912246
41	0xbcf78bfc	-0.030218117
42	0xbd47ae02	-0.04874993
43	0xbd261a33	-0.04055233
44	0xbda42c01	-0.080162056
45	0xbbf0039c	-0.007324649
46	0x3dbdf841	0.09275866
47	0xbd897fa8	-0.067138016
48	0x3d1c0d8e	0.038098864
49	0xbca45033	-0.020057773
50	0x3bc45ef5	0.005992765
51	0xbd08ca5e	-0.033396117
52	0x3d6469ea	0.05576507
53	0x3cfe8bdf	0.031072555
54	0x3c9ef811	0.019405397
55	0xbcefab02	-0.029256348
56	0x3ca18c5c	0.019720249
57	0x3d308749	0.043097768
58	0x3d0187ee	0.031623773
59	0xbb77d013	-0.003781323
60	0xbcd37fb6	-0.025817733
61	0xbb656db1	-0.0035008008
62	0xbd0a2753	-0.03372891
63	0xbd14ccf2	-0.036328264
64	0x3c6ab374	0.0143250115
65	0x3dddec62	0.10836102
66	0xbd1c1efd	-0.03811549
67	0xbdc6aece	-0.0970131
68	0x3d37703e	0.044784777
69	0x3d9d2cb6	0.076745436
70	0x3d5f91d5	0.054582436
71	0xbd350e7a	-0.04420326
72	0xbc9ea0d5	-0.0193638
73	0x3c86361d	0.016383225
74	0xbdb8da1c	-0.09025976
75	0xbd3bac68	-0.045818716
76	0xbce8f32e	-0.02843627
77	0x3cd55f3c	0.026046388
78	0xbd4ff563	-0.05077113
79	0xbc24e7f4	-0.010065068
80	0x3d65efcf	0.056136902
81	0xbcada812	-0.021198306
82	0x3d6e052a	0.058110394
83	0xbc802f91	-0.015647681
84	0xbd2be692	-0.041967936
85	0x3d122840	0.035682917
86	0x3c60501c	0.013690975
87	0x3ceebc51	0.02914253
88	0xbc82ecdf	-0.01598209
89	0x3c43a34a	0.011940787
90	0x3d48b380	0.04899931
91	0xba54a10d	-0.00081111566
92	0x3b1f9e08	0.0024355669
93	0xbd1829c5	-0.03714921
94	0xbd5b902b	-0.053604286
95	0x3d8c18b1	0.06840647
96	0x3c84b2f4	0.016198613
97	0xbd825e85	-0.063656844
98	0xbce346e5	-0.027743766
99	0x3d8f73cd	0.07004509
100	0x3caaf083	0.020866638
101	0xbbbbc37e	-0.0057300916
102	0x3dab4260	0.083622694
103	0xbc862b2f	-0.016378013
104	0x3cfed4ab	0.031107267
105	0xbca0319e	-0.01955491
106	0x3cca09f0	0.024662942
107	0x3b9afe68	0.0047300346
108	0xbddece61	-0.108792074
109	0x3be5f4be	0.007017701
110	0xbe1665ea	-0.14687315
111	0x3d023e7c	0.03179787
112	0xbdac1444	-0.08402303
113	0x3c264c87	0.0101500815
114	0xbbd96032	-0.006633782
115	0x3cfe1cf3	0.031019663
116	0x3d3a1665	0.045431513
117	0xbd3d3565	-0.0461935
118	0xbd1f1986	-0.0388427
119	0x3d0d4f47	0.034499433
120	0xbd67b011	-0.056564394
121	0x3de7e829	0.11323578
122	0x3c9bcd1a	0.019018698
123	0xbbd88e48	-0.006608758
124	0x3dae9b15	0.08525673
125	0xbd0ac993	-0.033883642
126	0x3d382b17	0.04496297
127	0xbd61a958	-0.05509314
128	0x3d0ad87b	0.033897858
129	0x3cbfa0a8	0.023392037
130	0xbd92a7c9	-0.07160909
131	0x3d67f892	0.05663354
132	0xbcf82765	-0.030292222
133	0xbd95e2a1	-0.07318617
134	0xbdcd60e2	-0.100282446
135	0x3d8dbf12	0.069212094
136	0xbca19186	-0.019722711
137	0x3d76bcc8	0.06023863
138	0x3d3314e6	0.043721102
139	0xbdf854c2	-0.12125541
140	0xbd94fd2b	-0.072748505
141	0x3c530617	0.01287987
142	0x3db21df4	0.08697119
143	0x3ce0469a	0.027377415
144	0xbceba3d6	-0.028764647
145	0xbd23343e	-0.039844744
146	0x3d855e5c	0.06512138
147	0x3d852c88	0.06502634
148	0xba97383e	-0.0011537147
149	0xbd03caee	-0.03217595
150	0xbdaf4687	-0.08558374
151	0x3dc0b3cf	0.09409296
152	0xbc366024	-0.01113132
153	0xbd54332f	-0.051806625
154	0x3d54d51c	0.05196105
155	0xbd0d905d	-0.034561504
156	0xbcd2462e	-0.02566823
157	0x3ca7530d	0.020425344
158	0xbd7093c1	-0.05873466
159	0x3d828e92	0.063748494
160	0xbaa74a8c	-0.0012763306
161	0x3d438585	0.047734756
162	0xbc277ecf	-0.010223105
163	0xbc0ca85e	-0.008585064
164	0x3d7b10a5	0.06129517
165	0xbd19a5da	-0.037511684
166	0xbc77c777	-0.01512324
167	0xbc9f2eac	-0.019431435
168	0xbcd87691	-0.026423724
169	0x3d021193	0.03175504
170	0xbc9fd3de	-0.019510206
171	0xbde1b145	-0.110201396
172	0xbcecaed9	-0.028891968
173	0xbc4a21aa	-0.012337128
174	0xbd80074d	-0.062513925
175	0x3de07c6a	0.1096123
176	0x3dd1321f	0.10214638
177	0x3d53d85b	0.051720005
178	0xbbfee82f	-0.0077791433
179	0xbd9a081f	-0.0752108
180	0x3d5bffaf	0.053710636
181	0x3d800e4c	0.06252727
182	0xbc935035	-0.017982582
183	0xbd4c301b	-0.049850564
184	0xbcd7f7fa	-0.026363362
185	0x3d20f8d2	0.039299794
186	0x3c9a7833	0.018856144
187	0xbd362b04	-0.044474617
188	0x3d08c072	0.033386655
189	0x3d9b0cbf	0.075707905
190	0x3d9d4d1d	0.07680724
191	0xbd811f66	-0.06304817
192	0xbcd04129	-0.025421696
193	0x3d975d3b	0.07390829
194	0x3c8f3fcd	0.017486477
195	0xbcf96bbc	-0.03044688
196	0x3d9e5992	0.07731928
197	0xbbae0575	-0.005310709
198	0xbbf91874	-0.007601792
199	0x3c8b81d0	0.017029673
200	0xbd106166	-0.035249136
201	0xbd1edf7f	-0.03878736
202	0xbc5d3bc5	-0.01350302
203	0x3d98ea82	0.07466604
204	0xbc388301	-0.0112617025
205	0xbd2777d6	-0.04088577
206	0xbc8a3426	-0.01687057
207	0xbd3e10e8	-0.04640284
208	0xbcf1ae4a	-0.029502053
209	0xbd9de847	-0.07710319
210	0x3d245f7e	0.04013013
211	0xbca0fe40	-0.019652486
212	0xba8d32bd	-0.0010772567
213	0xbd4d2fb8	-0.050094336
214	0x3ab267fa	0.001361131
215	0x3cc8d126	0.024513792
216	0xbd0d6c45	-0.034527082
217	0x3bc425dc	0.0059859585
218	0x3cabf6cf	0.020991711
219	0xbb226cdd	-0.0024784126
220	0x3c12f53f	0.008969604
221	0x3cbad33c	0.022805803
222	0x3a027b98	0.00049775233
223	0x3dfbfacb	0.12303694
224	0xbd4a28bc	-0.049355254
225	0x3b9eb5f7	0.0048434692
226	0xbcf862ef	-0.030320613
227	0x3b2c679b	0.002630687
228	0x3d93a7a0	0.07209706
229	0x3bd86e86	0.0066049723
230	0xbd8eda43	-0.06975224
231	0xbd8ec180	-0.06970501
232	0x3d029976	0.031884633
233	0xbc575c08	-0.013144501
234	0xbd639975	-0.05556627
235	0x3ddabe02	0.10680772
236	0x3d15fd2a	0.03661839
237	0xbdc4305f	-0.095795386
238	0x3c092fc5	0.008373206
239	0xbd22caad	-0.039744068
240	0x3d314cc7	0.04328611
241	0x3baf126c	0.005342772
242	0xbcc422c2	-0.023942355
243	0xbc166f2f	-0.009181782
244	0xbc54c2df	-0.012985914
245	0x3c6ea01e	0.014564542
246	0xbda45068	-0.08023149
247	0xbd0107d3	-0.031501602
248	0x3d03419a	0.032044984
249	0xbc3d4ea2	-0.011554392
250	0x3d1ad266	0.037798308
251	0xbc9fe165	-0.019516656
252	0xbcf80b9e	-0.030278977
253	0x3c25e7bb	0.01012605
254	0xbd977842	-0.07395984
255	0x3ce09743	0.027415877

spatial_net.8.bias f4 [60]
0	0xbd583384	-0.052783504
1	0x3d068b63	0.032847773
2	0xbd2563a7	-0.04037824
3	0xbc81ec55	-0.015859762
4	0xbbc01c41	-0.005862743
5	0x394ee4fa	0.00019730991
6	0x3d06a012	0.0328675
7	0xbcaea8d6	-0.021320742
8	0xb9f0e757	-0.0004594873
9	0xbb420b88	-0.0029608924
10	0x3d540017	0.0517579
11	0x3ceda8e3	0.029011196
12	0xbd846ce3	-0.06466081
13	0x3d019814	0.031639174
14	0x3d2cbc84	0.04217197
15	0xbc3f66fb	-0.011682267
16	0x3cee8148	0.02911438
17	0xbcaf1cb3	-0.02137599
18	0x3c83a3e4	0.01606936
19	0x3c3338cd	0.010938835
20	0x3bfdcb5b	0.007745189
21	0x3d32cfb9	0.04365513
22	0xbd5099ba	-0.050927855
23	0x3cf10030	0.029419035
24	0x3d25f11e	0.04051315
25	0x3c5245da	0.012834037
26	0x3c965363	0.018350309
27	0x3c550760	0.013002247
28	0x3d04ef8b	0.03245501
29	0xb96d839e	-0.00022651113
30	0x3c4a6a2e	0.012354417
31	0x3c2b2d0a	0.01044775
32	0xbd2259ee	-0.039636545
33	0x3d47a940	0.048745394
34	0x3d27ff9f	0.041015264
35	0xbd559236	-0.05214139
36	0x3d073aaa	0.03301493
37	0x3cd8543b	0.026407352
38	0xbbd18e69	-0.0063951504
39	0xbc9bcffe	-0.019020077
40	0xbd818018	-0.0632326
41	0xbc271ec4	-0.010200206
42	0x3d6e0447	0.058109548
43	0xbd1ff1b9	-0.039048884
44	0x3c25194d	0.010076833
45	0x3ce798fd	0.028271193
46	0x3ce0b309	0.02742912
47	0xbc8c3213	-0.017113721
48	0xbd2d0dfa	-0.042249657
49	0x3c822ba5	0.015889952
50	0x3c0ed620	0.008718044
51	0xbd2a19f6	-0.041528665
52	0xbc357675	-0.011075606
53	0x3c10871d	0.008821276
54	0x3d273b70	0.04082817
55	0xbd24b440	-0.040210962
56	0xbd2007df	-0.039070006
57	0x3cbda342	0.023149136
58	0x3970b038	0.0002295383
59	0x3d17d440	0.03706765
